checkpoints/agent1_checkpoint_critic.pth (torch_old, 427012 bytes, 5 tensors)

fcs1.weight f4 [300, 52]
0.04570073 0.19574395 -0.022644259 0.21588136 -0.2776733 0.25818706 0.0217086 0.27621883
0.053742565 0.12738697 -0.05405621 -0.15009089 0.22101039 -0.04569788 0.034129657 -0.16565287
0.19804713 -0.1815559 0.044006765 -0.15320331 1.055941 -0.71032816 -0.02490551 -0.21634065
0.05434861 0.5456872 -0.03103513 0.04517057 0.32738996 0.30158013 -0.03402601 -0.021818655
0.42033613 0.2668657 -0.040070385 0.040549397 -0.21046276 -0.10448268 0.000932169 0.026318097
1.2759998 0.3969922 0.027384901 0.2751444 -1.0169077 -0.6771836 -0.042971853 0.19418335
0.44390103 -0.21286751 1.2514981 0.58308196 0.91444355 0.5524076 -0.08566829 0.08103341
-0.10575537 -0.30706757 -0.061460745 0.11187085 0.8382216 0.6547891 -0.056389295 0.025176562
0.023494296 -0.24133538 -0.043655604 0.121061444 0.84714895 0.6034947 0.022861987 -0.03146541
-0.02337838 -0.19590838 0.08321173 -0.04893294 0.50972605 0.56622154 -0.018413559 0.27632973
0.109440744 -0.33858487 -0.045855884 0.34735268 0.4884764 0.51836425 0.015474563 -0.018831085
-0.019403469 -0.2695358 0.013963725 -0.09978896 0.46444732 0.58667415 -0.07900967 -0.020794885
-0.006142588 -0.1622649 0.02432553 0.027977407 -1.0396445 0.679773 -0.5465302 0.2513316
0.8674747 0.4275409 -0.16300073 0.15080585 -0.059420966 -1.032584 -0.22304413 0.17424399
0.69521546 0.5840922 -0.22306778 0.13515419 -0.05681143 -1.0481856 -0.19117685 0.13079618
0.87208474 0.6044053 -0.042364303 0.10225059 0.04428919 -0.9126375 0.0224668 0.106066056
0.3000516 0.6738471 -0.053238984 0.0020079592 -0.022312656 -0.9948853 -0.04388537 -0.07441239
0.25073925 0.6357933 -0.16875075 -0.15262614 0.0878944 -1.057848 -0.14519735 -0.12564269
0.2784051 0.6812778 0.12917763 0.23912169 -0.04844884 -0.9393479 0.1352973 0.28708392
0.75801414 0.6326619 1.2631905 -0.5043993 1.0087603 -0.5126829 -0.15319526 -0.033716824
-0.15546273 -0.33614084 -0.1719807 -0.113447525 1.2404588 -0.6591484 0.025640653 -0.3462263
-0.06738049 -0.731674 0.06416185 -0.3006603 0.9800574 -0.58352274 -0.010564276 0.25314048
-0.097875126 -2.087755 -0.09838376 0.31502157 0.19986272 0.79096794 -0.15332943 -0.29094565
0.14674132 -0.30044004 -0.15109816 -0.28573108 0.1675254 0.66462237 -0.08737552 -0.31431848
0.08801516 -0.7297527 -0.046946414 -0.2548703 0.18004942 0.5385145 0.07823616 0.39359117
0.07282421 -2.121906 0.077900246 0.32011673 -1.0373576 -1.1119744 -2.054356 0.28512734
0.15747716 -0.045017604 0.0007669631 0.09066635 -0.49560362 -0.23297858 0.002015807 0.08250715
0.19972354 0.05161137 -0.05048721 0.0016058059 -0.41608152 0.0715283 0.02740755 0.03786081
0.09215277 -0.15436149 -0.020146977 0.05251852 0.3933712 -0.1442991 0.054724004 0.05153038
-0.06951996 1.14433 -0.032362044 0.048878573 0.4874829 -0.25426725 -0.0029660673 0.025193432
-0.00511973 0.36694074 -0.044599563 0.03796581 0.3854054 0.0052257013 0.011012469 -0.019213941
0.20006771 -0.45446184 -0.01902502 -0.58390564 -0.36733922 -0.13701478 0.023714332 -0.6698622
00000000: b030 3b3d 1a71 483e 7480 b9bc 0110 5d3e
00000010: 322b 8ebe 1831 843e 3cd6 b13c 8e6c 8d3e
00000020: 2a21 5c3d bb71 023e 0b6a 5dbd 6db1 19be
00000030: 8c50 623e b32d 3bbd 8acb 0b3d e8a0 29be
00000040: decc 4a3e cae9 39be 7040 343d 54e1 1cbe
00000050: 1329 873f 11d8 35bf a406 ccbc 6788 5dbe
00000060: a69c 5e3d 28b2 0b3f 633d febc c704 393d
00000070: a89f a73e b668 9a3e dc5e 0bbd 09bd b2bc
00000080: 4c36 d73e 9fa2 883e d820 24bd 2017 263d
00000090: 8d83 57be 04fb d5bd cd5c 743a 0d99 d73c
000000a0: f653 a33f 9042 cb3e 4d56 e03c badf 8c3e
000000b0: 082a 82bf e85b 2dbf 4103 30bd 00d8 463e
000000c0: ff46 e33e f1f9 59be 1731 a03f dc44 153f
000000d0: f918 6a3f 966a 0d3f db72 afbd d8f4 a53d
000000e0: 4596 d8bd f637 9dbe 43be 7bbd 8b1c e53d
000000f0: b195 563f 42a0 273f 76f8 66bd 143f ce3c
00000100: 1c77 c03c 9f20 77be 38d0 32bd 10ef f73d
00000110: c1de 583f a17e 1a3f 1049 bb3c e0e1 00bd
00000120: 0484 bfbc 359c 48be e96a aa3d e86d 48bd
00000130: 687d 023f e5f3 103f 08d8 96bc 177b 8d3e
00000140: 7822 e03d ff5a adbe 61d3 3bbd 36d8 b13e
00000150: 9419 fa3e 85b3 043f 0689 7d3c a643 9abc
00000160: 06f4 9ebc 9900 8abe 1cc8 643c 275e ccbd
00000170: 0acc ed3e 4730 163f d2cf a1bd 095a aabc
00000180: c347 c9bb c528 26be 5546 c73c e030 e53c
00000190: 1213 85bf 9a05 2e3f 67e9 0bbf 89ae 803e
000001a0: d212 5e3f a4e6 da3e aae9 26be d96c 1a3e
000001b0: 6663 73bd b62b 84bf ae65 64be 046d 323e
000001c0: a4f9 313f 1187 153f e16b 64be dc65 0a3e
000001d0: 1ab3 68bd f22a 86bf ddc3 43be 6fef 053e
000001e0: f240 5f3f 4eba 1a3f 3186 2dbd c268 d13d
000001f0: 9568 353d 9ca2 69bf 4b0c b83c 2939 d93d
00000200: 5da0 993e 3e81 2c3f 1f11 5abd f797 033b
00000210: 08c9 b6bc ceb0 7ebf 25c1 33bd 8665 98bd
00000220: e560 803e 5ac3 223f ffcc 2cbe 074a 1cbe
00000230: fb01 b43d 9067 87bf 9dae 14be 7aa8 00be
00000240: 1d8b 8e3e 3968 2e3f 2447 043e 51dc 743e
00000250: 4a72 46bd 1b79 70bf 608b 0a3e aafc 923e
00000260: 370d 423f 21f6 213f 3ab0 a13f 5020 01bf
00000270: 0f1f 813f 303f 03bf 38df 1cbe a71a 0abd
00000280: 9f31 1fbe a71a acbe b51b 30be 2d57 e8bd
00000290: 5bc7 9e3f f3bd 28bf 590c d23c 9344 b1be
000002a0: c8fe 89bd fd4e 3bbf 4a67 833d 26f0 99be
000002b0: 0be5 7a3f bf61 15bf c915 2dbc a19b 813e
000002c0: c172 c8bd c79d 05c0 6d7d c9bd 824a a13e
000002d0: d0a8 4c3e e07c 4a3f 6402 1dbe d4f6 94be
000002e0: 5b43 163e 47d3 99be 7ab9 1abe 584b 92be
000002f0: c78b 2b3e b124 2a3f f0f1 b2bd 5aee a0be
00000300: 4b41 b43d 13d1 3abf e24a 40bd 5c7e 82be
00000310: e05e 383e 16dc 093f 483a a03d c884 c93e
00000320: dc24 953d 4fcd 07c0 2a8a 9f3d 57e6 a33e
00000330: 22c8 84bf 2d55 8ebf 927a 03c0 36fc 913e
00000340: b141 213e 6164 38bd 060e 493a 48af b93d
00000350: c2bf fdbe f091 6ebe a11b 043b 82f9 a83d
00000360: 5484 4c3e 7266 533d adcb 4ebd e879 d23a
00000370: a308 d5be 6e7d 923d cc85 e03c f013 1b3d
00000380: 97ba bc3d f010 1ebe 460b a5bc a91d 573d
00000390: f367 c93e 25c3 13be 4726 603d 8511 533d
000003a0: 7b60 8ebd 6879 923f 108e 04bd e634 483d
000003b0: 5c97 f93e 512f 82be 5a62 42bb 7562 ce3c
000003c0: 68c3 a7bb a8df bb3e 08ae 36bd 0a82 1b3d
000003d0: db53 c53e 5c3c ab3b a56d 343c 8e66 9dbc
000003e0: 8dde 4c3e 39af e8be 5cda 9bbc d77a 15bf
000003f0: e313 bcbe 9a4d 0cbe 8f44 c23c 177c 2bbf

fcs1.bias f4 [300]
-1.9939444 -0.44494268 -1.1476113 -0.537478 -0.53002244 -0.5479675 -0.5082572 1.47562
-0.2540904 -0.7711142 -0.8076946 -0.65982735 -0.27655873 -1.1070387 -0.87282526 -0.9885838
-0.49166355 -0.66902107 -0.5516512 -0.2930296 -0.30509332 0.43016633 -0.41894627 -0.8327889
-0.89377713 -0.33271784 -0.8675141 0.6740281 -1.5579355 -0.9703354 -0.5406894 -0.7730391
-0.74964195 -1.427547 -0.34124738 -0.9301238 -0.56406903 -0.89506686 -0.35608846 -0.93383425
-0.7954354 -0.36594614 -0.58674335 -0.79228824 -0.5035872 -0.79063207 -0.20097986 0.465155
-0.16881675 -0.24693865 -0.24233629 0.029078117 -0.9155765 -0.7570499 -0.3646467 -0.9157053
-0.57216036 -0.106832676 -0.45376104 -0.57002735 -0.6550346 -0.98172736 -0.29652518 -0.3200722
-1.05281 1.6332394 -0.13002835 -0.97021943 -0.16926274 0.22770213 0.49343005 -0.8385915
-0.46365297 -0.9248897 -0.92699456 -0.7988645 -0.8081212 -0.044063974 -0.6081248 -0.70715564
-0.7813786 -0.41589305 -0.3049298 -1.2994974 -0.85604095 0.48427117 -1.384401 -1.6021079
-0.19726539 0.18122265 1.6827604 -0.25669676 -0.92053276 -0.7657015 -0.8592141 -0.92911756
0.41686833 -1.0224557 -0.22913033 0.04248993 -0.8989173 -0.75607914 -0.74018353 -1.0348492
-0.99602485 -1.214434 -0.41536695 0.31903163 -0.5651072 -0.34653056 -0.5005628 -2.7537413
-0.8033002 -0.80352384 -0.77118146 -1.1827943 -0.99265754 -0.6549419 -1.0493103 -0.18868825
-0.76947004 -1.133021 -2.0147839 -0.31793344 -1.4336457 -0.72236276 -0.6045811 -0.47089022
0.6816632 -1.388885 -1.0887487 -0.07273443 0.0022936133 -0.7587279 -0.3487785 -0.28190264
-1.1256143 -0.61384255 -0.7223007 -1.5768565 -2.6876147 -0.2580313 -0.8877713 -0.05384732
-1.1347895 -0.8302994 -0.4183443 -0.598536 -0.61949325 -0.64222133 -0.479656 -0.8556712
-0.80536926 -0.67985076 0.16561231 -0.93004775 -0.07072262 -0.7935799 -1.3878719 -0.5491764
-0.65639156 -0.94213676 -0.48564547 0.09410698 -0.52847785 1.1003513 -0.9667706 -0.8083822
0.61512226 -1.1108667 -0.8724373 -1.0069519 -0.8144947 -0.52986723 -0.89091074 -0.37366936
-0.69481325 -0.85826814 -0.7141694 -0.7603874 0.3672222 -0.1765579 -1.4480153 -0.48410845
-0.79499936 -0.08008683 -0.36737067 -0.07693141 -0.35351682 -0.7969158 0.059986502 -0.96874464
-0.6371109 -0.64852816 -0.67246425 -1.1532843 -1.3851868 -0.3399899 -0.503476 -0.6221884
-0.67420435 -2.2666793 -0.5097905 0.09415721 -0.9555831 -0.79227513 -0.50371933 -0.1958443
-0.6016229 -1.1292396 -0.8681207 -0.4739306 -0.88529086 -1.098152 -0.78458726 -3.5660908
-0.36651418 -0.5834317 0.7334731 -0.302221 -0.86586976 -1.1132218 -0.5157736 -0.44459566
-0.38437328 0.02529868 -1.667941 -2.0461712 -0.39055213 -1.0411754 -0.7597396 -1.2652713
-1.0705214 -0.03444089 -0.23712021 -1.1983981 -1.4861189 -0.6047909 -0.45410988 -1.0722123
0.36824977 -0.28263983 0.36885318 -0.91779536 0.5792528 -0.92940277 -0.8261775 -1.002665
-0.70569414 -0.49669605 0.1845285 -0.5068901 -0.2813108 -0.6532275 -0.31034526 -0.71787864
00000000: 9239 ffbf 87cf e3be ede4 92bf 2998 09bf
00000010: 8daf 07bf 9947 0cbf 251d 02bf 1ee1 bc3f
00000020: 2318 82be bd67 45bf 13c5 4ebf 72ea 28bf
00000030: 1b99 8dbe 72b3 8dbf 7a71 5fbf d413 7dbf
00000040: 53bb fbbe f744 2bbf 0339 0dbf fa07 96be
00000050: 3135 9cbe c33e dc3e 2080 d6be a731 55bf
00000060: 94ce 64bf fe59 aabe 6715 5ebf 1b8d 2c3f
00000070: 6e6a c7bf e767 78bf 9f6a 0abf e4e5 45bf
00000080: 89e8 3fbf dcb9 b6bf fab7 aebe 981c 6ebf
00000090: d466 10bf 1a23 65bf 3a51 b6be c30f 6fbf
000000a0: a8a1 4bbf 4b5d bbbe d034 16bf 67d3 4abf
000000b0: 17eb 00bf dd66 4abf aacd 4dbe cc28 ee3e
000000c0: 4cde 2cbe 7cdd 7cbe 0127 78be 3b35 ee3c
000000d0: 3963 6abf 06ce 41bf f9b2 babe aa6b 6abf
000000e0: 1a79 12bf 17cb dabd 5e53 e8be 50ed 11bf
000000f0: 59b0 27bf 7c52 7bbf 26d2 97be 81e0 a3be
00000100: 7ac2 86bf fd0d d13f 2726 05be 4d60 78bf
00000110: 3653 2dbe bf2a 693e dda2 fc3e efad 56bf
00000120: ec63 edbe 92c5 6cbf 844f 6dbf 6282 4cbf
00000130: 08e1 4ebf 6d7c 34bd 11ae 1bbf 2708 35bf
00000140: 6e08 48bf efef d4be c21f 9cbe ee55 a6bf
00000150: 8025 5bbf 64f2 f73e 0d34 b1bf df11 cdbf
00000160: f0ff 49be 6e92 393e b164 d73f c26d 83be
00000170: 09a8 6bbf 0305 44bf 75f5 5bbf a6da 6dbf
00000180: c46f d53e d4df 82bf 24a1 6abe ec09 2e3d
00000190: 721f 66bf 678e 41bf ab7c 3dbf f075 84bf
000001a0: 7cfb 7ebf 9372 9bbf faaa d4be 1d58 a33e
000001b0: deaa 10bf 746c b1be e224 00bf 4c3d 30c0
000001c0: 15a5 4dbf bdb3 4dbf 266c 45bf ce65 97bf
000001d0: ce1e 7ebf 46aa 27bf cd4f 86bf 7e37 41be
000001e0: fdfb 44bf d506 91bf 38f2 00c0 2cc8 a2be
000001f0: b481 b7bf c4ec 38bf d4c5 1abf 8618 f1be
00000200: 7b81 2e3f fcc6 b1bf 1e5c 8bbf caf5 94bd
00000210: 7250 163b fe3b 42bf 1893 b2be 8b55 90be
00000220: 2114 90bf c924 1dbf b3e8 38bf 6fd6 c9bf
00000230: e101 2cc0 ae1c 84be fb44 63bf 028f 5cbd
00000240: c840 91bf 808e 54bf 3931 d6be a839 19bf
00000250: 1c97 1ebf 9e68 24bf 7995 f5be 450d 5bbf
00000260: ae2c 4ebf b30a 2ebf 4696 293e 9c17 6ebf
00000270: 05d7 90bd 0d28 4bbf c9a5 b1bf d396 0cbf
00000280: 4709 28bf e02f 71bf 86a6 f8be 29bb c03d
00000290: 534a 07bf 50d8 8c3f 477e 77bf 23f2 4ebf
000002a0: a778 1d3f e130 8ebf 0d58 5fbf cde3 80bf
000002b0: ba82 50bf 61a5 07bf ba12 64bf 9751 bfbe
000002c0: 48df 31bf 76b7 5bbf ced3 36bf c0a8 42bf
000002d0: 8c04 bc3e 98cb 34be 9158 b9bf 10dd f7be
000002e0: 1485 4bbf 9004 a4bd 0218 bcbe 378e 9dbd
000002f0: 2800 b5be ad02 4cbf 68b4 753d a6ff 77bf
00000300: b319 23bf f105 26bf 9e26 2cbf d29e 93bf
00000310: cd4d b1bf 2813 aebe cee3 00bf bd47 1fbf
00000320: a898 2cbf 4611 11c0 a181 02bf 7fd5 c03d
00000330: 18a1 74bf 8bd2 4abf c0f3 00bf 688b 48be
00000340: f503 1abf ec8a 90bf 283d 5ebf 08a7 f2be
00000350: 6ca2 62bf 3f90 8cbf b6da 48bf d53a 64c0
00000360: bfa7 bbbe c85b 15bf e5c4 3b3f b6bc 9abe
00000370: a4a9 5dbf 0d7e 8ebf bd09 04bf 0ba2 e3be
00000380: 93cc c4be 2d3f cf3c 177f d5bf 78f4 02c0
00000390: 73f6 c7be 3c45 85bf 4b7e 42bf 69f4 a1bf
000003a0: d806 89bf e411 0dbd a4cf 72be 1c65 99bf
000003b0: 2539 bebf 94d3 1abf 1781 e8be 413e 89bf
000003c0: 3c8b bc3e 2bb6 90be 53da bc3e a3f4 6abf
000003d0: e949 143f 57ed 6dbf 5e80 53bf 5457 80bf
000003e0: 5fa8 34bf f24e febe 0af5 3c3e 8dc3 01bf
000003f0: f807 90be eb39 27bf 93e5 9ebe e5c6 37bf

fc2.weight f4 [300, 300]
-0.054362644 -0.05749063 0.0073842555 0.029908776 0.04685265 -0.023707667 -0.0020433886 -0.07661583
-0.0079651065 0.006711853 -0.0020449732 -0.06289247 -0.025947068 0.05087781 -0.009170849 -0.04696509
-0.040214922 0.00794328 -0.07225168 -0.013708599 0.015411004 0.044416454 -0.015426597 -0.06450611
0.030327778 0.0063214446 0.034714922 -0.101938166 -0.052353963 0.050431136 -0.084951974 -0.08340415
-0.065259084 -0.0019990231 -0.03147051 0.015487393 0.011922113 -0.05975661 -0.02065281 -0.033936188
0.03204585 -0.034097087 -0.01843119 -0.021541003 -0.05179317 0.048595868 -0.037194334 -0.050572332
0.016029749 0.006876212 -0.06598218 -0.06564757 -0.040700413 -0.075259626 -0.015358653 0.05573087
0.018874219 -0.03300081 0.0022271213 -0.06550886 0.027550273 0.0038319712 0.016406827 -0.0229213
-0.07558562 -0.132938 -0.042116463 -0.023902941 -0.0354919 -0.0003134837 -0.04904736 -0.04407295
-0.006285991 -0.040392194 -0.038251184 -0.04196634 0.01600198 0.030464305 -0.0145929465 0.053497367
-0.036658466 -0.027186343 -0.015190638 0.005899663 0.012472433 -0.02549143 0.004282497 0.027407369
0.009126361 0.04998467 -0.0027308355 -0.051471893 -0.046096466 0.012447442 -0.044710416 -0.041387297
-0.10011353 -0.0016377456 0.04123872 -0.013477587 -0.025591359 0.0270179 -0.031453192 -0.04796468
-0.1494453 0.024989396 -0.040916093 -0.01873485 0.040946275 -0.006444053 0.008211806 -0.011240829
0.018659607 -0.034836434 -0.013275634 0.050119117 0.006291695 0.026311278 -0.039047033 0.036973044
-0.027726099 -0.0007086149 -0.008886174 -0.0036501733 -0.055417746 0.019412268 -0.042157225 -0.03400765
-0.016603995 -0.021439224 -0.029854296 -0.027501175 -0.033221986 0.02220612 -0.06724091 0.047528267
0.04641135 -0.036735795 -0.030355627 -0.034543358 -0.09058993 -0.03671407 -0.051507857 0.004216023
0.019773416 -0.016055074 0.010445012 -0.051279455 -0.051465824 -0.04686103 -0.024603723 -0.024484105
0.029440798 -0.0077771507 -0.042380378 -0.020802561 -0.1079 -0.020769821 -0.0005442074 -0.049430203
-0.053633057 0.013175444 -0.03980899 -0.13754101 0.0041046217 -0.107357346 0.013587741 0.014316587
0.009628844 0.040444992 -0.045840196 -0.027486777 -0.035216235 -0.014400158 0.033159178 0.04402844
-0.05501184 -0.049391326 0.014420017 -0.051855005 -0.04727093 -0.046635244 -0.04469877 -0.035894766
-0.026642745 -0.0017036926 -0.06532614 -0.0047292863 -0.07674722 0.03604927 -0.04014454 -0.07668381
0.020460632 -0.032984685 -0.107781105 -0.051486902 0.052921824 -0.123611845 -0.011636509 0.012000886
-0.04795968 -0.04357744 -0.05502646 -0.076087646 0.014568384 -0.047548458 0.05568852 -0.019322958
-0.057748728 -0.02526902 -0.034448773 -0.060303736 -0.039810717 -0.038937815 -0.005858405 -0.07193502
-0.054893654 -0.019775508 -0.11572742 0.044141874 -0.038863983 -0.07450248 0.034304228 -0.013473833
0.01310233 -0.074501544 0.037738774 -0.05175235 -0.0479428 -0.042893905 0.04361282 0.05126781
-0.055585522 -0.059223447 -0.012303733 -0.027228411 -0.024178423 0.0032702617 -0.02257011 -0.029807243
-0.038629953 -0.07459418 -0.05545953 -0.038061023 -0.026552022 -0.033475105 -0.09041964 -0.037314452
0.021127107 -0.027497338 -0.028160248 -0.09171459 0.009814232 -0.03574676 -0.03589965 0.017892536
00000000: 5dab 5ebd 4b7b 6bbd a0f7 f13b 4003 f53c
00000010: 90e8 3f3d 9536 c2bc 5fea 05bb c3e8 9cbd
00000020: 1480 02bc 1bef db3b f504 06bb c4cd 80bd
00000030: f28e d4bc 4065 503d 5441 16bc 775e 40bd
00000040: 67b8 24bd 8824 023c b0f8 93bd 089a 60bc
00000050: 707e 7c3c 07ee 353d d6bf 7cbc c81b 84bd
00000060: f671 f83c 1f24 cf3b 3c31 0e3d f5c4 d0bd
00000070: 1c71 56bd e190 4e3d 4dfb adbd cccf aabd
00000080: 8ea6 85bd 0b02 03bb 39e7 00bd d6be 7d3c
00000090: f754 433c 59c3 74bd 1530 a9bc ac00 0bbd
000000a0: 8242 033d 63a9 0bbd 02fd 96bc c276 b0bc
000000b0: 1325 54bd 760c 473d 1659 18bd ef24 4fbd
000000c0: d250 833c d951 e13b aa21 87bd 3c72 86bd
000000d0: 7ab5 26bd b821 9abd dca2 7bbc 0e46 643d
000000e0: 1b9e 9a3c db2b 07bd e5f4 113b 8229 86bd
000000f0: 1cb1 e13c cf21 7b3b 9c67 863c 73c5 bbbc
00000100: a2cc 9abd e620 08be 5082 2cbd 1ad0 c3bc
00000110: f45f 11bd 125b a4b9 e2e5 48bd d685 34bd
00000120: b7fa cdbb 4972 25bd 46ad 1cbd e6e4 2bbd
00000130: 9616 833c 4790 f93c 4117 6fbc 0e20 5b3d
00000140: 3027 16bd e5b5 debc 27e2 78bc f651 c13b
00000150: 2d59 4c3c 67d3 d0bc 3054 8c3b 6b85 e03c
00000160: bc86 153c babc 4c3d d1f7 32bb 31d4 52bd
00000170: a6cf 3cbd 5bf0 4b3c 4522 37bd ba85 29bd
00000180: 5308 cdbd a0a9 d6ba efe9 283d 19d1 5cbc
00000190: f8a4 d1bc a554 dd3c 10d5 00bd 9d76 44bd
000001a0: 3008 19be 90b6 cc3c a297 27bd d479 99bc
000001b0: 48b7 273d a228 d3bb d08a 063c 742b 38bc
000001c0: 08dc 983c a6b0 0ebd 0b82 59bc b449 4d3d
000001d0: 902a ce3b c08a d73c c8ef 1fbd 0c71 173d
000001e0: d821 e3bc 57c2 39ba 5197 11bc bf37 6fbb
000001f0: b8fd 62bd 7a06 9f3c 0ead 2cbd 9b4b 0bbd
00000200: 1a05 88bc 50a1 afbc ff90 f4bc 254a e1bc
00000210: c713 08bd 9ce9 b53c 9ab5 89bd 00ad 423d
00000220: d419 3e3d 4678 16bd 5dac f8bc 567d 0dbd
00000230: 3787 b9bd 7e61 16bd e7f9 52bd 9026 8a3b
00000240: dcfb a13c ee85 83bc 8e21 2b3c 680a 52bd
00000250: d4cd 52bd 5af1 3fbd bf8d c9bc e492 c8bc
00000260: d42d f13c 78d7 febb 0c97 2dbd 226a aabc
00000270: adfa dcbd 7925 aabc 24a9 0eba 5377 4abd
00000280: 56ae 5bbd d1dd 573c c00e 23bd 8dd7 0cbe
00000290: 1080 863b 2bde dbbd 1e9f 5e3c 1e90 6a3c
000002a0: 4dc2 1d3c a6a9 253d eec2 3bbd f32b e1bc
000002b0: e63e 10bd a4ee 6bbc ebd1 073d 2a57 343d
000002c0: 1854 61bd 8f4e 4abd ef41 6c3c ea65 54bd
000002d0: 2a9f 41bd 9904 3fbd 0f16 37bd 6406 13bd
000002e0: e341 dabc 704e dfba b6c9 85bd 21f8 9abb
000002f0: a52d 9dbd 66a8 133d 9a6e 24bd 670c 9dbd
00000300: 0e9d a73c f31a 07bd 57bc dcbd eee3 52bd
00000310: 8ec4 583d 3528 fdbd 0ea7 3ebc 5d9f 443c
00000320: 5f71 44bd 427e 32bd 6d63 61bd d7d3 9bbd
00000330: 3bb0 6e3c 2cc2 42bd a519 643d 2e4b 9ebc
00000340: ee89 6cbd fa00 cfbc 281a 0dbd 0d01 77bd
00000350: 9010 23bd 427d 1fbd ddf7 bfbb ab52 93bd
00000360: 2bd8 60bd 3f00 a2bc 7f02 edbd 1cce 343d
00000370: d72f 1fbd c294 98bd 9782 0c3d 5ac1 5cbc
00000380: 28ab 563c 4494 98bd f993 1a3d 46fa 53bd
00000390: ab5f 44bd 85b1 2fbd 5ba3 323d 32fe 513d
000003a0: a5ad 63bd 4994 72bd 9995 49bc 1e0e dfbc
000003b0: d411 c6bc e351 563b f4e4 b8bc 522e f4bc
000003c0: 713a 1ebd d5c4 98bd 8829 63bd e0e5 1bbd
000003d0: a083 d9bc 311d 09bd ef2d b9bd 0ad7 18bd
000003e0: c112 ad3c 1942 e1bc 52b0 e6bc dcd4 bbbd
000003f0: dfcb 203c 326b 12bd 830b 13bd 5e93 923c

fc2.bias f4 [300]
-0.16166198 -0.13298471 -0.10676368 -0.06126145 -0.113357775 -0.080458626 -0.058736574 -0.083125405
-0.044925045 -0.08633565 -0.041005604 -0.050927855 -0.014863333 -0.102583215 -0.07956735 -0.15749866
-0.09454024 -0.14523953 -0.01660916 0.021538954 0.8341871 -0.15618534 -0.07190897 -0.111925095
0.54017746 -0.13814336 -0.07902495 -0.0935835 -0.10674888 -0.13097881 -0.045265988 -0.07845721
-0.079000205 -0.10139935 -0.16630666 -0.015132614 -0.09764945 -0.071154125 -0.09729734 -0.13325953
-0.12280833 -0.09520721 -0.15445788 -0.07887641 -0.079117715 -0.06520112 -0.027201574 -0.12467702
-0.13293298 -0.11686481 -0.007407366 -0.09440736 -0.026835933 -0.06633514 -0.08914586 -0.08162128
-0.098063126 -0.10960292 -0.08188975 -0.07121837 -0.13693576 -0.048616923 -0.12271525 -0.098833226
-0.033491425 -0.033942327 -0.13567625 -0.067836925 -0.15268725 -0.16825625 -0.13616489 -0.08849378
-0.057747964 -0.1029686 -0.06422604 -0.046821263 -0.13277616 -0.062217277 -0.1596222 -0.069498666
-0.11412882 0.009839666 -0.05441113 -0.06556758 -0.15479709 -0.04886326 -0.07495492 -0.079190604
-0.017979136 -0.1681037 -0.042889774 -0.08652553 -0.15934202 -0.05980149 -0.07409847 -0.09985544
-0.04637748 -0.0679879 -0.050726034 -0.036302052 -0.013690728 -0.06927872 -0.06622111 -0.06997624
-0.09703017 -0.12230614 -0.08814571 -0.13810776 -0.07162494 -0.07835052 -0.14727858 -0.13987182
-0.109436534 -0.11967158 -0.06399943 -0.060772263 -0.08773126 -0.07561042 -0.13735023 -0.14661238
-0.162865 -0.21322133 -0.060294688 -0.10619467 -0.046710778 -0.074488856 -0.05998587 -0.055610847
-0.053819098 -0.08314867 -0.062756754 -0.024845842 -0.07988773 -0.10900132 -0.13208151 -0.12649064
-0.052510586 -0.026944607 -0.16182628 -0.11070532 -0.100296 -0.11695737 -0.11007153 -0.08768429
0.5778372 -0.14675824 -0.08832658 -0.14614666 -0.039660122 0.016568221 -0.10249127 -0.03889623
-0.1233957 -0.032175023 -0.10786981 -0.12825322 -0.14419708 -0.4207645 0.02883857 -0.11766072
0.9355793 -0.041348916 -0.068729974 -0.09481707 -0.1373903 -0.10778607 -0.05510934 -0.10621998
-0.05627547 -0.08945948 -0.08217012 -0.050209064 -0.17900285 -0.06642223 -0.087064676 -0.06863433
-0.04699427 -0.10332442 -0.12775137 -0.10654036 0.42059723 -0.13115503 -0.063497365 -0.07021144
-0.14124286 -0.110206276 -0.07728947 -0.110578544 -0.13274305 -0.13850369 -0.11649609 -0.08920962
-0.072711766 -0.07243395 -0.14157544 -0.12972802 -0.19323425 -0.052291226 -0.09718295 -0.023220329
-0.15575516 -0.07172249 -0.102659844 -0.17239638 -0.09911281 -0.008203629 -0.10868835 -0.116087995
-0.11774407 -0.022206398 -0.06195532 -0.13939297 -0.12362137 -0.09916766 -0.08769169 -0.081462204
-0.13878907 -0.09497504 -0.1198116 -0.040559825 -0.12460229 -0.10122873 -0.05291855 -0.07824338
-0.099601954 -0.11631299 -0.15701726 -0.07237818 -0.050668173 -0.094366714 -0.10168668 -0.10608148
-0.027552744 -0.11081023 -0.14069432 -0.06256083 -0.13550714 -0.12628841 -0.13278933 -0.028762132
-0.10726976 -0.062258445 -0.11054962 -0.029037895 -0.03999516 -0.0068044853 -0.06452682 -0.13749298
-0.14122717 -0.10036424 -0.41175455 -0.02872607 -0.08019846 -0.14899611 -0.058054227 -0.13586912
00000000: b88a 25be 252d 08be eba6 dabd 49ed 7abd
00000010: 1f28 e8bd 7ec7 a4bd c395 70bd a73d aabd
00000020: 5303 38bd bfd0 b0bd 7ef5 27bd ba99 50bd
00000030: 5685 73bc 2617 d2bd 35f4 a2bd 5447 21be
00000040: 509e c1bd acb9 14be ef0f 88bc 7672 b03c
00000050: 498d 553f 0def 1fbe 0345 93bd fc38 e5bd
00000060: 1249 0a3f 7475 0dbe d5d7 a1bd b5a8 bfbd
00000070: 289f dabd 4f1f 06be d468 39bd 2cae a0bd
00000080: dcca a1bd 76aa cfbd 4b4c 2abe c9ee 77bc
00000090: 6ffc c7bd 41b9 91bd d443 c7bd 3075 08be
000000a0: ef82 fbbd fffb c2bd 352a 1ebe f589 a1bd
000000b0: 7808 a2bd 2a88 85bd d6d5 debc aa56 ffbd
000000c0: 951f 08be d156 efbd 7db9 f2bb a558 c1bd
000000d0: 08d7 dbbc b8da 87bd 1b92 b6bd 0f29 a7bd
000000e0: 52d5 c8bd 7f77 e0bd d0b5 a7bd f0da 91bd
000000f0: e338 0cbe 8a22 47bd 2252 fbbd 1369 cabd
00000100: 4e2e 09bd 1c07 0bbd b7ee 0abe 16ee 8abd
00000110: 0c5a 1cbe 5e4b 2cbe cf6e 0bbe 3a3c b5bd
00000120: 2189 6cbd 34e1 d2bd f188 83bd a7c7 3fbd
00000130: 79f6 07be 8bd7 7ebd 0174 23be 5155 8ebd
00000140: 5fbc e9bd 8d36 213c 34de 5ebd 4c48 86bd
00000150: 2183 1ebe d724 48bd f781 99bd af2e a2bd
00000160: fb48 93bc 6023 2cbe 30ad 2fbd 4c34 b1bd
00000170: 8e2a 23be 68f2 74bd f0c0 97bd 0281 ccbd
00000180: 50f6 3dbd 3d3d 8bbd 1ac6 4fbd 76b1 14bd
00000190: 134f 60bc 00e2 8dbd ef9e 87bd b44f 8fbd
000001a0: c1b7 c6bd a47b fabd bd85 b4bd 1f6c 0dbe
000001b0: 19b0 92bd 3d76 a0bd 32d0 16be 8f3a 0fbe
000001c0: 4320 e0bd 6016 f5bd 2212 83bd 56ec 78bd
000001d0: 72ac b3bd a3d9 9abd 8aa5 0cbe 8e21 16be
000001e0: 15c6 26be b156 5abe 90f7 76bd 977c d9bd
000001f0: cd53 3fbd 9d8d 98bd beb3 75bd 33c8 63bd
00000200: 6a71 5cbd da49 aabd 9d86 80bd 8289 cbbc
00000210: 2e9c a3bd 163c dfbd 6040 07be c386 01be
00000220: 5715 57bd f0ba dcbc cab5 25be 79b9 e2bd
00000230: fd67 cdbd 5887 efbd 2f6d e1bd d293 b3bd
00000240: 24ed 133f cb47 16be 91e4 b4bd 78a7 15be
00000250: a772 22bd 14ba 873c f1e6 d1bd a751 1fbd
00000260: e2b6 fcbd f5c9 03bd d9ea dcbd d054 03be
00000270: 66a8 13be 726e d7be dd3e ec3c 1bf8 f0bd
00000280: 2082 6f3f 7b5d 29bd 4dc2 8cbd 742f c2bd
00000290: 0bb0 0cbe f1be dcbd 55ba 61bd dc89 d9bd
000002a0: 1b81 66bd 8836 b7bd cf48 a8bd 05a8 4dbd
000002b0: 864c 37be 6108 88bd f74e b2bd 2890 8cbd
000002c0: 107d 40bd c19b d3bd 41d1 02be d531 dabd
000002d0: 8558 d73e 814d 06be e80a 82bd 04cb 8fbd
000002e0: f8a1 10be d4b3 e1bd f149 9ebd 0177 e2bd
000002f0: cbed 07be e9d3 0dbe 8195 eebd 89b3 b6bd
00000300: e8e9 94bd 4058 94bd 27f9 10be 6cd7 04be
00000310: 33df 45be 532f 56bd db07 c7bd 8f38 bebc
00000320: 487e 1fbe 3ee3 92bd 533f d2bd ad88 30be
00000330: a8fb cabd 8468 06bc ff97 debd 8bbf edbd
00000340: ce23 f1bd 31ea b5bc ddc4 7dbd 08bd 0ebe
00000350: 332d fdbd 6a18 cbbd b397 b3bd a8d5 a6bd
00000360: b91e 0ebe 4682 c2bd c95f f5bd 0f22 26bd
00000370: 7c2f ffbd 0251 cfbd 1fc1 58bd 113e a0bd
00000380: 1cfc cbbd 8135 eebd 22c9 20be 033b 94bd
00000390: 6e89 4fbd 5643 c1bd 1b41 d0bd 3f41 d9bd
000003a0: 4bb6 e1bc 79f0 e2bd 2c12 10be e41f 80bd
000003b0: 62c2 0abe c051 01be edf9 07be 909e ebbc
000003c0: 3fb0 dbbd b602 7fbd d767 e2bd e1e0 edbc
000003d0: f7d1 23bd 29f8 debb a326 84bd f6ca 0cbe
000003e0: db9d 10be c48b cdbd 7ed1 d2be ef52 ebbc
000003f0: 173f a4bd 7092 18be 45ca 6dbd 4621 0bbe

fc3.weight f4 [1, 300]
-0.0056616752 -0.0076217297 0.027284166 0.028018065 -0.01883887 -0.006084735 0.020017803 -0.009555774
-0.0033049237 0.0018609801 -0.013284169 0.02693612 -0.017220814 -0.0050267354 -0.01930452 -0.0075495355
0.007632016 0.008945335 -0.02078274 -0.028529003 -0.012494653 0.013185172 0.017475614 0.01621074
-0.027206628 -0.018960642 0.005686996 0.009045938 0.019566763 0.010310068 0.024531621 -0.019436715
-0.00802017 -0.022906821 0.0016775901 0.026700273 0.022304667 -0.0151574155 0.0033892356 -0.004101314
0.0028645927 -0.0028069527 0.01854598 -0.014135789 0.0059147812 -0.004720087 0.020181442 -0.010124148
-0.01886059 0.012469054 -0.010435861 0.026697574 0.00679588 0.002451426 -0.021860205 0.0033707896
0.019221703 -0.0066407183 0.024035873 0.010648797 -0.029713389 0.025870325 -0.0016141743 -0.0043746475
-0.01037439 -0.016381994 0.011907061 0.020569775 0.0025874416 -0.01717364 -0.018075094 0.008599056
-0.028172266 -0.001086874 -0.011389301 -0.035720132 0.014030247 -0.0043948395 0.020069975 -0.014915897
0.014258736 -0.021251334 0.00283003 -0.0074873636 0.018413216 0.007971487 0.0067116586 0.023189375
-0.017331773 -0.020035632 0.0046827705 0.021047615 -0.029459449 0.010700134 0.014783146 0.0043029822
0.009926279 -0.020676676 -0.004710088 -0.0049230345 0.011850628 0.0073750266 0.0025156203 0.027045174
-0.015208929 -0.00060674397 -0.0020949591 0.006410898 0.021227162 -0.0022808956 -0.0155552 -0.025584858
-0.0172488 -0.018253013 0.006068754 0.0037395111 -0.010302502 0.0017012912 0.013875207 0.008555303
-0.014126044 -0.028043 0.026055276 0.0012408141 -0.00084397604 0.00822806 -0.024118578 -0.021471657
0.0061755935 -0.007939228 0.010035802 0.010825217 0.009212573 -0.0075197965 0.021162076 0.0054548006
0.015350627 0.0044498816 0.02707897 0.014066874 -0.012451071 -0.023703072 0.014087578 0.015587998
0.030228231 0.0012643507 0.007990116 -0.030432064 0.007026084 0.007882609 0.023268232 0.02030256
0.01343961 0.010846605 0.013648567 0.0024410177 0.013417692 -0.019655688 -0.023363175 0.005743843
0.01855425 0.0026713223 0.0119120665 -0.027298465 0.018008558 -0.02901871 -0.0082251765 0.01496849
0.0062265545 0.0047889315 -0.013581844 -0.0039334716 -0.0002603911 -0.0033661244 0.010884205 -0.014660885
-0.0056158127 0.016309094 0.010462749 -0.0010524568 0.017591566 -0.0007179884 0.00018449385 0.003092493
-0.01645617 0.0025345245 -0.0142574385 0.019014394 -0.022836441 0.007856091 -0.011682612 0.0230777
0.013645589 0.0077564414 0.020116564 -0.012973086 0.017534964 0.007975592 0.0118644405 0.006059685
0.015164194 -0.015770819 -0.0105695175 -0.026156042 -0.012577432 0.00950428 0.015850868 -0.019536586
0.0069613243 -0.00038347283 -0.0001681491 -0.021095054 0.015549102 -0.021904046 -0.016038524 0.011306314
0.017376544 -0.009906376 -0.0001734354 0.017253961 0.013247805 -0.0016518293 0.004157481 -0.028066734
-0.0077522 0.0024838643 -0.0050458154 -0.011553034 0.009634136 0.010701429 -0.024484511 0.022924734
-0.011920684 0.022945117 0.025284879 0.0058638835 0.009026499 -0.0070171487 -0.009068002 -0.016911423
-0.0063076215 -0.010807177 0.015974531 0.004234212 -0.020172518 0.016534502 -0.029967943 -0.005829294
0.0034079691 -0.015911134 0.042470824 -0.019785028 0.011827083 0.0045468924 -0.00626893 0.024678096
00000000: 9385 b9bb b4bf f9bb 0b83 df3c 2486 e53c
00000010: f953 9abc 7562 c7bb 60fc a33c d28f 1cbc
00000020: 6b97 58bb 21ec f33a d8a5 59bc 23a9 dc3c
00000030: aa12 8dbc 50b7 a4bb 8324 9ebc 1862 f7bb
00000040: fe15 fa3b 748f 123c 9140 aabc a8b5 e9bc
00000050: 60b6 4cbc 9f06 583c 0529 8f3c 63cc 843c
00000060: 6fe0 debc 5953 9bbc fb59 ba3b 6a35 143c
00000070: 7a4a a03c 8feb 283c 8af6 c83c bf39 9fbc
00000080: 0867 03bc 16a7 bbbc 95e2 db3a 88ba da3c
00000090: 47b8 b63c cf56 78bc f01d 5e3b 5164 86bb
000000a0: e4bb 3b3b daf4 37bb bded 973c cc99 67bc
000000b0: c8d0 c13b f6aa 9abb 8d53 a53c c1df 25bc
000000c0: 8681 9abc 014b 4c3c 2cfb 2abc dfb4 da3c
000000d0: f9af de3b 1aa8 203b 2c14 b3bc 77e8 5c3b
000000e0: d576 9d3c 629a d9bb e1e6 c43c 4b78 2e3c
000000f0: 7e69 f3bc 01ee d33c b492 d3ba 3459 8fbb
00000100: 58f9 29bc 8833 86bc d515 433c f281 a83c
00000110: 1192 293b bcaf 8cbc 3812 94bc 0ee3 0c3c
00000120: 86c9 e6bc 7175 8eba 319a 3abc 464f 12bd
00000130: 1fdf 653c 9602 90bb ca69 a43c ce61 74bc
00000140: 799d 693c 4717 aebc 0678 393b 8f58 f5bb
00000150: 50d7 963c d79a 023c 79ed db3b a5f7 bd3c
00000160: 5dfb 8dbc c421 a4bc ed71 993b 0c6c ac3c
00000170: f154 f1bc 9d4f 2f3c 0235 723c 0800 8d3b
00000180: d5a1 223c 2262 a9bc 1557 9abb 6851 a1bb
00000190: 2329 423c 35aa f13b 1bdd 243b d78d dd3c
000001a0: df2e 79bc e60d 1fba 954b 09bb 8312 d23b
000001b0: 96e4 ad3c 147b 15bb 3ddb 7ebc 5697 d1bc
000001c0: 5b4d 8dbc 5887 95bc 66dc c63b 9612 753b
000001d0: d3cb 28bc dcfd de3a d654 633c 8b2b 0c3c
000001e0: ec70 67bc 6fba e5bc e071 d53c d0a2 a23a
000001f0: 463e 5dba fcce 063c 5394 c5bc 54e5 afbc
00000200: a25c ca3b 8913 02bc 346d 243c 405c 313c
00000210: 55f0 163c a068 f6bb 175c ad3c 2fbe b23b
00000220: 3281 7b3c 50d0 913b b7d4 dd3c bf78 663c
00000230: 94ff 4bbc f22c c2bc 96cf 663c cd64 7f3c
00000240: 32a1 f73c 92b8 a53a fae8 023c aa4c f9bc
00000250: 103b e63b 0f26 013c 059d be3c 8e51 a63c
00000260: cf31 5c3c f5b5 313c 3d9e 5f3c 7bf9 1f3b
00000270: e1d5 5b3c f704 a1bc 2164 bfbc d936 bc3b
00000280: 15ff 973c 5a11 2f3b d42a 433c 08a1 dfbc
00000290: af86 933c a5b8 edbc e4c2 06bc 663e 753c
000002a0: 2008 cc3b 78ec 9c3b 6286 5ebc 5ae4 80bb
000002b0: 1a85 88b9 329a 5cbb aa53 323c 3534 70bc
000002c0: da04 b8bb a69a 853c f36b 2b3c 97f2 89ba
000002d0: 301c 903c 6337 3cba b174 4139 6cab 4a3b
000002e0: 17cf 86bc 441a 263b 0898 69bc 13c4 9b3c
000002f0: 7d13 bbbc d5b6 003c 6d68 3fbc 720d bd3c
00000300: c091 5f3c bf29 fe3b 7ecb a43c 118d 54bc
00000310: 7ca5 8f3c 0fac 023c 1263 423c 5290 c63b
00000320: 3d73 783c ce31 81bc c52b 2dbc 3245 d6bc
00000330: 9311 4ebc d7b7 1b3c aed9 813c 310b a0bc
00000340: d21b e43b da0c c9b9 2e51 30b9 89cf acbc
00000350: a9c1 7e3c 1d70 b3bc 3963 83bc 1e3e 393c
00000360: 4159 8e3c 5a4e 22bc 36dc 35b9 2e58 8d3c
00000370: 520d 593c 3282 d8ba 7a3b 883b 35ec e5bc
00000380: 2b06 febb 54c8 223b 5e57 a5bb f048 3dbc
00000390: 7fd8 1d3c 0c55 2f3c be93 c8bc a7cc bb3c
000003a0: f94e 43bc 66f7 bb3c 3c22 cf3c d225 c03b
000003b0: e2e3 133c 1cf0 e5bb f591 14bc d389 8abc
000003c0: 2ab0 cebb 9610 31bc 05dd 823c 25bf 8a3b
000003d0: d640 a5bc 5d73 873c 557f f5bc aa03 bfbb
000003e0: 3c58 5f3b 1158 82bc e3f5 2d3d 3614 a2bc
000003f0: 62c6 413c 19fe 943b 996b cdbb b829 ca3c
