checkpoints/agent2_checkpoint_actor.pth (torch_old, 394611 bytes, 6 tensors)

fc1.weight f4 [300, 24]
000000 67 24 97 bb 69 00 53 bd c1 0c 09 3c 5f 5f 82 3d
       -0.004612494 -0.051514063 0.008364857 0.06365847
000010 7f f4 28 bd 4f 69 fc bd 39 1d c0 3c 21 6e 63 3d
       -0.041248795 -0.123247735 0.023451434 0.05552495
000020 0f 30 2a bd ee 32 de bd 39 df 20 3d 62 67 11 3c
       -0.04154974 -0.10849558 0.03927538 0.008874746
000030 c2 63 e8 3c 17 30 c4 bd a7 13 21 3d 45 2e 40 3d
       0.02836788 -0.09579485 0.039325383 0.046919126
000040 f5 41 56 b9 5d ed 33 3d c8 c4 0c 3d 65 06 23 3e
       -0.00020433201 0.04392754 0.034367353 0.15920408
000050 65 e7 ca bc f2 02 e3 bc f6 b1 d0 3c 38 aa f6 3d
       -0.02476854 -0.027711365 0.025475483 0.120441854
000060 ab 72 97 bd 68 d0 1a bb 83 bd a5 3b b9 1d e0 bc
       -0.07394918 -0.0023622755 0.005057992 -0.027357923
000070 08 5a 51 3b 40 10 80 3d c6 ac 78 bc c0 39 1f 3d
       0.0031944532 0.062530994 -0.015177911 0.038873434
000080 46 3d 75 3d 10 6c db 3b 5b ba 41 3d ec a3 c2 bd
       0.059872888 0.0066962317 0.047296863 -0.09503922
000090 45 e3 2d 3d cb ab 12 3e 27 1c e2 3c 01 2d e6 bc
       0.04245307 0.14323346 0.027601315 -0.028097631
0000a0 70 b2 a4 3d 6e 6b 7c 3c 8e 08 20 3d 6b 66 ab bd
       0.08041847 0.015406473 0.03907066 -0.08369144
0000b0 52 1a 66 bc f0 3e 90 3e f9 7e 63 3c 5a 5b 0c be
       -0.014044361 0.28173018 0.013885253 -0.13706723
0000c0 e3 a5 eb bc 90 89 8d bd 1c 71 e0 3c 41 ee 1d 3d
       -0.028765624 -0.069110036 0.027397685 0.038557295
0000d0 55 f3 d5 bd 74 9b b9 3d 39 3f 72 bd 37 42 91 3d
       -0.104468025 0.090628535 -0.059142325 0.070927076
0000e0 5c d9 c9 bc e2 ab c1 bc 54 0b 51 bc c5 90 df 3c
       -0.024639778 -0.02364153 -0.0127590485 0.027290711
0000f0 bd 0f 42 bd ac 88 da bc d3 16 34 3c 49 83 71 bc
       -0.04737829 -0.026676498 0.01099177 -0.0147407735
000100 6f f5 a7 bd ff 7b 92 3b bf b6 5d bc b6 de 53 3c
       -0.082011096 0.004470348 -0.01353234 0.012931516
000110 db ec 8d 3d e1 ca 77 be 56 3d 28 bc 02 f4 33 bc
       0.06929942 -0.24198486 -0.01026853 -0.010983469
000120 83 53 18 be 98 67 a8 bc 80 c2 c4 bb 53 87 b5 3c
       -0.14875607 -0.02055721 -0.0060046315 0.022159254
000130 9f d4 fd bc 9b 17 ab 3e 22 29 05 3c 70 19 29 bd
       -0.030985175 0.33416447 0.008127483 -0.041284025
000140 1a 15 a1 bc cf be 52 3d 5c 84 81 bc 39 b4 49 3b
       -0.019663382 0.0514515 -0.015810184 0.0030777587
000150 34 1f c4 3d 6e cf 01 3e 94 7d 23 bc 1b 1f 76 3d
       0.09576264 0.12676784 -0.009978671 0.06008826
000160 18 97 df bd d7 11 ee 3c 22 8f 7d 3c 48 f7 d1 bc
       -0.10917491 0.029061241 0.01547602 -0.025630608
000170 97 b2 99 3e 7a 84 b6 be 01 ed 3f bc 31 b2 7c 3c
       0.30019066 -0.35647947 -0.011714221 0.0154233435
000180 f3 72 99 bd 1d 54 63 be e1 c7 37 3d d3 db 80 bd
       -0.07492628 -0.22200055 0.044868354 -0.06291928
000190 b0 95 15 be 93 95 78 3e d8 15 1e bd 0e 77 cc bd
       -0.14607882 0.24275808 -0.03859505 -0.099836454
0001a0 88 4a 35 bd 32 ed 3e be c4 c6 08 bd b2 3b 2b bd
       -0.04426053 -0.1864517 -0.033392683 -0.041804977
0001b0 d3 92 bc bd 22 73 d3 3c ee 5d e9 3c 2d 75 9a bd
       -0.09207692 0.025811736 0.028487172 -0.07541881
0001c0 dc 01 ac bd 5c 19 46 be a4 1d 10 bd a8 86 9c 3d
       -0.08398792 -0.19345611 -0.035184518 0.07642871
0001d0 31 97 a6 3c 7e 4c 21 bd f8 33 98 bb 02 6c 2c 3d
       0.020335766 -0.03937959 -0.004644867 0.04209519
0001e0 84 0b 58 3d dc 78 89 3e 9d 16 a5 3d 03 26 9b bb
       0.052745357 0.2685002 0.08060954 -0.004734756
0001f0 b2 07 a8 bd 5f 53 2a 3e e1 c0 32 3c 63 b5 4f 3c
       -0.08204593 0.16633366 0.010910244 0.012677523
000200 de 9e 76 3c 00 bc 81 3e e0 d4 81 bd 89 95 cb bd
       0.015052525 0.25338745 -0.06339431 -0.09940631
000210 c4 d9 ca 3c 5f c5 aa 3c d7 08 36 bd 22 97 82 bc
       0.024762042 0.020846067 -0.044442024 -0.015941206
000220 74 92 94 bd a3 e8 53 3e 2e 23 f0 3b 1e 95 5b 3d
       -0.07254496 0.20694213 0.0073284125 0.053609006
000230 cf 2a cc 3d 6c 8a 12 be d9 47 e8 bc f8 21 7b bd
       0.099691026 -0.14310616 -0.028354572 -0.061311692
000240 6c 40 87 3c af c4 29 3e a4 83 20 bd 98 67 dd bd
       0.01651021 0.16578935 -0.039188042 -0.108107746
000250 cc b2 cd 3d 64 f0 db 3d 52 ba d7 3c 10 19 fc bd
       0.100438684 0.1073921 0.026333962 -0.12309468
000260 73 13 17 3d fe 1b fb 3c 8e 01 3a 3d 79 cf 22 bd
       0.036883783 0.030652996 0.04541164 -0.039748643
000270 62 64 93 39 e5 42 81 3e c8 19 50 bd 8d 96 06 bd
       0.00028112816 0.2524635 -0.050805837 -0.03285842
000280 59 79 ba 3d 9a 2f 26 3d 78 c8 b3 3c 27 3c 86 3c
       0.091051765 0.04057274 0.021946177 0.016386105
000290 14 86 19 bc 07 66 c2 3e 2f c1 2f bc 50 96 55 b9
       -0.009370346 0.37968466 -0.010727211 -0.00020369259
0002a0 13 e2 5f bc 6c 55 f8 bb 29 1c 97 bc f5 29 04 3d
       -0.01366474 -0.0075785425 -0.018446045 0.032266576
0002b0 8d f7 3b 3d c8 1d 73 be 9b 11 12 bd c4 66 37 3c
       0.04589038 -0.2374183 -0.03566132 0.011193935
0002c0 ea b3 a0 bc 31 ed 59 bc b2 80 54 bd d2 48 86 bb
       -0.01961704 -0.01330118 -0.051880546 -0.0040980363
0002d0 e3 fd 0b bc 69 e2 d6 bd a8 13 23 bd 08 fe 30 3d
       -0.008544418 -0.10492403 -0.039813668 0.043211013
0002e0 20 2b 73 3d 69 99 00 be 3c 4e 3d bd 2c 98 70 3d
       0.0593673 -0.12558521 -0.04621719 0.058738872
0002f0 45 31 0a be f9 76 2c 3d 88 b7 02 3c 56 f6 c9 3d
       -0.13495357 0.04210565 0.007978328 0.09861438
000300 91 58 0e bd c8 8b 9f bd 4a 5c 40 bd 7e bf 8c 3c
       -0.034752432 -0.07790333 -0.046963014 0.017181154
000310 7c a7 36 3e eb 59 f2 3d 72 c5 21 bd 55 a4 4b bc
       0.17837328 0.11833557 -0.03949494 -0.0124293165
000320 5b 00 82 ba 37 34 3d bd 7e 60 97 3c 76 9c a7 3d
       -0.0009918319 -0.046192374 0.018478628 0.081841394
000330 8f 78 84 3d 2d 06 b0 3b 3c 9e 58 bd b5 73 59 3d
       0.06468307 0.00537183 -0.05288528 0.053088862
000340 aa 36 57 bd ca 49 a2 bd c0 6d 4a 3d 19 39 0d bd
       -0.052542366 -0.079242304 0.049421072 -0.03447828
000350 38 7a 6f bd 05 6f 46 be 13 3a 89 3d 23 2f a0 bd
       -0.058466166 -0.19378288 0.0670053 -0.078214906
000360 92 ce 55 bd 9d 7a 41 3d d5 dc 51 bc 80 df 48 3c
       -0.052198954 0.047236074 -0.012808998 0.012260318
000370 c3 a1 8a 3c 44 6b 32 bb 93 04 f6 bc 3e ec 82 bd
       0.016922837 -0.002722458 -0.030031478 -0.06392716
000380 68 57 27 bd 09 50 3e bb f5 79 28 bd fb 85 97 bd
       -0.04085484 -0.0029039404 -0.041131932 -0.073986016
000390 a8 9f 04 be c2 ba 86 bd cd 87 ec 3c 7a e5 d2 bc
       -0.12951529 -0.0657859 0.028873349 -0.025744189
0003a0 43 39 68 bc 08 5c 8d bd 9d 4c 7b 3b ed 76 d6 bd
       -0.0141738085 -0.06902319 0.0038345226 -0.10471902
0003b0 5d d1 89 be 67 13 10 be 29 8c ba bb 89 78 b8 bc
       -0.26917544 -0.14069901 -0.005692978 -0.022518413
0003c0 94 37 33 3d f9 86 da 3a 81 55 79 3d 83 6e 1d bd
       0.043754175 0.0016672305 0.06087256 -0.03843547
0003d0 7f ce 1b 3d 89 63 20 be 92 29 26 3d 30 81 9d bc
       0.038038727 -0.1566297 0.04056699 -0.01922664
0003e0 5f 90 87 3d c1 aa 9c 3d f6 34 d7 bc 6e 6d a1 3d
       0.066193335 0.07649756 -0.02627037 0.078822
0003f0 4e 9c a0 3d 0b 36 f4 bd 3f 56 f9 bc 3d 71 2a 3d
       0.07842313 -0.119243704 -0.030436633 0.0416119

fc1.bias f4 [300]
000000 23 ca 0e 3e 12 1d 33 be b8 65 01 3d d2 c6 54 3e
       0.13944297 -0.17491558 0.031591147 0.20778969
000010 db b8 a2 3d e7 38 2f bd d8 49 89 be ff 3e 41 3d
       0.07945415 -0.042778876 -0.2681415 0.04717922
000020 5c d1 ad bd 57 c1 9c be f3 a9 1e be d6 f7 ac 3d
       -0.08487198 -0.30616257 -0.15494518 0.084457085
000030 6f a3 e2 3c 8f a2 87 3d 66 50 42 be 9a 03 81 bd
       0.027665822 0.066228025 -0.18975982 -0.06299515
000040 24 8c ec bd 7d 18 a0 bd 48 af 4b 3e 61 a9 83 3e
       -0.11550167 -0.07817171 0.19891083 0.25715163
000050 fe 43 aa bd f6 a9 4a bd 74 fc 81 be 42 f6 11 bd
       -0.0831375 -0.049478494 -0.2538792 -0.03563524
000060 28 4e 16 be a5 dd c6 bd 74 f5 d0 3d 47 81 0b be
       -0.14678252 -0.09710244 0.102030665 -0.13623534
000070 2c 59 3f 3e db de ab 3d be 01 f5 bd 70 8c 2d 3e
       0.1868636 0.08392116 -0.11963223 0.16948104
000080 65 9f 0f 3d a7 ac 8b 3e 5f 62 1c 3e 88 6a 5e be
       0.03506412 0.2728016 0.152719 -0.21720326
000090 30 49 4d 3e 2f a0 c4 bd 7a 00 ab 3c c2 24 f7 3d
       0.2004745 -0.09600865 0.02087425 0.12067558
0000a0 5d bf 31 3c 3d 92 b1 3d 6b 38 29 3e 18 70 c6 3d
       0.010848847 0.08670471 0.16525428 0.09689349
0000b0 46 73 bf 3d 9a c5 a1 3d b5 7e 7a 3e c3 28 3e bd
       0.093481585 0.07899018 0.24462397 -0.046425592
0000c0 81 3a 3e 3d 3d eb 05 be 8f cd dc 3d 85 b0 0c be
       0.046442512 -0.13078018 0.10781395 -0.13739212
0000d0 11 f3 b3 3d 25 d8 0b 3e b6 96 42 3e f2 9e 91 3e
       0.087865956 0.13656671 0.19002804 0.28441578
0000e0 df 2a c2 bd a4 a4 cd 3d 35 45 0f 3e 8a 33 0f be
       -0.09480833 0.10041168 0.13991244 -0.13984504
0000f0 a7 c1 3d bd a0 35 fd 3d e7 62 04 3d 4d 80 60 be
       -0.04632726 0.12363744 0.032320883 -0.21923943
000100 b5 3a f4 3c 44 81 87 3e de 82 11 3e 21 ed e2 3d
       0.02981315 0.2646581 0.14210078 0.11080385
000110 f2 a7 d2 bd c9 fc 86 3e d6 43 07 bd f5 22 3d be
       -0.10285939 0.26364735 -0.033023678 -0.18470366
000120 e7 f5 c3 be e4 07 5f be 22 b3 b6 bd ed 1d 59 3e
       -0.38273546 -0.21780354 -0.089208856 0.21202822
000130 ca 6c 21 be 1d 29 0b be 06 9a 60 3d bb e2 a9 bd
       -0.15764156 -0.13589902 0.05483439 -0.082951985
000140 1a 0b 08 be 1f 01 61 be 01 1f 58 3e e4 38 fc bc
       -0.13285485 -0.21973084 0.21105577 -0.030788846
000150 20 21 53 bd 2e 6a e7 bd f1 08 90 bd e1 b2 b3 3d
       -0.051545262 -0.11299549 -0.070329554 0.08774353
000160 bd b1 61 be cc d3 42 bd ba 7a 93 bc 19 74 ed 3d
       -0.22040458 -0.047565266 -0.018002857 0.115944095
000170 95 d2 7d 3d c2 bb 33 3e d8 07 98 bc 3b 96 a1 bd
       0.061968405 0.17552093 -0.018558428 -0.07889982
000180 80 b5 1e 3e e6 53 a4 3c 0b 95 ce 3d 63 70 4b 3e
       0.15498924 0.020059537 0.100870214 0.19867091
000190 ca 15 f0 3d f4 ba 4f 3e b9 28 60 be 6e 7c 66 3e
       0.11722906 0.2028616 -0.21890534 0.22508404
0001a0 40 80 6c 3c c0 84 87 3c a7 df 0b 3e 9f 18 dc bd
       0.014434874 0.016542792 0.13659535 -0.107468836
0001b0 cd 4e 21 3e e5 ae 61 be e1 04 4e 3e 8a f3 10 be
       0.15752716 -0.22039373 0.20119049 -0.14155403
0001c0 ec 92 8c 3e 9c 78 ea 3b fe 0a c1 bd 22 10 fe 3d
       0.27455842 0.007155491 -0.09425925 0.12405421
0001d0 ed 5d 08 3e ad 96 31 bd 1c 3a 69 3d 7e 7c 44 be
       0.1331708 -0.043356586 0.056940183 -0.19188115
0001e0 54 77 a1 be 4f 7d f1 bd 2d 84 2a 3e 9d 56 22 be
       -0.31536353 -0.11791479 0.16651984 -0.15853353
0001f0 ba 9d e1 3b 11 cc 23 be c0 4b a6 3d 9f 47 e3 3c
       0.0068852575 -0.15995814 0.08119917 0.027744113
000200 73 d9 72 3e a6 c7 00 3e f1 aa f9 bd 8e 74 c9 3e
       0.23715763 0.1257616 -0.121908076 0.39346737
000210 2a 57 56 be 04 b6 24 bd 94 e1 48 be 4d 2e a1 3d
       -0.20931688 -0.040212646 -0.19617301 0.07870159
000220 bf bc c9 bc 5b 13 40 3e 8d c2 7c 3e c9 48 43 bb
       -0.024626134 0.18757384 0.2468359 -0.0029798022
000230 9c 5c ba 3b 1e 85 a1 bd f0 12 42 3e 0d d3 2d 3e
       0.0056873094 -0.07886718 0.18952537 0.1697504
000240 c0 9f 1b 3e ed 7a a0 bd 23 09 64 be 6c 31 e1 bd
       0.15197659 -0.07835946 -0.2226911 -0.109957546
000250 a5 f6 e7 bd 6b 61 0b 3b 19 9d de bd 0e 96 14 be
       -0.113263406 0.0021267782 -0.10869808 -0.14510366
000260 64 61 20 bd 90 7c 82 3d 9a f4 a8 be 1c 89 27 be
       -0.03915538 0.06371415 -0.32999116 -0.16360897
000270 04 9a ee ba 8f 3b 95 be 61 df e9 bd a9 25 3e bc
       -0.0018203859 -0.29147002 -0.11419559 -0.011605659
000280 13 09 ea bb 72 8b 7e 3c 74 6e a4 bd 84 30 9a 3d
       -0.007142195 0.015536176 -0.0802888 0.07528785
000290 c2 15 bd bd 3e 1b 04 bd 85 67 e1 3d 04 60 02 be
       -0.092326656 -0.032252543 0.11006073 -0.1273194
0002a0 9c a6 4f bd e1 a4 e6 bd 57 01 82 be 00 d5 4e bc
       -0.050696 -0.11261917 -0.25391647 -0.012624025
0002b0 4e 79 f3 bd 2d 0c 7e 3e 36 f7 a6 3d 6c 9f 15 be
       -0.118883714 0.24809332 0.081526205 -0.14611596
0002c0 80 09 db 3c 36 b3 25 be 4b 14 49 3e 21 71 c5 bb
       0.026737928 -0.16181645 0.19636647 -0.006025449
0002d0 d4 38 de bd 11 9c ac be fd 5a 3b 3e 6a 51 d9 3d
       -0.10850683 -0.3371282 0.18296428 0.106112316
0002e0 ff d8 d4 bd 56 b5 6e be bb 16 49 3d 66 b8 b3 be
       -0.10392951 -0.23311362 0.049093943 -0.35101622
0002f0 68 b3 88 3e f8 21 50 3e d6 4f 28 3e 9f 95 52 3e
       0.26699376 0.20325458 0.16436705 0.20564888
000300 25 b9 26 bd d2 40 d8 3d 48 72 6b bd b0 62 22 3e
       -0.04070391 0.105592385 -0.057482034 0.15857959
000310 cc d3 59 3e cc dd 69 be 05 1f 8a 3d ea ad bd 3a
       0.212722 -0.22838515 0.06744198 0.0014471386
000320 ea 66 6a bd 6c 12 15 be c5 59 b6 3d cd 61 a3 3d
       -0.057227053 -0.14557809 0.08903841 0.079776384
000330 4e 51 0c 3e 8e ea 86 3e 28 7d 94 be 8f 59 89 3b
       0.1370289 0.26350826 -0.29001737 0.0041915844
000340 50 e8 02 be 5b fe f9 3d a4 36 69 3e a4 8d 5e bd
       -0.12783933 0.122067176 0.2277475 -0.054334298
000350 e4 d7 c2 bd 5b d2 05 be dc c6 28 3d 40 4b 19 3c
       -0.09513834 -0.13068525 0.041205272 0.00935632
000360 e0 d4 0d be cd f5 23 3e 8c 18 1b 3e 90 bb d8 bd
       -0.13850737 0.16011734 0.15146083 -0.1058265
000370 09 0b d0 3d 45 79 2f 3e 37 49 4b 3e 82 9f 1b 3d
       0.10158355 0.17136104 0.19852148 0.037993915
000380 20 1a 3e 3e 05 4a e2 3d d5 06 c1 3a 38 10 c4 bd
       0.18564653 0.11049274 0.0014726768 -0.09573406
000390 c0 b1 be 3a f0 71 07 bc 3e b6 30 bd 11 2f e9 3d
       0.0014548823 -0.008266911 -0.04314255 0.1138593
0003a0 87 fd 12 be 71 94 c5 bd b4 be 58 be f1 19 2e 3e
       -0.14354526 -0.096474536 -0.21166497 0.17002083
0003b0 30 3f 41 be 94 96 72 be f3 d2 7c 3e 86 e8 cb bd
       -0.1887176 -0.23690253 0.24689846 -0.0995646
0003c0 ab 9f 20 3e 8b 1f 9b 3e f7 55 1a 3b 52 d7 48 3e
       0.15685908 0.30297503 0.0023549774 0.19613388
0003d0 af 42 84 3e aa 60 49 be 87 9c d2 bd e5 87 20 3d
       0.25832126 -0.1966578 -0.102837615 0.0391921
0003e0 b9 7a 9e bc 05 f4 58 be 25 84 a6 be 61 aa 27 3e
       -0.019345628 -0.21186836 -0.32522693 0.16373588
0003f0 db c5 86 bc 23 ec 9b be e1 b5 ad bc 02 ee 77 be
       -0.016451767 -0.30453596 -0.02120489 -0.24211887

fc2.weight f4 [300, 300]
000000 7c 46 b3 bc 0a 08 73 3d 6e 7b 82 bc 36 bb ed 3c
       -0.021884196 0.05933384 -0.015927996 0.029019933
000010 92 0a aa bc f6 88 a6 bc a6 7c ef 3d e2 04 b3 3b
       -0.020756993 -0.02032898 0.11693697 0.0054632286
000020 78 95 fe 3c 16 d9 f1 bd 3f 2b ba 3d 1d de 35 3d
       0.031077132 -0.11808984 0.0909028 0.044401277
000030 bb ec 10 bd 1b 47 99 3d 16 90 ab 3d ec 3e 12 bd
       -0.035382014 0.074842654 0.083770916 -0.03570454
000040 95 80 d6 bd b1 6a 0c bc 12 e8 36 3b a6 cd 8d 3b
       -0.10473744 -0.008570359 0.002790932 0.0043274937
000050 11 39 ea bc 59 65 31 3d 4e 3c d6 bc 93 96 bb bc
       -0.028591665 0.043309543 -0.026151802 -0.022898948
000060 83 34 99 3d 33 2e f5 3d 8b ac 7f 3d 15 fa 4d 3d
       0.07480719 0.119717024 0.06242041 0.050287325
000070 c3 fd 2f 3d 85 4b 3e be 83 c1 13 bd a4 88 c9 3c
       0.042966615 -0.18583496 -0.03607322 0.024601288
000080 b0 9e a5 3d 60 5f cc 3d 42 51 5b 3d 43 5b e5 3b
       0.08086908 0.09979129 0.05354429 0.0069994046
000090 b0 0c 9f bd bf 24 54 3d 71 f6 52 b9 ce eb 79 3d
       -0.07766092 0.051792856 -0.00020118967 0.061015896
0000a0 d7 8c 35 3d 21 bb 8f 3d 04 9d 1a 3e 85 72 21 bd
       0.04432377 0.07018114 0.15098959 -0.039415855
0000b0 29 21 aa bd 7d 04 96 3d e6 d2 a1 bc d0 2b 27 bd
       -0.08307106 0.07325075 -0.019753885 -0.040813267
0000c0 0b 14 87 3c 78 ce 28 3d c5 40 3f bc 22 78 87 bd
       0.01648905 0.04121253 -0.011673157 -0.066147104
0000d0 46 9a 2e bd 6f 30 b7 bc 33 32 0c 3d 8c 0b ee 3c
       -0.042627595 -0.022361962 0.03422756 0.02905824
0000e0 8c 8e e5 3c 74 b0 8c 3d d7 21 10 3d 48 1c 0e bd
       0.028022073 0.06869593 0.035188522 -0.03469494
0000f0 bd 3f 8a bc a3 1a 8e 3d 44 b3 be bb 92 67 68 bd
       -0.016876096 0.06938674 -0.00581971 -0.056739397
000100 d9 e4 07 be 1a 49 8a 3d 5a ce 04 bb 59 92 8d 3c
       -0.13270892 0.06752224 -0.0020264597 0.017281698
000110 88 58 32 bd 55 6b c0 3c 55 0d 2d bb bc 15 05 bd
       -0.04354146 0.02348868 -0.0026405652 -0.03249143
000120 98 ee 1a bd a2 ff 53 3d e9 1e a8 3d ab 09 41 bd
       -0.037825197 0.051757462 0.08209021 -0.04712836
000130 9c 8c 0c 3e cd 31 d9 3c 0a 92 53 3d 05 92 80 bd
       0.13725513 0.026513005 0.051652946 -0.06277851
000140 e4 e7 92 3d 1f 4d 96 3c 5a ec 12 3b d3 00 6d 3d
       0.07173136 0.018347321 0.0022418709 0.057862114
000150 9b 88 8b 3e 81 e8 30 bd 77 56 80 3c fc be 74 bc
       0.2725266 -0.043190483 0.01566623 -0.014938112
000160 65 f5 c8 3c 3e aa 07 3c d0 07 8d bd e5 2c c7 bb
       0.024531076 0.008280335 -0.06886256 -0.00607835
000170 ed 79 d1 bc 75 cb 91 bd 6b f6 8e bc b8 11 ca 3d
       -0.025570834 -0.071188845 -0.017451486 0.09866661
000180 dc 7b 72 3d e8 d5 60 bd 03 14 53 3d b9 22 5a 3c
       0.059200153 -0.054891497 0.051532757 0.013313943
000190 05 a3 9c 3c 3d f3 cb 3d 30 9e fb 3a d9 62 aa bb
       0.019120703 0.099585034 0.0019196924 -0.005199772
0001a0 0b 16 34 bd c5 99 bc bc 2e 09 a4 bc 18 f6 88 3d
       -0.043966334 -0.023022542 -0.020023908 0.06687564
0001b0 16 17 55 bd b9 bd 03 bd 94 fa 3c bd fc 4e 14 3b
       -0.05202397 -0.032163355 -0.046137407 0.0022630086
0001c0 bd 9b a2 bd dd 46 4a bd 79 0c d4 3d 61 ec 30 3c
       -0.07939861 -0.049383987 0.103539415 0.010798545
0001d0 f5 cb 3b bd 1d f7 5f 3d 35 cd 69 bd 7a 1f 0e 3c
       -0.045848805 0.054679025 -0.057080466 0.008674497
0001e0 ca f7 cf bd ab 30 91 bb 98 f6 01 ba 04 a1 31 ba
       -0.10154684 -0.0044308505 -0.0004957705 -0.00067760074
0001f0 98 e4 9d 3d b9 c6 1d be 70 1b 82 3c cd da ee 3c
       0.077096164 -0.15407838 0.015882224 0.029157067
000200 ba 3d 2b bd 81 b2 08 3c 0d fd 19 bd 0a b2 4d bc
       -0.041806914 0.00834334 -0.037594844 -0.012554655
000210 d5 6b ba bd 58 ac 03 bd 0b 49 84 3d ed c7 2c bc
       -0.091025986 -0.03214678 0.06459244 -0.010545713
000220 6d bb a7 bc 81 25 33 3e 4b 69 e8 bd f6 0b bb 3d
       -0.020475114 0.17494775 -0.11348208 0.09133141
000230 fe c4 59 bc fe 80 8a 3d d6 d3 63 3d 29 34 de 3c
       -0.0132915955 0.067628846 0.055621944 0.027124481
000240 44 3e 3a bd 85 2c 4d 3c e5 00 98 bc c1 1a 18 3d
       -0.045469537 0.012522821 -0.018555114 0.03713489
000250 09 3d 97 3d d6 f7 fa ba db 4d 1e 3d cb cf c4 bc
       0.073846884 -0.0019147347 0.038648468 -0.024024865
000260 a4 49 eb 3c 98 03 6e bd 99 8a 35 3d c9 4a 7b 3d
       0.028721638 -0.058108896 0.04432163 0.061350618
000270 78 e4 21 3d 5e eb ec 3b 1b a0 10 be e9 33 ba 3d
       0.039524525 0.0072302064 -0.14123575 0.09091932
000280 87 6c 5b 3d 0e 59 07 be 29 aa 57 3d a7 4e c4 3c
       0.053570297 -0.13217565 0.05265251 0.023963286
000290 8a a1 51 bd 00 bf 40 3d cb fd 8f bc 27 14 1c be
       -0.051179446 0.04705715 -0.017577073 -0.15242063
0002a0 90 e2 a2 3d 8c bd b3 bd 02 f1 7f bb 32 e6 3c 3d
       0.079533696 -0.087763876 -0.0039053564 0.04611797
0002b0 6c dc e2 bd 95 5a 87 3b 3e 8a cd bd 78 0c fc bd
       -0.110771984 0.0041306713 -0.10036133 -0.12307066
0002c0 a0 73 06 bd e3 29 ca 3c 7d 92 b2 bb 09 98 3a 3d
       -0.032825112 0.024678176 -0.0054495917 0.04555515
0002d0 ed b4 e1 3d 78 fb 61 bd 3d 52 4c bd 2a e9 c0 3c
       0.11020837 -0.05517146 -0.049883116 0.023548681
0002e0 e2 a2 34 bd c4 ee 39 bd 73 1e 6f bc e9 5f c2 3d
       -0.04410065 -0.04539372 -0.014594662 0.0949095
0002f0 64 94 60 3d e5 9b 0f bd 4b 46 44 3d 18 37 86 bd
       0.054829016 -0.035060782 0.0479186 -0.06553477
000300 c6 17 32 bd 9d fd 24 bc ff 58 d5 bc 9d bd ab 3d
       -0.043479703 -0.010070232 -0.026043413 0.08385775
000310 8d 94 87 bd 28 01 bb 3d 15 53 8a bc c2 b0 f0 bd
       -0.06620131 0.0913108 -0.01688532 -0.11752464
000320 cd 99 d1 3c 75 ba fd bd 41 b1 dc bd 32 0c 34 3d
       0.025586033 -0.123890795 -0.10775996 0.043956943
000330 68 ce 8c b9 2b 93 a4 bd 91 96 aa bc 6b 81 c5 bd
       -0.00026856665 -0.080358826 -0.020823749 -0.09643825
000340 ed 45 dd 3a a3 c0 26 3d 2b 62 db bc 9b 07 fe bd
       0.0016881801 0.040711056 -0.026780209 -0.124037944
000350 cd c1 b4 3c 7a 48 af 3c 78 21 a6 3d aa 25 a8 3d
       0.022065068 0.021396864 0.081118524 0.08210309
000360 ff 05 39 be 54 57 5e 3d a5 8d 61 3c f8 60 cd 3d
       -0.18068694 0.0542825 0.013766681 0.10028261
000370 fb 6a a3 3b 18 4d cc 3d a0 56 9a bc 98 ac 90 bc
       0.0049871183 0.09975642 -0.018840134 -0.017660424
000380 7c 02 01 3e 97 57 bc 3b 50 4a b8 3c f6 f8 f3 3d
       0.12598604 0.005747746 0.022496372 0.1191272
000390 96 ff aa 3b 18 01 ae bc 61 8d 56 bd fe ac 9a bd
       0.0052184565 -0.021240756 -0.052380923 -0.07552527
0003a0 c2 32 a2 3d d8 1a ce 3c e5 84 c6 bd 62 df 01 3d
       0.079198375 0.025159284 -0.09693316 0.031707175
0003b0 1e 8f dc 3c da d4 e4 bd 3a 2e a6 bd fa d1 8c 3d
       0.026923712 -0.11173411 -0.08114286 0.06875987
0003c0 ec 04 95 3b 45 ab 65 3d 5a e6 d0 3d f7 2d 37 3d
       0.004547706 0.05607154 0.10200186 0.04472157
0003d0 f2 70 a8 3c 7b 22 8a bd 24 b6 7e 3d 47 42 2f bd
       0.020561669 -0.06744858 0.06218542 -0.042787816
0003e0 fb 74 5f 3d 00 72 43 bd 74 2d 1a 3c 95 62 83 3d
       0.05455492 -0.04771614 0.009410251 0.064152874
0003f0 81 54 92 3d 9b 90 d5 bc 53 b5 cf 3b 29 33 0a 3d
       0.07145024 -0.02606993 0.006338754 0.033740196

fc2.bias f4 [300]
000000 c5 5e 87 3d c5 d7 9d 3d e3 63 5d bd 78 9d fc bd
       0.06609873 0.077071704 -0.054050338 -0.12334722
000010 f0 d2 16 3b 60 0a f4 3b 6f b6 6e 3d ce 95 be 3d
       0.0023013912 0.007447526 0.05827945 0.09305917
000020 2a a1 8a 3d 0a 28 01 3c 3c 7a a6 bc 99 c5 1f 3e
       0.06769021 0.007883081 -0.020321958 0.15602721
000030 f6 8d 6a 3c fc d7 cb 3c e4 41 ba bd 7e 69 95 3d
       0.014316073 0.024883263 -0.09094599 0.07295512
000040 63 d1 f4 3d 2b ea c6 3b d0 33 0b 3d 61 72 b0 3d
       0.11954 0.0060703955 0.03398496 0.08615566
000050 a2 73 91 bd fd c2 3a 3d 61 00 59 bd 5d 5b 60 3d
       -0.07102133 0.04559611 -0.052978877 0.05477463
000060 e2 5e a6 bd b4 82 45 bd 17 8e bc bd 6c 87 03 3d
       -0.08123566 -0.04822035 -0.09206789 0.03211157
000070 9f ce 2a 3d 88 80 f3 3c a1 19 31 3d 19 05 0e 3d
       0.041700955 0.029724374 0.043237332 0.03467283
000080 1f c2 35 3d 40 b5 c0 bc 85 b2 de 3c ca 21 0f 3c
       0.04437458 -0.023523927 0.027184734 0.008736083
000090 64 aa 94 bd 1b 96 02 3e 37 bb 56 3d e5 ab fc bc
       -0.07259062 0.12752573 0.052424636 -0.030843684
0000a0 d2 32 ca b9 9a e5 16 3d 2f 70 f0 bd 82 1e bb 3d
       -0.00038566306 0.03684006 -0.11740147 0.09136678
0000b0 7e 94 ef bc 66 34 3e 3c f6 25 6f 3d ab 3a d6 3c
       -0.029245611 0.011609172 0.05838581 0.026151022
0000c0 6d f5 a7 3d 8b 6d 54 bd fc bd 96 bd 32 18 24 3e
       0.08201108 -0.05186228 -0.073604554 0.16024855
0000d0 26 f1 d0 bc a7 3a 38 bd e3 ca 5e bd 4c 99 5a bc
       -0.025505614 -0.04497781 -0.054392707 -0.013342213
0000e0 8c fe 02 3e 04 72 6f bd 28 4e 3e bd 76 54 13 3d
       0.12792414 -0.058458343 -0.046461254 0.03596922
0000f0 0b f8 b2 3d ff 8e f5 3c 51 45 09 3c 74 30 5b bc
       0.08738717 0.029975412 0.008378343 -0.013378251
000100 5f 17 28 3d 2f 1f fa bc 18 71 08 3d 32 1c 7d bb
       0.041037913 -0.030532448 0.03331098 -0.0038621542
000110 d2 a6 f9 3c c5 9c 8c bd b7 1e f0 3d fc 0f 32 3b
       0.030475054 -0.06865839 0.117246084 0.0027170172
000120 e8 4c 55 bb 45 02 38 3c ee 93 a0 3d ef 79 d9 3d
       -0.003254706 0.01123101 0.07840715 0.1061896
000130 df f7 90 bd 68 2b ad bc ad ba bf bc f0 9e 35 bd
       -0.07078528 -0.021138862 -0.023404444 -0.044341028
000140 88 45 6d 3d 90 96 72 3c 62 e8 9f bb e5 dc 55 3d
       0.05792764 0.014806405 -0.004879997 0.052212615
000150 47 52 de bd f0 89 22 3c 88 74 6c bc 22 d9 63 bc
       -0.10855537 0.009920582 -0.01443208 -0.013906749
000160 9f 20 2e bd a2 f0 29 3e 98 a6 b6 3d d1 20 57 bc
       -0.04251158 0.165957 0.08918494 -0.013130383
000170 36 b9 21 3d 19 b1 ad bd 6e 30 2d bd a6 65 ca 3d
       0.03948327 -0.08481044 -0.042282514 0.09882669
000180 2a 71 d9 bd 88 a4 08 3d 07 fa 56 bc 34 30 9e 3d
       -0.106172875 0.033360034 -0.013121135 0.07724038
000190 d1 b1 9e bc 37 94 07 bc 82 46 58 bd d4 49 68 3c
       -0.019371899 -0.008275083 -0.052801616 0.014177758
0001a0 7f ab 74 3d a5 da e4 bc 62 b8 9c bc 42 2f 16 bd
       0.059733864 -0.02793629 -0.01913089 -0.036666162
0001b0 d8 be a3 bc 70 b6 ce bc c8 c5 8f bc e4 fe 60 3c
       -0.019988462 -0.025233477 -0.017550364 0.013732646
0001c0 ce e2 18 bc 33 b7 63 bd 28 ee ee 3d 33 5b de 3c
       -0.009331418 -0.055594634 0.116665184 0.027143097
0001d0 29 55 8b bb a5 82 20 3c 62 15 b2 3b 3a da 82 bd
       -0.0042520952 0.009796773 0.005434678 -0.0638928
0001e0 ee 7a fa 3c ec c5 27 be 14 bc 90 bd 2f 2f 98 bd
       0.030576196 -0.16384095 -0.07067123 -0.074308746
0001f0 d3 bf 1a be 08 5a 86 bc 96 36 a1 3c 17 43 21 bd
       -0.15112238 -0.016400352 0.019679349 -0.039370622
000200 df bd cc 3d 64 9c a7 3c bb 87 03 3b 11 bf ca 3c
       0.099971525 0.020460315 0.0020069915 0.02474931
000210 9c 01 9d 3d 9b 63 13 3c 2d 7c 57 3d 31 f6 7a bc
       0.076663226 0.008995916 0.052608658 -0.015317486
000220 7a e3 4e bd 81 92 cc b9 73 3a 2e 3d 70 99 97 bd
       -0.050509907 -0.00039019066 0.04253621 -0.07402313
000230 02 29 3d 3d a4 ab 41 bd 86 c6 8a bd 1d 09 9d 3d
       0.046181686 -0.04728283 -0.067761466 0.07667754
000240 76 e6 44 3a 46 28 6e 3c 53 6d 2b bc d7 63 0a 3c
       0.0007511148 0.014535969 -0.010463077 0.008446655
000250 ed e5 ec 3d 8e 39 ba bd 89 65 0c bd 12 a9 96 3b
       0.11567292 -0.09093009 -0.03427652 0.0045977915
000260 c1 19 d5 bc 3b 9a 64 bd b0 ee 9a bd 26 8d f9 3b
       -0.026013257 -0.055811148 -0.07565057 0.007615703
000270 21 56 4a 3d e0 9f 84 3b 9a 41 26 3d cd 7d 8c bd
       0.049398545 0.004047379 0.040589906 -0.06859932
000280 86 04 15 be 3e 1d 82 bc a2 c0 8f bd b6 a2 8d bc
       -0.14552507 -0.015883084 -0.07019164 -0.0172895
000290 ad 4b ea 3c 6d b2 f7 3c c7 79 2b 3c b5 31 f1 3c
       0.028600538 0.030236447 0.010466046 0.029442647
0002a0 d4 c4 01 3d ee 6c 89 3c 5a 80 80 3d 54 06 25 3d
       0.03168185 0.016775575 0.06274481 0.040289238
0002b0 f9 fa 1f 3e ae 57 42 3d cc 32 7c 3d d3 3e a2 3c
       0.15623082 0.0474469 0.06157188 0.019805348
0002c0 49 14 93 3c e6 f1 7c bd 15 f6 da 3c 1a dd 18 bd
       0.017954009 -0.06175413 0.02672867 -0.037320234
0002d0 8a 45 4c 3d 6c e2 8c 3d 8e 3b 0e be 44 fb b0 bc
       0.049871005 0.06879124 -0.13889906 -0.021604188
0002e0 b1 8e 08 3e 35 a7 98 bd 2d 52 66 bd 1b 2a 9b 3c
       0.13335682 -0.07453767 -0.056230713 0.018940976
0002f0 3c ec 14 3e 21 46 71 bd 59 22 3f bd a6 15 44 3d
       0.14543241 -0.05890477 -0.046663616 0.047872208
000300 a1 21 a2 3d 5e 17 6b bd c5 4e 4a 3c 1b e6 9b bc
       0.079165705 -0.05739533 0.012347882 -0.019030621
000310 ec 6b 06 bd 20 35 5c 3d be be f6 3d 3d e9 28 3c
       -0.032817766 0.0537616 0.120481 0.010309515
000320 3f 8b 8e 3d 91 f4 8d 3b 5e fe 91 bc 4e 33 43 3d
       0.06960153 0.004332133 -0.017821487 0.04765635
000330 9e 64 c5 bd ff 0c 97 3b 6c 9a 50 bd ce 6a aa 3d
       -0.09638332 0.0046097036 -0.05092852 0.083211526
000340 de 26 0c bb 40 36 0e 3e fe 72 1e bd 71 30 9e 3c
       -0.0021385471 0.13887882 -0.038683884 0.019310208
000350 f8 08 15 be 9a 9a 74 3d cf 6d 1d bc 17 01 7c bd
       -0.14554203 0.059717752 -0.0096087 -0.061524477
000360 9e 22 4a 3d 45 aa cf bd ed 0f 1d bd 67 77 00 bc
       0.04934942 -0.10139898 -0.038345266 -0.007840968
000370 75 3e 88 3d 7c e3 21 bc 8c 4a 6f bd 7f 4f 8e 3d
       0.06652538 -0.009880897 -0.058420703 0.069487564
000380 e4 7f 94 3c d9 7a 7a 3d 84 c7 8f 3d 6d e6 03 bd
       0.01812739 0.061152313 0.070204765 -0.032202173
000390 28 9e 6b 3c 49 9c 77 3d d3 80 94 3d 50 bd 25 bb
       0.014380969 0.06045178 0.07251134 -0.002528984
0003a0 53 9a 9e 3c bf b3 ef bb 7c 63 b9 bc 51 60 d0 3c
       0.019360697 -0.0073151286 -0.022630446 0.025436552
0003b0 3e ce c7 bd 51 74 e5 3c 3b ae 8f 3c 10 c3 9c bd
       -0.097561345 0.028009566 0.017539134 -0.07654393
0003c0 3f ae 19 3c 05 79 1b 3b cd df 51 3d dc 90 2d 3d
       0.009379922 0.0023723256 0.051238824 0.042374477
0003d0 ed aa 11 bc ca 0e 22 be 6f 82 f6 bc 27 e2 01 3b
       -0.00889085 -0.15825954 -0.030091492 0.0019818635
0003e0 7a ec 0f bd ee 1e 33 3c e4 6a 98 3d ec b8 91 3d
       -0.03513763 0.010932667 0.07442263 0.07115349
0003f0 ba ac d1 3b f5 c9 ca bd 97 37 08 bc a1 6d f6 bd
       0.0063987644 -0.099018015 -0.008314035 -0.12032629

fc3.weight f4 [2, 300]
000000 cf 8e 4a 3b ea 52 4b 3c 30 13 fe bd c2 a3 0c 3f
       0.0030907874 0.012409905 -0.124060035 0.54937375
000010 15 0f c3 3d 3c e5 20 3e 54 7f 1f 3d 0a 59 5c b9
       0.09524361 0.15712446 0.03893979 -0.00021014005
000020 a3 c3 fd 39 f4 12 ad 3d 47 e9 ea 3d bf 82 fc 3d
       0.0004840168 0.08450881 0.11470275 0.12329625
000030 b5 9b 03 bd 32 12 cc bd bd 0c 2a bd 30 8b 88 3d
       -0.032130916 -0.09964408 -0.041516054 0.06667173
000040 63 3b 61 3d c5 03 8b bc 6d 68 a8 3d 2d 0c c5 3c
       0.054988276 -0.01696957 0.08223043 0.024053657
000050 72 d4 70 3e 22 83 67 bc 19 49 13 be 41 e8 92 3d
       0.23518541 -0.014130386 -0.14383353 0.07173205
000060 56 e4 e6 bd 62 0b a6 be e9 8e d7 3d 66 e4 98 bd
       -0.112740204 -0.3243056 0.10525305 -0.074654385
000070 26 05 5c 3c 32 dc 88 3c 1c 40 a9 bd 7d 2e c6 bc
       0.013428962 0.01670656 -0.08264181 -0.02419209
000080 cc 1a 70 bd a0 a6 b3 3d 20 4a 36 bc d3 b9 9b bd
       -0.058619305 0.087720156 -0.011126071 -0.076038025
000090 9c 0b a1 bd 0a 49 7c 3e d8 29 c4 bb a7 63 0d be
       -0.078635424 0.24637237 -0.0059864335 -0.13807546
0000a0 93 5a f8 3d d2 05 68 bd 34 a6 53 3f 06 21 21 3b
       0.12126651 -0.056646176 0.8267548 0.0024586334
0000b0 90 63 96 3c 3b 4b a1 3c 20 e0 42 be af 3f 7b 3d
       0.018358022 0.019689193 -0.1903081 0.06134003
0000c0 6d 5f 19 3c c4 ec 89 bd c7 f3 86 bd fc 7b 0b 3e
       0.00936113 -0.067346126 -0.065894656 0.13621515
0000d0 30 e7 d5 bd 7a 7e f3 3d a3 e5 b8 bd 67 16 76 bd
       -0.10444486 0.11889358 -0.09028175 -0.06007996
0000e0 93 54 9e 3d c0 e6 a5 bc e6 f0 2f 3c fc 04 15 3e
       0.07730975 -0.020251632 0.010738587 0.14552683
0000f0 39 ce f5 39 2a 5c 2e 3d 34 87 a1 3d 43 79 96 bd
       0.0004688369 0.042568363 0.07887116 -0.073473476
000100 da 45 85 3d 74 92 08 be e4 2a ee 3c bb e3 31 3d
       0.06507464 -0.13337117 0.029073186 0.04343007
000110 57 2d 55 be 2c bd 6b 3e 75 5d a4 3c 42 df dc bd
       -0.20818077 0.23021382 0.020064095 -0.107847705
000120 01 77 41 bd 05 01 67 3d bf e0 98 bd 58 17 6e 3e
       -0.04723263 0.056397457 -0.07464742 0.23251092
000130 52 ff 7f 3d af 83 04 be 7f 97 cc 3c 0e 30 2c be
       0.06249935 -0.12940858 0.024974583 -0.16815206
000140 b3 ca af bd 53 5f b7 3c 1b 06 89 3d d0 c2 e8 3a
       -0.08583584 0.022384321 0.06690618 0.0017758254
000150 6b 47 50 bd d7 bf 26 bd 56 8b d3 bb b2 2c a6 3a
       -0.05084936 -0.040710296 -0.006455819 0.0012678115
000160 ed f6 04 bd 47 96 81 3d cc 7d e1 3c ee 3e 08 bd
       -0.03246205 0.06327491 0.027525805 -0.03326314
000170 89 65 d4 bd f8 44 49 bc 90 23 36 3e 8e 15 1e 3d
       -0.10370929 -0.01228451 0.17787004 0.038594775
000180 41 c0 91 bd c5 c0 30 3d 59 30 ca be 25 4d 88 3e
       -0.07116748 0.04315259 -0.3949001 0.26621357
000190 7e 4b 28 bc e9 c9 01 bf 3f 00 49 3d 08 2f cf bc
       -0.010271905 -0.50698715 0.0490725 -0.025290981
0001a0 2a 0f 0e 3e af d9 ae 39 ee 1b 9e 3d e6 85 78 3d
       0.13872972 0.00033350053 0.07720171 0.06067457
0001b0 8d 42 2f 3c 50 b3 f1 3d 15 4c 52 bd 6a ec e4 ba
       0.010697019 0.11801779 -0.05134209 -0.0017465476
0001c0 a6 ec 0b bc 98 32 b4 bd b6 90 d3 3c 39 30 c1 bc
       -0.008540308 -0.087987125 0.02582584 -0.023582565
0001d0 ae fa db bc 68 98 59 3e ba d1 28 bc 50 8a c2 3c
       -0.026852932 0.21249545 -0.010303909 0.023747593
0001e0 5b 58 ce bd a8 09 1d 3f ef ac af bd 08 0c c6 bd
       -0.10075446 0.6134286 -0.08577906 -0.096702635
0001f0 da 5e db 3e dd 2c 82 3e 01 0e 35 3e c1 ed 06 bc
       0.42845803 0.25424853 0.17681123 -0.008235396
000200 39 3c 86 be 9b f2 91 3d 4b 8f 93 bd 1f 6a 95 bb
       -0.2621782 0.071263514 -0.07205065 -0.0045597698
000210 b9 58 dd ba ad 85 2d 3e 85 a3 a5 3a d4 66 5b 3e
       -0.0016887403 0.16945525 0.0012637234 0.21425945
000220 0b 65 ad 3d f5 a9 16 bf 05 7d b1 bd 66 9b 6b be
       0.08466538 -0.58853084 -0.08666424 -0.23008499
000230 d1 f9 23 3e 3d 81 36 3d 31 d3 1f 3d 78 87 82 bb
       0.16013266 0.044556845 0.039019767 -0.0039834343
000240 bc 4b 55 bb 3b 4c c0 bd 03 8b 07 3c b5 08 ce 3b
       -0.0032546362 -0.0938954 0.008272889 0.006287659
000250 d5 54 d1 3d 67 13 8c be 50 7d 8a be e6 f1 2e 3d
       0.102212586 -0.27358553 -0.2704873 0.04271116
000260 15 fa a8 bd c4 f3 8b 3e 45 5d fa 3e e0 1e ab 3e
       -0.08250824 0.27334416 0.48899284 0.33421993
000270 f4 db bc bc f8 6e 5a 3b 4c 09 8b 3d cf 74 2a 3e
       -0.0230541 0.0033330303 0.067888826 0.16646121
000280 43 7f 28 3e 99 31 2c bd 0c d1 a9 bc 28 40 7a bd
       0.16454796 -0.042039488 -0.020729564 -0.06109634
000290 94 e7 13 3c 20 e1 7a 3d 82 de dd 3c 81 42 7b 3d
       0.0090273805 0.061249852 0.027083639 0.06134272
0002a0 4d ac c5 bd dd ac 43 be 94 4f 7a 3c 70 1c 3c 3e
       -0.096520044 -0.19108911 0.015277762 0.18370223
0002b0 70 5e 34 3d 40 8e 84 3c 15 62 dc be 8b 80 ab 3d
       0.044035375 0.016181111 -0.4304358 0.08374127
0002c0 60 cb 7d 3e d9 00 8c 3e 43 b3 cc bc ec 5d 99 3c
       0.24784613 0.27344397 -0.024987822 0.018721543
0002d0 31 65 a1 bc 97 5e 71 3c 71 71 e2 3e 10 03 2e 3e
       -0.019701572 0.014732025 0.44227174 0.16993356
0002e0 ac 55 39 be d6 b9 30 be df 75 c6 bd 71 7e a4 3b
       -0.18099087 -0.17258391 -0.09690451 0.005019956
0002f0 2c 91 5e b9 b7 95 7c be 1f f3 ba bd f6 59 5d be
       -0.0002122565 -0.24666487 -0.09128403 -0.21616349
000300 97 aa 55 3e 35 d8 9d 3e 3b 2b 89 3c 6e 11 4a bd
       0.20865856 0.30829015 0.016744247 -0.04933303
000310 38 f8 ec bd 49 0f b9 bd c3 5c 8a 3c f1 fe 38 3d
       -0.115707815 -0.090361185 0.016889935 0.045165006
000320 88 27 9a bd ae 91 5f 3d fb 01 3c bb 71 cf 37 be
       -0.07527071 0.05458229 -0.0028687704 -0.17950226
000330 f9 37 d2 3d 93 36 5e 3c b6 70 66 3e e4 d4 2a 3d
       0.10264582 0.013562816 0.22503933 0.041706935
000340 77 85 fb bb 96 59 0c 3b cb cb 53 3d 30 c2 3e 3e
       -0.0076758224 0.0021415702 0.051708024 0.18628764
000350 55 42 25 3e 44 7d 92 bd 6e e4 4e bb d6 0e 33 3e
       0.16138585 -0.07152799 -0.003156926 0.17486128
000360 1c 67 05 be ed 7e 03 3e fb 55 30 bc c3 b2 33 be
       -0.13027614 0.12841387 -0.010762687 -0.17548661
000370 a0 e5 f8 bc 28 93 58 bb fd 98 eb bd 64 21 59 3a
       -0.030382931 -0.0033046696 -0.115037896 0.00082828687
000380 14 e8 a3 bd e4 25 10 3e 01 92 b4 bd 80 70 15 bc
       -0.0800325 0.14076954 -0.088169105 -0.00912106
000390 f5 6a 5e bd 61 1c de bc 47 5e df bc fb 4a 67 bd
       -0.05430122 -0.027113141 -0.027266635 -0.05646799
0003a0 73 dd 53 3d 43 d7 ea bc 88 29 d0 39 d9 ed 73 bd
       0.051724862 -0.028667098 0.00039703795 -0.059553
0003b0 74 49 82 bc ee 34 67 3e 35 1c a9 3c f3 de a4 bd
       -0.015904166 0.22578785 0.020643333 -0.08050337
0003c0 c6 e5 0d bc 87 4c 2e bc fd f5 e5 bc f0 0c e6 bb
       -0.008660739 -0.010638363 -0.028071398 -0.0070205852
0003d0 b8 4f 68 bc e0 0f 7a be e5 a4 e1 be 03 c3 42 3e
       -0.014179163 -0.24420118 -0.44071117 0.19019704
0003e0 d5 6c 47 3e 56 c4 82 3c de 4c cc 3e 7e 47 95 be
       0.1947511 0.01596276 0.39902395 -0.29156107
0003f0 ee f5 f5 bd ca b1 ca 3e fd b7 e5 bd 33 a7 65 3e
       -0.12009798 0.39588767 -0.112167336 0.22427063

fc3.bias f4 [2]
000000 dd 86 ef 3b d5 86 99 3c
       0.007309778 0.01874105
