checkpoints/agent1_checkpoint_actor.pth (torch_old, 394607 bytes, 6 tensors)

fc1.weight f4 [300, 24]
0.057351742 -0.08484876 -0.046349067 -0.044886414 0.13767555 0.108125135 -0.03126259 -0.053020194
0.06327134 -0.14152382 -0.03631437 -0.012645916 0.033822753 0.066638894 -0.036264405 0.025399508
0.06396358 -0.0593027 0.029016508 0.091629975 -0.22613071 0.13786355 0.020124901 0.052869648
-0.04588106 0.3011265 -0.02087209 0.015484641 -0.12661895 0.16895781 -0.041108318 0.08171673
0.054457057 0.335267 -0.014797342 0.011951546 0.08344863 0.16445617 -0.03449376 0.07889317
0.0648502 0.34155864 0.0021693818 -0.07287509 0.22859134 0.16863254 -0.023015853 -0.12625101
-0.029405411 -0.1935367 0.039509133 -0.034970704 -0.030581767 -0.32429984 -0.04703077 -0.0026008836
-0.012501625 -0.13252398 -0.0061768875 0.0858132 -0.015993048 -0.047020108 0.01757379 0.043780137
-0.059265826 -0.11111421 0.008909708 0.06099609 0.037259065 0.38495058 0.012173158 0.037080508
-0.06615389 -0.22344655 0.023802515 0.002922077 -0.08876686 -0.112270676 0.0379348 -0.060520384
0.041468784 -0.1906274 0.005390091 -0.101565726 0.09990622 0.006107896 0.0112213325 -0.04455611
-0.019950964 -0.25497362 0.042796433 -0.04592596 0.35037357 -0.03320816 0.015606026 -0.0048715393
-0.06679771 -0.04826132 0.05159041 0.0508234 0.083233245 -0.06683456 -0.031873092 0.01390604
0.012447682 0.04161938 -0.037651066 0.03381931 0.012526105 0.02229502 0.024227222 0.00020659679
-0.06971211 0.013004308 -0.00481189 0.1190145 -0.13731281 0.46592417 0.025726715 0.08468049
-0.053541496 -0.23591223 0.038837034 -0.101029955 0.03356422 -0.0021354067 -0.030861517 -0.083618335
-0.09456678 -0.19215836 -0.011450512 -0.0101887835 0.012766299 0.17933847 0.0075021633 0.07327638
-0.13219006 -0.15447274 0.02028272 0.08711375 0.025754124 0.30612558 -0.0154004935 -0.02780796
0.105463795 0.07471165 -0.044916213 -0.056510076 0.05214613 0.23446226 0.020605491 -0.07149712
0.091003224 -0.046829365 0.029183544 0.012003371 -0.15398903 0.1744524 -0.06703299 0.018894095
0.09794867 0.011460079 0.0038076465 0.06608261 -0.12706906 0.014957089 -0.028865768 0.049493566
-0.053178344 0.28402984 0.010980218 0.05735702 0.27284312 -0.22153841 -0.0062347013 0.036284585
-0.09820377 0.35138813 -0.011394439 -0.01199611 0.022868464 -0.013086928 0.0006722909 0.03531395
-0.032770585 0.24108633 -0.035732448 -0.113194995 -0.16037767 0.1161326 0.018463371 -0.07331831
0.0214836 0.056197844 -0.0036586714 -0.03011159 0.14846966 0.03979372 0.0038098425 -0.059721403
0.02518623 0.09884067 0.0149682155 0.113320105 -0.018318415 0.044929896 -0.05639645 0.084566094
-0.06615526 0.07232535 -0.062166065 -0.016764242 -0.17303145 -8.321993e-05 -0.044583365 -0.06050371
-0.004973304 0.03033089 -0.046179462 0.005763912 0.13543907 -0.06624306 -0.06340107 -0.0704243
-0.031225875 0.0367622 -0.08651442 -0.07375794 0.041639626 -0.011233993 -0.01650895 -0.025517961
-0.07410709 -0.041526474 0.054671086 -0.1300163 -0.12193062 0.3319843 0.045143154 -0.0478123
-0.047328115 -0.054642998 -0.036552947 -0.05630336 -0.09442822 0.19210821 -0.05685975 -0.03709505
-0.0015891376 0.013047455 -0.032268487 -0.14230482 0.028725047 0.19128935 -0.036435343 -0.17951493
00000000: a9e9 6a3d 30c5 adbd 85d8 3dbd d1da 37bd
00000010: d2fa 0c3e b670 dd3d 340d 00bd b42b 59bd
00000020: 6894 813d 9feb 10be 60be 14bd d130 4fbc
00000030: ba89 0a3d f979 883d fc89 14bd a112 d03c
00000040: 56ff 823d 63e7 72bd 07b4 ed3c 7fa8 bb3d
00000050: cf8e 67be 1a2c 0d3e fadc a43c d88d 583d
00000060: c7ed 3bbd 412d 9a3e f2fb aabc 4bb3 7d3c
00000070: 66a8 01be 4703 2d3e 3261 28bd 1a5b a73d
00000080: 5d0e 5f3d 1ea8 ab3e 8d70 72bc 6bd0 433c
00000090: 1ee7 aa3d 3367 283e 5449 0dbd be92 a13d
000000a0: 2fd0 843d c6e0 ae3e 302c 0e3b 893f 95bd
000000b0: d913 6a3e 02ae 2c3e be8b bcbc f247 01be
000000c0: 9ee3 f0bc 7c2e 46be 54d4 213d 713d 0fbd
000000d0: 9d86 fabc a10a a6be 56a3 40bd 9673 2abb
000000e0: 9ed3 4cbc 5eb4 07be 7d67 cabb d5be af3d
000000f0: da03 83bc 2898 40bd e9f6 8f3c cd52 333d
00000100: b9c0 72bd d98f e3bd 06fa 113c 09d7 793d
00000110: f69c 183d 3e18 c53e ed71 473c bbe1 173d
00000120: b17b 87bd 2ccf 64be 7efd c23c 5180 3f3b
00000130: 66cb b5bd 2bee e5bd 8561 1b3d 39e4 77bd
00000140: 2cdb 293d d433 43be 5c9f b03b b101 d0bd
00000150: a29b cc3d bf24 c83b aed9 373c 7880 36bd
00000160: 3470 a3bc e78b 82be 504b 2f3d dc1c 3cbd
00000170: 2a64 b33e 4805 08bd 6bb0 7f3c 6fa1 9fbb
00000180: 3dcd 88bd a9ad 45bd 7750 533d 332c 503d
00000190: 3176 aa3d 8fe0 88bd 5c8d 02bd 29d6 633c
000001a0: 5df1 4b3c 1579 2a3d 0138 1abd 1e86 0a3d
000001b0: 4b3a 4d3c 0ca4 b63c 2b78 c63c e7a1 5839
000001c0: 39c5 8ebd 0510 553c 0fad 9dbb e0bd f33d
000001d0: bb9b 0cbe 9d8d ee3e d5c0 d23c f76c ad3d
000001e0: 544e 5bbd fa92 71be 9513 1f3d cbe8 cebd
000001f0: a37a 093d 2ef2 0bbb 4bd1 fcbc 1740 abbd
00000200: 3aac c1bd 29c5 44be ee9a 3bbc dbee 26bc
00000210: bd29 513c 81a4 373e b5d4 f53b ed11 963d
00000220: d55c 07be 1a2e 1ebe f227 a63c b268 b23d
00000230: 50fa d23c 7ebc 9c3e 5a52 7cbc 85cd e3bc
00000240: 67fd d73d 6c02 993d 10fa 37bd 1c77 67bd
00000250: 2e97 553d e016 703e d9cc a83c 156d 92bd
00000260: e65f ba3d 26d0 3fbd 5412 ef3c c9a9 443c
00000270: 4daf 1dbe a6a3 323e 9848 89bd cac7 9a3c
00000280: 5099 c83d 0ec3 3b3c b589 793b 5256 873d
00000290: 641e 02be 940e 753c e777 ecbc c4b9 4a3d
000002a0: 89d1 59bd 5c6c 913e 5fe6 333c 32ef 6a3d
000002b0: 18b2 8b3e f7da 62be 774c ccbb 259f 143d
000002c0: 0f1f c9bd 25e9 b33e beaf 3abc 558b 44bc
000002d0: a556 bb3c 8e6a 56bc ae3c 303a 5ca5 103d
000002e0: 733a 06bd 56df 763e 305c 12bd c7d2 e7bd
000002f0: 0b3a 24be eed6 ed3d 7f40 973c e927 96bd
00000300: 60fe af3c b62f 663d 52c6 6fbb 95ac f6bc
00000310: 6e08 183e bdfe 223d 8dae 793b 6e9e 74bd
00000320: 5a53 ce3c fa6c ca3d 3f3d 753c 5f14 e83d
00000330: 8010 96bc 6908 383d f7ff 66bd fd30 ad3d
00000340: 697c 87bd 501f 943d d8a1 7ebd 2a55 89bc
00000350: 282f 31be 5c86 aeb8 0c9d 36bd bdd2 77bd
00000360: 19f7 a2bb 7d78 f83c ad26 3dbd 33df bc3b
00000370: 8ab0 0a3e 71aa 87bd 6cd8 81bd 9e3a 90bd
00000380: 68cd ffbc f693 163d 792e b1bd 670e 97bd
00000390: 508e 2a3d c80e 38bc c73d 87bc 0b0b d1bc
000003a0: 75c5 97bd aa17 2abd caee 5f3d fe22 05be
000003b0: c3b6 f9bd d9f9 a93e 07e8 383d d5d6 43bd
000003c0: 20db 41bd 56d1 5fbd 8bb8 15bd 5a9e 66bd
000003d0: 9563 c1bd 04b8 443e c5e5 68bd fbf0 17bd
000003e0: 9c4a d0ba fec4 553c f62b 04bd 5bb8 11be
000003f0: ca50 eb3c 5be1 433e 3a3d 15bd c3d2 37be

fc1.bias f4 [300]
0.09083158 -0.08543045 -0.0033563816 0.10183772 -0.14655046 -0.11956002 -0.016287798 0.0763605
-0.17645957 -0.1895416 -0.19062988 0.113199055 0.013816255 0.074698225 -0.36576435 -0.13130762
-0.052480426 -0.09173965 -0.019170549 0.061485898 -0.06666783 0.028359761 -0.2643777 -0.08081923
0.039353106 -0.19365394 -0.08073188 0.055459775 0.27954015 0.10218395 0.008880036 0.046634477
0.22132714 0.21130452 0.2915952 -0.33538964 0.27871558 -0.15194713 0.14010751 0.17320123
-0.012410103 0.0025629404 -0.00803117 -0.04076896 0.11834543 0.12418027 0.069328554 -0.106639676
-0.11909205 -0.11808964 -0.027090797 -0.1354427 -0.046544477 0.26774725 0.19502771 0.24749693
0.04233335 0.17114307 0.095310524 -0.15737134 -0.21743864 -0.017398845 0.0732214 -0.09607398
-0.0019589476 0.15013194 0.28346896 0.040185247 -0.14436461 0.20539603 0.06764288 -0.2887678
-0.317363 -0.24540351 -0.26430452 0.10845933 -0.049773756 -0.107495666 0.18192247 -0.097372524
-0.113121025 -0.16262826 0.13176464 0.0217322 -0.0062962933 -0.29293555 -0.077156164 0.11964762
-0.163501 -0.03394818 -0.04040838 0.18395633 0.02252669 0.16300584 0.052533355 0.10871756
0.09163001 -0.11862746 0.08944843 0.18847424 0.15962748 0.10811283 -0.10416084 0.12632157
-0.23017617 0.15997128 0.16047283 -0.03449788 0.22567463 -0.26587316 0.20696066 -0.032788824
0.16630562 -0.05844386 -0.073344186 0.033324137 0.1702363 -0.19416691 -0.08110645 -0.19732717
-0.15712795 -0.20064408 0.029839722 -0.0745124 0.041585866 -0.27049908 -0.20112957 0.04817029
0.06308495 0.18002053 0.063966595 0.35912967 -0.13778724 0.08295983 -0.14050014 0.096563585
-0.13265073 -0.012554405 -0.03255266 -0.097689874 0.07043806 4.9914044e-05 0.1634884 0.35791492
0.021010097 -0.14719197 -0.0676404 -0.17928082 -0.1249234 -0.02928061 0.069334865 -0.1713638
-0.04387603 0.1230377 -0.19341664 -0.2157294 -0.09656549 -0.33366445 -0.05724903 0.22922213
0.115681715 -0.085855044 -0.08942823 0.23129103 -0.17882805 0.07450355 0.08764079 0.13820468
0.0555955 -0.11059629 -0.23171824 -0.07147269 -0.22527286 0.08274709 -0.054955333 -0.22498971
0.10349709 -0.007930282 0.08049537 0.050548792 -0.06663542 -0.20184152 0.18002962 0.10252506
-0.053726718 -0.1487133 0.04078108 -0.14067793 0.20849869 0.07124271 0.29338494 0.22289883
-0.30056843 0.024760267 0.21415803 0.30226165 0.20122005 -0.1403468 0.064223096 0.004968661
0.15197487 -0.111555174 0.15187588 0.025152389 0.00038488742 0.14701091 -0.21913767 -0.059488256
-0.14747812 0.1743179 0.18551113 -0.012684107 -0.115493394 -0.13291623 0.09941188 0.05177202
-0.12950878 0.16573177 0.10666788 -0.07879312 0.13199878 0.14266108 0.1366958 0.010727351
0.07762181 0.04413679 0.17191969 -0.078562446 0.077546276 0.063205734 -0.11043868 0.119998485
-0.18003717 -0.088076144 -0.14465468 0.15320705 -0.20024087 -0.122124724 0.12559092 -0.14536662
0.24261647 0.24783097 0.05500911 0.2184288 0.070157595 -0.25325978 -0.0346403 0.046347287
0.089707375 -0.09496597 -0.21473779 0.11503569 0.13421051 -0.118468866 0.08509112 -0.10657886
00000000: e805 ba3d 29f6 aebd bdf6 5bbb 4b90 d03d
00000010: 5311 16be e2db f4bd fd6d 85bc e562 9c3d
00000020: d1b1 34be 3117 42be 7b34 43be e8d4 e73d
00000030: 935d 623c 62fb 983d 7745 bbbe 8175 06be
00000040: b7f5 56bd ffe1 bbbd 8e0b 9dbc a3d8 7b3d
00000050: 2589 88bd bb52 e83c 845c 87be 8d84 a5bd
00000060: b930 213d 384d 46be c256 a5bd ca29 633d
00000070: e31f 8f3e d245 d13d 927d 113c cb03 3f3d
00000080: 95a3 623e 3660 583e f74b 953e 31b8 abbe
00000090: cfb3 8e3e 0798 1bbe 5878 0f3e aa5b 313e
000000a0: bf53 4bbc 01f7 273b 2b95 03bc 5afd 26bd
000000b0: 175f f23d 3a52 fe3d 21fc 8d3d e765 dabd
000000c0: 88e6 f3bd fbd8 f1bd 85ed ddbc 7eb1 0abe
000000d0: 6ca5 3ebd 2b16 893e 58b5 473e d66f 7d3e
000000e0: bc65 2d3d 2140 2f3e 2a32 c33d f425 21be
000000f0: 3ca8 5ebe 0688 8ebc 1af5 953d 6fc2 c4bd
00000100: b061 00bb 30bc 193e d822 913e 4999 243d
00000110: 51d4 13be 5653 523e 5a88 8a3d 60d9 93be
00000120: 677d a2be 0f4b 7bbe ec52 87be ed1f de3d
00000130: 91df 4bbd b026 dcbd e249 3a3e 3f6b c7bd
00000140: ffab e7bd 0688 26be 4fed 063e ba07 b23c
00000150: 2351 cebb a6fb 95be 0d04 9ebd d009 f53d
00000160: ce6c 27be 3f0d 0bbd 4283 25bd 0c5f 3c3e
00000170: e589 b83c 01eb 263e 372d 573d 50a7 de3d
00000180: 84a8 bb3d f4f2 f2bd bd30 b73d 64ff 403e
00000190: 6375 233e 426a dd3d 4752 d5bd 715a 013e
000001a0: 4db3 6bbe 83cf 233e fd52 243e a64d 0dbd
000001b0: 4017 673e 8720 88be 7fed 533e 934d 06bd
000001c0: 054c 2a3e d462 6fbd 7a35 96bd e47e 083d
000001d0: 6d52 2e3e b1d3 46be 231b a6bd 2210 4abe
000001e0: 26e6 20be a475 4dbe 6f72 f43c f599 98bd
000001f0: f155 2a3d db7e 8abe e9f4 4dbe 364e 453d
00000200: af32 813d 4d57 383e eb00 833d d8df b73e
00000210: 1918 0dbe d8e6 a93d 45df 0fbe 21c3 c53d
00000220: 98d5 07be feb0 4dbc f055 05bd a111 c8bd
00000230: d441 903d cc5a 5138 8169 273e a040 b73e
00000240: 5e1d ac3c 7eb9 16be 0d87 8abd 6495 37be
00000250: d7d7 ffbd e4dd efbc 70ff 8d3d fe79 2fbe
00000260: 5ab7 33bd 31fb fb3d 030f 46be 2be8 5cbe
00000270: 21c4 c5bd 11d6 aabe f57d 6abd 35b9 6a3e
00000280: 89ea ec3d c5d4 afbd 2626 b7bd 8ed7 6c3e
00000290: b31e 37be 5195 983d 047d b33d 8785 0d3e
000002a0: 1bb8 633d 4f80 e2bd 8c47 6dbe 4660 92bd
000002b0: eead 66be 4e77 a93d d818 61bd b463 66be
000002c0: 48f6 d33d 03ee 01bc c2da a43d 400c 4f3d
000002d0: 2778 88bd 8baf 4ebe af59 383e a9f8 d13d
000002e0: 8c10 5cbd 4d48 18be 100a 273d e00d 10be
000002f0: ae80 553e b3e7 913d 8d36 963e 973f 643e
00000300: 1be4 99be 0bd6 ca3c 3e4c 5b3e 0ac2 9a3e
00000310: a10c 4e3e 12b7 0fbe 6687 833d 26d0 a23b
00000320: 4d9f 1b3e 0a77 e4bd 5a85 1b3e 620c ce3c
00000330: b7ca c939 078a 163e a065 60be f5a9 73bd
00000340: 8104 17be 6480 323e a1f6 3d3e 00d1 4fbc
00000350: cd87 ecbd 311b 08be 7598 cb3d e60e 543d
00000360: f39d 04be 97b5 293e b174 da3d 4a5e a1bd
00000370: b02a 073e bf15 123e fcf9 0b3e c5c1 2f3c
00000380: 2ff8 9e3d c7c8 343d b70b 303e 59e5 a0bd
00000390: 95d0 9e3d 0272 813d ad2d e2bd c4c1 f53d
000003a0: aa5b 38be 4461 b4bd 5b20 14be 4fe2 1c3e
000003b0: f10b 4dbe 871c fabd e89a 003e fdda 14be
000003c0: 7470 783e 67c7 7d3e 3c51 613d cdab 5f3e
000003d0: c9ae 8f3d 44ab 81be fde2 0dbd a7d6 3d3d
000003e0: 80b8 b73d 857d c2bd 39e4 5bbe d597 eb3d
000003f0: 7b6e 093e ce9f f2bd 4144 ae3d 0446 dabd

fc2.weight f4 [300, 300]
-0.013229506 0.11193681 0.058980666 0.08737094 0.031592876 0.05170793 -0.020289635 -0.050551195
0.073576 -0.06822279 0.02399345 -0.014719541 0.0062441453 0.04318857 0.035346825 0.02062488
0.047043346 0.1241131 0.06989365 -0.109264255 -0.0132190585 0.04660999 0.035632085 0.028514234
-0.006292631 0.092854254 0.06544639 0.024614947 0.020387162 0.0020258937 -0.10430332 0.05828087
0.06686872 0.004378515 0.07780834 0.055919506 0.12138302 -0.037150577 -0.014812932 -0.0031753362
0.020613287 0.048744544 0.01939615 0.07255821 -0.042106833 0.08362136 0.00013207966 0.03485721
0.080660395 -0.01737778 0.042127274 -0.041184857 0.04500937 0.050462127 -0.04192155 -0.029584697
0.056982458 -0.092429936 -0.0009156418 -0.015740925 0.017325625 0.06917124 0.017693155 -0.0026854142
-0.0051414603 0.06643693 0.011620437 0.002684729 0.1084551 0.018433774 -0.1347366 0.008295609
0.0017182785 0.08797495 0.046507575 0.025443548 0.04806517 0.014645741 0.09337934 -0.026140742
-0.0023532354 -0.13970615 0.029385183 0.09513147 0.055280153 -0.0062272213 -0.035242345 -0.0365655
0.055730756 -0.022385472 -0.048770577 0.017720466 -0.058275525 -0.037211567 0.041928068 0.025526272
-0.080878675 -0.18162557 -0.011058119 -0.07510927 0.03471319 -0.06449103 0.013670744 0.029122313
-0.013744687 0.13058634 -0.012704839 -0.013925229 0.06128776 -0.04628485 -0.056828167 -0.023549678
3.975269e-05 -0.12922938 0.061106775 -0.021301776 0.087844014 0.043682512 0.016497105 -0.023458624
-0.12775853 -0.033517446 -0.08776804 -0.03140029 0.10517745 -0.04550102 -0.04072855 0.0758903
-0.15854648 0.026208878 0.051691346 0.05165607 0.048791472 0.04217319 0.04434937 0.019408645
-0.054845124 -0.026418213 -0.02790455 -0.118209414 -0.066798 0.052117996 0.03678393 0.10425889
-0.019335095 0.11318923 0.038489383 0.04808692 0.09211442 0.10239631 0.048633974 0.004259065
0.09113476 0.038221464 0.055478383 0.07122964 -0.06385916 -0.050223794 0.051602587 0.04797322
-0.04591881 -0.053647015 0.084909245 0.11428268 0.00868815 -0.0068280054 0.007846123 0.077803485
-0.020226492 0.03151534 0.001553471 -0.0003478274 0.024702732 0.03775305 -0.045960374 -0.059027288
0.010421679 -0.0018057172 -0.04637396 0.051507752 0.08617763 0.0075376686 -0.053479463 0.03476784
0.019020863 0.011522734 0.08331336 -0.039852504 0.033526916 0.010506014 -0.008748037 0.067945324
0.06781428 0.08059185 0.0038866652 0.093990065 -0.003223845 0.044740498 0.03674271 -0.037334066
-0.021375233 -0.13173757 -0.023605125 0.03607668 0.038096957 -0.020061068 -0.01705456 -0.13522838
-0.009189602 0.047320902 -0.026357787 -0.026362801 0.0063114217 -0.037574314 0.030965986 0.069778025
0.002082772 -0.015989522 0.09611049 0.055109438 0.07263579 0.10118221 0.01978012 -0.0061376477
-0.019385396 0.023451164 0.009439238 0.07036559 0.009590356 -0.016141748 -0.011886608 0.025288433
0.027221112 0.09147663 -0.034529198 0.05400146 0.030308552 -0.09891007 -0.0370635 0.03878164
0.07320328 0.09773575 0.07505699 -0.039002668 -0.016835403 -0.059961386 0.08379922 -0.027814148
0.049126666 0.042403888 0.017715443 0.064472266 0.028798863 -0.039223187 0.016412413 0.07298529
00000000: 92c0 58bc 203f e53d b695 713d 89ef b23d
00000010: 8867 013d b2cb 533d 7336 a6bc c50e 4fbd
00000020: 04af 963d 64b8 8bbd e98d c43c 3b2a 71bc
00000030: b09b cc3b 7fe6 303d d5c7 103d 82f5 a83c
00000040: 86b0 403d 022f fe3d 6724 8f3d f0c5 dfbd
00000050: c094 58bc 1eea 3e3d f3f2 113d af96 e93c
00000060: 6a32 cebb 5f2a be3d c208 863d 49a5 c93c
00000070: fa02 a73c dbc4 043b fb9c d5bd ecb7 6e3d
00000080: 78f2 883d a579 8f3b fb59 9f3d da0b 653d
00000090: a997 f83d 342b 18bd f1b1 72bc 4d19 50bb
000000a0: 32dd a83c 5ca8 473d ade4 9e3c 6699 943d
000000b0: 3778 2cbd ad41 ab3d dd7e 0a39 6fc6 0e3d
000000c0: 4731 a53d d95b 8ebc a68d 2c3d 74b1 28bd
000000d0: bf5b 383d 60b1 4e3d eeb5 2bbd 9b5b f2bc
000000e0: 7066 693d e84b bdbd ae07 70ba 1df3 80bc
000000f0: 78ee 8d3c a7a9 8d3d 3cf1 903c c6fd 2fbb
00000100: b279 a8bb 1610 883d a563 3e3c 47f2 2f3b
00000110: b51d de3d 6d02 973c 64f8 09be 4eea 073c
00000120: dc37 e13a 362c b43d ba7e 3e3d fd6e d03c
00000130: fcdf 443d b1f4 6f3c ab3d bf3d 1c25 d6bc
00000140: bd38 1abb 210f 0fbe 32b9 f03c 4ad4 c23d
00000150: 716d 623d b80d ccbb 475a 10bd b5c5 15bd
00000160: ef45 643d bd61 b7bc a8c3 47bd 832a 913c
00000170: 51b2 6ebd 286b 18bd c4bc 2b3d 791c d13c
00000180: b8a3 a5bd 0efc 39be 1d2d 35bc e4d2 99bd
00000190: 6b2f 0e3d e013 84bd 42fb 5f3c eb91 ee3c
000001a0: 6531 61bc 6db8 053e f527 50bc a526 64bc
000001b0: e008 7b3d 2f95 3dbd a7c4 68bd 41eb c0bc
000001c0: 20bc 2638 b554 04be 194b 7a3d 1081 aebc
000001d0: 90e7 b33d 6fec 323d f024 873c 4d2c c0bc
000001e0: 22d3 02be 9749 09bd bbbf b3bd 979d 00bd
000001f0: 4667 d73d 475f 3abd fbd2 26bd 606c 9b3d
00000200: 025a 22be 00b4 d63c 4eba 533d 5195 533d
00000210: 91d9 473d cbbd 2c3d afa7 353d e1fe 9e3c
00000220: 48a5 60bd 026b d8bc 1598 e4bc c717 f2bd
00000230: 64cd 88bd ae79 553d bfaa 163d af85 d53d
00000240: a264 9ebc c1cf e73d 0ba7 1d3d caf6 443d
00000250: 7ca6 bc3d 28b5 d13d 6b34 473d a08f 8b3b
00000260: dca4 ba3d 1c8e 1c3d 4d3d 633d d8e0 913d
00000270: 97c8 82bd 77b7 4dbd 3c5d 533d 917f 443d
00000280: 5d15 3cbd f9bc 5bbd e6e4 ad3d 0a0d ea3d
00000290: be58 0e3c 76bd dfbb 068d 003c 6f57 9f3d
000002a0: 07b2 a5bc 3b16 013d d69d cb3a 9a5c b6b9
000002b0: 625d ca3c f1a2 1a3d f240 3cbd 99c6 71bd
000002c0: b1bf 2a3c d1ad ecba 9ff2 3dbd cbf9 523d
000002d0: e67d b03d 8cfe f63b 480d 5bbd b968 0e3d
000002e0: a4d1 9b3c d9c9 3c3c 32a0 aa3d 613c 23bd
000002f0: 8553 093d 6b21 2c3c ed53 0fbc eb26 8b3d
00000300: 37e2 8a3d 570d a53d 6cb7 7e3b dd7d c03d
00000310: 2547 53bb d041 373d 867f 163d 9beb 18bd
00000320: 1d1b afbc 37e6 06be 895f c1bc 24c5 133d
00000330: 8e0b 1c3d 1c57 a4bc 01b6 8bbc 4f79 0abe
00000340: fc8f 16bc 90d3 413d 49ec d7bc cdf6 d7bc
00000350: 0bd0 ce3b 86e7 19bd 61ac fd3c c8e7 8e3d
00000360: 1e7f 083b 75fc 82bc 94d5 c43d 6fba 613d
00000370: 13c2 943d 9e38 cf3d eb09 a23c 521e c9bb
00000380: 1fce 9ebc a81c c03c 09a7 1a3c d61b 903d
00000390: de20 1d3c b33b 84bc 0cc0 42bc b029 cf3c
000003a0: cffe de3c 1958 bb3d 7d6e 0dbd a330 5d3d
000003b0: a449 f83c 5d91 cabd e6cf 17bd 7fd9 1e3d
000003c0: 9aeb 953d ae29 c83d 7bb7 993d 43c1 1fbd
000003d0: 66ea 89bc 129a 75bd ed9e ab3d 7fda e3bc
000003e0: 0b39 493d b3af 2d3d fa1f 913c 090a 843d
000003f0: 98eb eb3c 7ea8 20bd 5373 863c 5079 953d

fc2.bias f4 [300]
0.09360861 0.018892955 0.0043279333 0.12872413 -0.075677946 0.0053188913 0.016421376 -0.0022459952
0.03544383 0.075977944 -0.0386966 0.0028344544 -0.11268328 0.056389276 0.054922044 0.10495188
0.050431006 0.051570285 0.04264613 0.08312308 -0.0062695807 0.03150008 0.095779054 0.03218481
-0.0851116 -0.009602145 0.052652206 0.012357511 0.11089219 0.02094194 0.15068516 -0.024131672
-0.062165022 0.025678923 0.0615596 -0.1060479 0.01498768 -0.03394905 0.009573336 -0.07790963
0.03778378 0.08802459 -0.1003646 0.09315124 -0.032778595 -0.035389174 0.0028093564 0.050372347
-0.008345622 -0.09678793 -0.042618446 0.00470921 -0.09361141 0.0047722277 0.014006637 -0.045069057
-0.04919534 -0.0301525 -0.14061104 0.021655139 0.11981114 0.102141894 -0.07335184 -0.06739352
0.03243245 0.023204086 0.015767762 0.101732716 0.010056417 0.023712695 0.018138373 -0.085563645
0.055743877 -0.1328743 0.030830743 -0.01708085 0.05394895 -0.03389721 0.03696966 0.020703524
-0.12460394 0.13010484 0.0670392 0.022249041 -0.072965235 0.031244962 -0.103047356 0.0030260757
0.01577633 0.062326103 0.016320363 0.024972435 0.015408997 -0.02982601 0.011347762 0.019779408
-0.12125244 0.05741996 -0.019577643 -0.00743418 0.05868467 -0.0804007 0.074314676 0.020058442
0.034039836 -0.03128094 0.027064893 0.1214835 0.017027492 0.056192163 -0.06324647 -0.13779663
-0.13404582 -0.10775581 -0.045232 -0.014241272 -0.06769948 -0.08495695 -0.044296388 -0.009300619
-0.019159682 0.04477287 0.10880324 -0.052983165 -0.10278317 0.02505021 0.018438444 -0.07706243
0.04045614 -0.052244954 0.07162079 -0.03689263 0.09783215 0.012186811 0.0920347 0.0754123
-0.046335377 -0.054425962 0.02147374 0.03680271 0.06056349 -0.039875202 -0.009896299 0.036842838
0.022414794 -0.034604184 -0.079423144 0.067526646 0.07208077 0.02272761 -0.115756564 0.00017279155
-0.01850718 0.07794309 0.013996786 -0.052014735 0.036025543 0.07782205 0.024133902 -0.0721688
0.0144956205 -0.03966147 -0.01342852 0.047198653 0.0005210886 -0.03335306 0.009892156 0.011522127
0.07135014 -0.063239194 0.06715331 0.12812884 0.11601165 0.08945175 -0.029209528 0.011974743
-0.04846722 0.008838812 0.059578914 -0.0991065 0.063072994 0.1294764 -0.004128773 0.06421053
-0.066194 -0.028830903 -0.025965543 0.031576592 0.05293132 -0.046544712 0.050343804 0.029867
0.06030909 -0.03514955 -0.012958514 0.09370763 -0.007892885 -0.0009234153 -0.013896092 0.032914773
-0.010027632 0.016445972 0.049265563 0.06981015 0.063042484 0.03233972 0.017642688 -0.028078845
-0.008161088 0.033697587 0.11077121 0.010335012 -0.06094821 -0.043847565 -0.036995262 -0.051064614
0.0606966 0.045690004 -0.06448739 -0.12882951 0.13443568 -0.0069677737 -0.08055265 0.009462844
-0.026576165 0.0711391 -0.07659951 -0.009649489 0.031529035 0.02539798 0.057127777 0.028705625
0.04255453 0.018327294 -0.03536799 0.036504276 0.024296314 0.17738402 -0.05096918 -0.07325204
0.0550592 -0.0052767824 0.015780153 0.004248579 0.09941717 -0.071875945 -0.09531428 -0.0054589785
-0.07103292 0.018485637 0.01941091 0.0679825 -0.012322942 0.017116275 0.105533056 -0.002337443
00000000: dfb5 bf3d 66c5 9a3c 56d1 8d3b 42d0 033e
00000010: 0afd 9abd 184a ae3b 1f86 863c 8c31 13bb
00000020: 8d2d 113d 539a 9b3d 5380 1ebd 41c2 393b
00000030: 7ec6 e6bd 71f8 663d f0f5 603d 03f1 d63d
00000040: be90 4e3d 5d3b 533d b5ad 2e3d 6f3c aa3d
00000050: 0e71 cdbb 3a06 013d cf27 c43d 38d4 033d
00000060: fe4e aebd 5152 1dbc d7a9 573d 2877 4a3c
00000070: 721b e33d 6e8e ab3c 364d 1a3e c9af c5bc
00000080: c0a0 7ebd 9b5c d23c eb25 7c3d a42f d9bd
00000090: e38e 753c 290e 0bbd 7bd9 1c3c 168f 9fbd
000000a0: 2ac3 1a3d 3c46 b43d f58b cdbd 14c6 be3d
000000b0: d942 06bd 3df4 10bd 2e1d 383b 3c53 4e3d
000000c0: 13bc 08bc c038 c6bd ae90 2ebd b74f 9a3b
000000d0: 57b7 bfbd 5960 9c3b 187c 653c 559a 38bd
000000e0: 0e81 49bd 6002 f7bc 57fc 0fbe 1e66 b13c
000000f0: 8b5f f53d c52f d13d 7d39 96bd 9d05 8abd
00000100: e4d7 043d 7f16 be3c 652b 813c 3e59 d03d
00000110: acc3 243c 2041 c23c ed96 943c fe3b afbd
00000120: b153 643d 3310 08be c190 fc3c 24ed 8bbc
00000130: 93f9 5c3d cdd7 0abd 806d 173d 709a a93c
00000140: 5a30 ffbd 343a 053e d94b 893d 9f43 b63c
00000150: cc6e 95bd 6ff5 ff3c 7e0a d3bd 2051 463b
00000160: 5d3d 813c a849 7f3d 48b2 853c fe92 cc3c
00000170: 0576 7c3c ad55 f4bc f7eb 393c 6d08 a23c
00000180: 3353 f8bd 3131 6b3d 4b61 a0bc 6c9a f3bb
00000190: 565f 703d 1fa9 a4bd 4b32 983d 9a51 a43c
000001a0: 5b6d 0b3d 7120 00bd 32b7 dd3c 57cc f83d
000001b0: 3d7d 8b3c c129 663d 5e87 81bd 8f1a 0dbe
000001c0: 4f43 09be 14af dcbd 3145 39bd 3954 69bc
000001d0: 06a6 8abd e9fd adbd 2170 35bd a061 18bc
000001e0: c4f4 9cbc c263 373d 3cd4 de3d e004 59bd
000001f0: fc7f d2bd 1936 cd3c 380c 973c e8d2 9dbd
00000200: 56b5 253d cefe 55bd ecad 923d ba1c 17bd
00000210: 395c c83d 31ab 473c b07c bc3d c471 9a3d
00000220: 2aca 3dbd c2ed 5ebd b2e9 af3c 70be 163d
00000230: 6c11 783d 2e54 23bd 1624 22bc 84e8 163d
00000240: 3b9f b73c 1ebd 0dbd 9aa8 a2bd 694b 8a3d
00000250: 159f 933d 412f ba3c c711 edbd 612f 3539
00000260: 5f9c 97bc a0a0 9f3d c752 653c 670d 55bd
00000270: 858f 133d 2b61 9f3d 76b4 c53c 3ccd 93bd
00000280: 0a7f 6d3c 1174 22bd 4c03 5cbc 6053 413d
00000290: aa99 083a 389d 08bd b612 223c 4ec7 3c3c
000002a0: 0620 923d 8d83 81bd ad87 893d 3534 033e
000002b0: 8497 ed3d 7b32 b73d d248 efbc b631 443c
000002c0: 9085 46bd aad0 103c 0509 743d 59f8 cabd
000002d0: 6a2c 813d 7695 043e a94a 87bb cf80 833d
000002e0: b890 87bd c92e ecbc b1b5 d4bc 7556 013d
000002f0: 83ce 583d aba5 3ebd 4e35 4e3d a4ab f43c
00000300: aa06 773d f9f8 0fbd f24f 54bc c9e9 bf3d
00000310: 2951 01bc 5a11 72ba 6fac 63bc a4d1 063d
00000320: f04a 24bc b4b9 863c b0ca 493d a0f8 8e3d
00000330: 6b1c 813d a776 043d 6687 903c 9b05 e6bc
00000340: 16b6 05bc 7b06 0a3d 04dc e23d 2f54 293c
00000350: d5a4 79bd 8199 33bd 5888 17bd 2129 51bd
00000360: ff9c 783d 7125 3b3d f711 84bd e2eb 03be
00000370: 82a9 093e ec51 e4bb caf8 a4bd 0b0a 1b3c
00000380: 42b6 d9bc 60b1 913d 34e0 9cbd e418 1ebc
00000390: 9724 013d 6d0f d03c d1fe 693d 0f28 eb3c
000003a0: a94d 2e3d 1f23 963c 07de 10bd 8285 153d
000003b0: 1009 c73c 28a4 353e 0fc5 50bd 2a05 96bd
000003c0: c185 613d dce8 acbb 6145 813c aa37 8b3b
000003d0: 3b9b cb3d b233 93bd 2234 c3bd 3be1 b2bb
000003e0: b579 91bd 316f 973c a103 9f3c 693a 8b3d
000003f0: 2ae6 49bc 6e37 8c3c b721 d83d c92f 19bb

fc3.weight f4 [2, 300]
0.0737506 0.009261784 0.04196973 0.006643861 -0.08351067 -0.0011545861 0.01052983 0.057316184
0.030956827 -0.06109541 -0.0949933 -0.08934962 0.13184164 0.10673449 0.10538427 0.12534475
0.052942336 -0.0038318858 0.08199892 0.00037865288 -0.18507941 -0.08041123 0.20066649 0.076231636
-0.037954066 -0.46123156 -0.09372027 -0.43704715 0.37326506 -0.0030806148 0.03513173 0.081458196
0.08037661 0.006197308 0.04562776 0.3696975 0.014266678 -0.027475938 -0.0041969055 0.08986112
0.03404433 0.025249785 -0.20911238 0.049154453 -0.09885483 -0.1551132 -0.36354366 0.047057226
-0.36636198 -0.16203403 -0.36070034 -0.016563568 0.13106725 -0.3396902 0.24616879 -0.077127956
-0.09355529 0.1608799 0.022020325 0.08491366 0.009537398 0.073348664 0.008127816 -0.12404333
0.019315518 0.039940342 0.043609735 -0.25943694 -0.32773945 0.37307164 0.037516393 -0.023105873
0.08540449 -0.012753543 0.16103381 0.12566963 -0.01388759 -0.28086582 -0.20522945 -0.30552894
-0.006731603 0.23585853 -0.010257504 -0.076971 -0.19758727 0.09541058 -0.0031784654 -0.0695812
-0.021191187 0.028778069 -0.025130065 -0.4938395 -0.29615918 -0.103559345 -0.0339415 0.07382081
-0.2617392 -0.03092013 -0.03227832 -0.16353907 0.034878384 0.4371933 -0.5840455 -0.20430472
0.1601275 -0.03424582 0.0010330889 0.0511842 -0.0658225 -0.20847814 0.02352797 -0.2003361
0.2320397 0.09507462 0.16740246 0.08212758 -0.07133347 -0.021186788 0.0155553445 0.060171016
-0.00020193176 0.006388069 0.064757906 -0.13330533 -0.24299051 0.017364748 -0.16170488 -0.05474156
-0.33415645 -0.06124941 0.06174133 -0.43249646 0.0018752248 -0.019782195 0.07416028 -0.088089
-0.15012193 0.0072355787 -0.009003284 0.118168876 -0.2630303 -0.09890981 0.004959313 -0.047063477
0.09236408 -0.0003413065 0.023795586 0.032109763 -0.57095987 -0.03819109 -0.14677404 -0.018697178
-0.1218466 -0.17822562 -0.022433802 -0.089440584 0.061178245 0.084828585 -0.031205688 -0.22376847
0.0044649094 -0.19668718 -0.023386955 0.016497226 0.010287253 0.5939341 0.013566524 -0.007309546
0.082892716 -0.16527711 -0.14370397 0.06837489 0.09098012 0.054267228 0.03940459 -0.02690973
-0.42089388 0.04099682 0.0074388687 -0.36196214 0.22496137 0.11196624 0.034793153 0.028757274
-0.081250295 -0.06498335 0.0112221 -0.0009984578 -0.4595015 -0.027181184 0.026781276 -0.29331058
0.07257887 -0.32244447 -0.17503238 -0.027292779 0.12222483 -0.13896362 -0.13463068 -0.08596154
-0.024965117 -0.06600705 -0.019976819 0.13568583 0.06097831 -0.26163134 -0.1365705 -0.3239139
-0.013414702 -0.51934004 0.09662863 -0.069649175 0.0027590655 -0.033344038 0.18517412 -0.032834183
-0.034741834 0.018353399 -0.46876305 -0.117110364 0.12162347 0.04271153 0.06339498 -0.052114002
-0.39852917 0.18306132 0.09803363 -0.045708466 -0.16716419 -0.32634476 0.0043598698 0.10814799
0.18238471 -0.19061922 -0.012995924 0.08329231 -0.121799834 0.046853155 -0.05509996 -0.45570776
-0.0028272977 -0.11248509 0.027980806 -0.17259926 0.004058497 -0.08087863 0.12187376 -0.10002258
-0.14402245 -0.14859436 -0.016936477 -0.054181736 0.24993826 0.09573284 0.010493363 -0.12449361
00000000: 8e0a 973d bdbe 173c 74e8 2b3d bfb4 d93b
00000010: a407 abbd 7b55 97ba 4f85 2c3c 60c4 6a3d
00000020: 2c99 fd3c 2e3f 7abd d98b c2bd effc b6bd
00000030: 7f01 073e 9d97 da3d b5d3 d73d 605a 003e
00000040: 10da 583d 6020 7bbb 0def a73d ee85 c639
00000050: 7585 3dbe a5ae a4bd 847b 4d3e 551f 9c3d
00000060: b975 1bbd 8b26 ecbe 6af0 bfbd a5c4 dfbe
00000070: 991c bf3e 24e4 49bb 4ae6 0f3d 8ed3 a63d
00000080: 7e9c a43d ca12 cb3b 2de4 3a3d fe48 bd3e
00000090: c9be 693c 3815 e1bc 3286 89bb 1b09 b83d
000000a0: 1172 0b3d a3d8 ce3c 8e21 56be 2e56 493d
000000b0: 6774 cabd ffd5 1ebe 6522 babe 14bf 403d
000000c0: cc93 bbbe 40ec 25be b7ad b8be 52b0 87bc
000000d0: 7e36 063e e0eb adbe ac13 7c3e 43f5 9dbd
000000e0: ea99 bfbd b3bd 243e f863 b43c 37e7 ad3d
000000f0: bf42 1c3c d337 963d 882a 053c 6e0a febd
00000100: 943b 9e3c 7c98 233d 1fa0 323d ebd4 84be
00000110: 77cd a7be 3f03 bf3e caaa 193d 8748 bdbc
00000120: 8de8 ae3d 3df4 50bc 0ce6 243e 8aaf 003e
00000130: c688 63bc a5cd 8fbe ab27 52be 4a6e 9cbe
00000140: c794 dcbb e684 713e 170f 28bc f9a2 9dbd
00000150: 5154 4abe 9f66 c33d cd4d 50bb 9780 8ebd
00000160: 2499 adbc fcbf eb3c 91dd cdbc 88d8 fcbe
00000170: 2da2 97be ec16 d4bd 3e06 0bbd 5d2f 973d
00000180: ae02 86be 364c fdbc 4636 04bd c976 27be
00000190: a3dc 0e3d cdd7 df3e 0284 15bf 4235 51be
000001a0: 77f8 233e 5845 0cbd b668 873a 86a6 513d
000001b0: f2cd 86bd 4b7b 55be bbbd c03c e824 4dbe
000001c0: d19b 6d3e 7bb6 c23d 8d6b 2b3e 8132 a83d
000001d0: 4817 92bd ea8f adbc d8db 7e3c e275 763d
000001e0: a5bd 53b9 0253 d13b cb9f 843d 3181 08be
000001f0: 81d2 78be 8440 8e3c f795 25be b038 60bd
00000200: 8e16 abbe a9e0 7abd 7ae4 7c3d 2d70 ddbe
00000210: 1aca f53a 450e a2bc 58e1 973d 0168 b4bd
00000220: 90b9 19be 6f18 ed3b 8382 13bc 8602 f23d
00000230: e8ab 86be 3a91 cabd bc81 a23b a2c5 40bd
00000240: 6129 bd3d 62f1 b2b9 f6ee c23c 8785 033d
00000250: 6d2a 12bf 436e 1cbd ef4b 16be d32a 99bc
00000260: b68a f9bd c780 36be 18c7 b7bc a02c b7bd
00000270: 0a96 7a3d 9cba ad3d 12a3 ffbc 9023 65be
00000280: 604e 923b 5d68 49be 0096 bfbc 3125 873c
00000290: de8b 283c 110c 183f 2046 5e3c eb84 efbb
000002a0: a8c3 a93d 673e 29be 2227 13be 2208 8c3d
000002b0: c953 ba3d 5047 5e3d b566 213d cb71 dcbc
000002c0: 677f d7be 48ec 273d c1c1 f33b 1a53 b9be
000002d0: 465c 663e 8e4e e53d 4483 0e3d 6094 eb3c
000002e0: 8e66 a6bd fe15 85bd e6dc 373c afde 82ba
000002f0: c843 ebbe 13ab debc 6864 db3c ce2c 96be
00000300: 3ba4 943d 7117 a5be b03b 33be 1b95 dfbc
00000310: 0351 fa3d 7b4c 0ebe a0dc 09be 9b0c b0bd
00000320: a583 ccbc b42e 87bd 6da6 a3bc 3af1 0a3e
00000330: 64c4 793d 8bf4 85be 23d9 0bbe 0bd8 a5be
00000340: 57c9 5bbc 78f3 04bf 3be5 c53d 3aa4 8ebd
00000350: 70d1 343b c293 08bd 499e 3d3e 237d 06bd
00000360: 744d 0ebd de59 963c b601 f0be 8fd7 efbd
00000370: ba15 f93d 49f2 2e3d 3ad5 813d 7e75 55bd
00000380: 040c ccbe 6d74 3b3e dbc5 c83d cd38 3bbd
00000390: 172d 2bbe a916 a7be 3ddd 8e3b b27c dd3d
000003a0: 0fc3 3a3e af31 43be dbec 54bc 2995 aa3d
000003b0: 3172 f9bd 18e9 3f3d 7fb0 61bd 8752 e9be
000003c0: 2f4a 39bb 955e e6bd 0138 e53c dcbd 30be
000003d0: 24fd 843b b2a3 a5bd f398 f93d a3d8 ccbd
000003e0: 9f7a 13be 1f29 18be 5ebe 8abc abed 5dbd
000003f0: d1ef 7f3e 940f c43d 5bec 2b3c 81f6 febd

fc3.bias f4 [2]
0.05216813 -0.012984238
00000000: 40ae 553d d7bb 54bc
