checkpoints/agent2_checkpoint_critic.pth (torch_old, 427014 bytes, 5 tensors)

fcs1.weight f4 [300, 52]
00000000: c3d8 153d 727d 153f a804 25bd 2e12 2d3e
00000010: 410f 743c 4943 463e 5537 853b a5da 6a3e
00000020: b3d4 aa3c 4e21 cd3e ed3c 5bbd 7903 e43d
00000030: db03 283e 6cd6 94bc fcf8 0d3d 4024 c43d
00000040: 9705 113e f86b af3e 5a77 b13c 848e 77be
00000050: 6892 583f 1a82 3ebf 7a87 41bd f81a 9cbe
00000060: 3133 1c3d b52d e03e f102 003d 2eab b6bc
00000070: 1fa0 0e3d 1db2 723e c585 e73c 00dc b6bd
00000080: c2dd ba3d b47f 3ebe 8a82 60bd 70b7 84bd
00000090: 9c36 1dbe 8899 9dbd 5345 62bc 05dd a1bd
000000a0: d639 013f 4b2f 16bf 8ec3 0f3d 70f0 783c
000000b0: 5294 4ebf 0406 36bf 836b 10bd f7b0 86bd
000000c0: 9151 013f a572 f53e 8dfc 833f 3b3a 523e
000000d0: c01f fe3e 5a3d 513f 1cf1 44be 01f4 93bd
000000e0: fdbe afbd d38b 39be 2827 2cbe 4999 29bd
000000f0: 67c9 163f 6182 453f 786f b8bc a761 07be
00000100: fbf1 efbd 7640 14bf 613d 20bc a7c6 14bd
00000110: 5f99 103f b300 513f 50d6 c9bd 5063 073f
00000120: f0d0 79be 2d1d adbf e47b 1cbd 9bea 023f
00000130: ce7b 6e3f ff99 963c 4f06 e43c 528f d7be
00000140: 244b b73d 05d2 59be b8f2 cd39 6332 b3be
00000150: c7a0 743f 8bc0 8dbe e244 59bd b630 08bf
00000160: be52 f83d 9678 1bbf f174 5fbd 22ea 1cbf
00000170: f27a 693f 1547 5c3c 2c86 69be 0ed9 053f
00000180: 4296 5b3e dace a8bf 0d6b ffbd 7355 123f
00000190: 7850 c8be 7dbc b0be 1666 f33f 78a7 9b3f
000001a0: 2c10 7a3e de16 903f 2924 0bb9 b682 643d
000001b0: 3ed4 f0be cc87 3ebf 5878 76bd 6440 a23d
000001c0: e544 de3e 5afb 753f ca62 1abe 0fcc f73b
000001d0: b229 96be b857 4cbf f575 f3bd 47f0 513b
000001e0: a751 1f3f c4bc 2f3f 10d7 9bbd a262 0ebf
000001f0: 3693 16be 050e 75bf 798a 38bc 8c68 0dbf
00000200: 8c85 813f ab10 22bf 49cc 8fbc 899e c6bd
00000210: 38fb c63e 61e1 34bf d358 06bc c890 31be
00000220: 73f5 293f 3f6f 42bf 7307 f53d 439a 45be
00000230: c013 a63e 0fd1 4ebf 43a2 123e 93f9 29be
00000240: 6b19 183f cd15 47bf edd3 c43d dee6 f8be
00000250: f550 123e 18e5 7bbf 515c d13d 5558 e0be
00000260: 0ec3 b9bf 456b d23b 5a3b 4c3f 66ee 0f40
00000270: 0f8c 2e3f 9b56 543f 8688 51bd 34b2 3d3e
00000280: 0bc7 8cbd e2ae a8be db3c 8fbd 981a d83d
00000290: f3d1 2b3f c190 4a3f 26f4 80bd 3843 2ebe
000002a0: 5812 b0bd e7c8 d8be 273c c8bc c734 ffbd
000002b0: 0bc9 173f 7967 393f 7a76 883d a6fb 4ebe
000002c0: 0e95 b2bd b136 5cbf c392 adbc 059d 0fbe
000002d0: 9460 0e3f 2d91 ba3e c9d8 8fbc aaca bbbd
000002e0: 2cd5 753d 3767 96be 5321 7bbc 5f1d b1bd
000002f0: dc2a 083f adde b03e 16bc 77bd 4ae6 8ebc
00000300: f254 da3d f4cc d7be 6646 a4bc 170c 2c3d
00000310: 55d2 123f 5764 b13e bc36 62bd ad39 333d
00000320: 748c 7e3d a8f4 64bf 0197 63bd 5977 f3bc
00000330: 011e b43e 033e a6bb 5407 f63d 2cbc 2ebf
00000340: 6aef aa3e 1579 bcbd 13f8 1c3d 6693 453e
00000350: 42ac c2be c193 953d 8d15 223d 3439 3d3e
00000360: 802c 003f 003a c1bd f884 833c 8a43 3dbe
00000370: 7a4d 9bbd 9ddb 96bf ee68 c03d 5d23 18be
00000380: b0ff d43e 3057 b43d 76fb 3ebe 070f 843e
00000390: 7814 e33e c35a ffbf eca1 e4bd 8c8d 833e
000003a0: e5c4 cf3e a2f1 14bf 84fb b1bd 45c0 053d
000003b0: a183 be3e 7ff7 533d 2a90 6bbd ddf9 123c
000003c0: 2588 ea3e 0750 24bf 28c6 ad3b 164b 23be
000003d0: 39f3 383d 6a58 9fbf e982 793d 98d8 5dbe
000003e0: 32e8 cd3e 2bf9 5fbf 6b06 64be 2a5d e1bd
000003f0: 33c0 d5be 0d6c febf ac42 38be 73b3 48be
0.036583673 0.5839454 -0.040287644 0.16901466 0.014896215 0.19361605 0.004065434 0.22934969
0.020853376 0.40064472 -0.0535249 0.11133475 0.1640772 -0.01816865 0.034661278 0.09577227
0.14162289 0.3426206 0.021663357 -0.24175459 0.845984 -0.7441727 -0.04724834 -0.30489326
0.038134757 0.43784872 0.031252805 -0.022298422 0.034820672 0.23700757 0.028262028 -0.089286804
0.09124328 -0.18603402 -0.05481199 -0.064803004 -0.15352863 -0.076952994 -0.0138104735 -0.07903484
0.50478876 -0.58665913 0.035098605 0.0151940435 -0.8069507 -0.7110293 -0.03525878 -0.06576722
0.50515085 0.4793903 1.0311447 0.20530026 0.49633598 0.8173424 -0.19232601 -0.072242744
-0.0858135 -0.18119745 -0.16811812 -0.04140595 0.58901066 0.7715207 -0.02251409 -0.13220845
-0.11716076 -0.5791086 -0.009780259 -0.036322262 0.56484026 0.8164169 -0.0985533 0.52885914
-0.2439611 -1.3524529 -0.03820409 0.5113923 0.9315766 0.018383978 0.02783504 -0.42101532
0.08949879 -0.21271522 0.00039281487 -0.3499938 0.95557827 -0.2768596 -0.053044207 -0.53199327
0.12125157 -0.60730875 -0.054554883 -0.6129476 0.91203225 0.013444682 -0.22805089 0.52284324
0.21444038 -1.3188126 -0.1247159 0.57161635 -0.39123893 -0.34518805 1.9015529 1.2160482
0.24420232 1.1256979 -0.00013269544 0.05578872 -0.47036928 -0.7442596 -0.060173362 0.07922438
0.43411937 0.9608666 -0.15076748 0.0075621675 -0.29328686 -0.7982135 -0.11887733 0.0032034086
0.62233967 0.6864741 -0.07609379 -0.5561925 -0.14704594 -0.9572452 -0.011263483 -0.5523765
1.011888 -0.63306683 -0.017553465 -0.09698207 0.3886354 -0.706564 -0.008199888 -0.17340386
0.6639015 -0.75951 0.119643115 -0.19297127 0.32436943 -0.8078775 0.1431971 -0.16599111
0.59413785 -0.7776764 0.09610734 -0.48613638 0.14288695 -0.98396444 0.10222686 -0.43817392
-1.4512651 0.006421479 0.79778063 2.2489257 0.6818246 0.8294465 -0.05115559 0.1852501
-0.06873902 -0.32945925 -0.06994029 0.10551947 0.6711723 0.79127127 -0.062965676 -0.1701783
-0.08597249 -0.42340776 -0.024442745 -0.12461238 0.5929114 0.7242351 0.066632226 -0.20213184
-0.08719836 -0.8602095 -0.021188146 -0.14024742 0.55616117 0.36438885 -0.017559426 -0.091695145
0.06001775 -0.29375622 -0.015327769 -0.0864818 0.531904 0.34544888 -0.060482107 -0.017443795
0.10660733 -0.42148554 -0.0200531 0.042003717 0.5735219 0.34646866 -0.05522798 0.043756176
0.062145665 -0.89435816 -0.05556393 -0.029719995 0.3517914 -0.0050733103 0.120131165 -0.6825588
0.33385783 -0.09202782 0.03832252 0.1929451 -0.38022047 0.073035724 0.039571334 0.18478853
0.500679 -0.09434891 0.016054615 -0.18482795 -0.07583137 -1.1785771 0.09395014 -0.1485724
0.41601324 0.08805692 -0.18650612 0.25792715 0.44351554 -1.9949573 -0.11163697 0.2569393
0.40579906 -0.581812 -0.08690551 0.032654066 0.372098 0.051749703 -0.057510532 0.008970705
0.45806995 -0.6418461 0.005303163 -0.15946612 0.04515383 -1.2448857 0.06091586 -0.21664655
0.40216213 -0.87489575 -0.22268073 -0.11004098 -0.417482 -1.9876724 -0.17994183 -0.19599704

fcs1.bias f4 [300]
00000000: f783 96bf d198 05bf d2dd 45bf ad57 18bf
00000010: 727a a4be ce5f 4c3f 547e 97be e76b c4be
00000020: e00d 40bf 48a2 07bf 321a 7bbf c24a 95bf
00000030: 248c 2dbf fad2 80bf b877 58bf e217 c23e
00000040: 0bff 44bf 6596 cbbf c8ab b13c 2804 79bf
00000050: 7b5d 8abf 59ca 20bf 9c1c 79bf 3e40 33be
00000060: 1157 3fbf 83c7 7bbf eccc 7fbf 9fbf 09bf
00000070: 1ab5 cfbe 7b2d 5ebf 0da3 16be d05c 27bf
00000080: 61d3 02bf 0a03 13bf f7a8 dbbf a48a 69bf
00000090: f9aa 30bf 9eef cbbf 55c8 52bf c8e9 3bbf
000000a0: b60d 33bf 8cb1 f7be 888d febe e3bb 89bf
000000b0: c73e 9abe 498e 4dbf e467 50bf 7a55 133e
000000c0: dc67 b7bf fe4f 33bf e719 85bf 7961 17bf
000000d0: 82d4 90bf 0490 4cbf ce59 4dbf 776d 3dbf
000000e0: 549c 10bf 4446 90be 12e7 8ebe 40cf 4bbf
000000f0: 1c11 08bf 7107 a8be 5fb7 51bf 2cb9 4fbf
00000100: fcfb 08bf 0f4c d93f a5b8 5cbf abe8 8dbf
00000110: d56c cd3e 9739 e3bf 0aec 823e 0cd7 6bbf
00000120: df36 33bf 0b60 05bf 6357 01bf dfc6 5cbf
00000130: 9742 2fbf 9167 4abf 4ada 04bf 2629 f2bf
00000140: 4b2e 2dbf a325 dabe 3d4c c0bf 658f aabf
00000150: 4fc9 10bf dd84 1840 5aef 93bf d6cc f1bf
00000160: 28b9 09bf 1763 4bbf 310d 44bf 70f7 2dbf
00000170: 76a1 26be b042 d0be 72ba 4bbf 23f4 16bf
00000180: 3281 743e 6607 70bf 2554 e8be 1940 05bf
00000190: db6d 24be 9dd5 08bf c33f 043e 418d ebbf
000001a0: 50d3 70bf 7143 bfbf 405e 26bf 6c8a 75bf
000001b0: 0cc7 25bf 8cb4 f9be 060d 2fbf f273 21c0
000001c0: 8279 8bbf 5250 23bf 5645 23bd 66af 573e
000001d0: 2fb4 dcbe 08e1 21bf c9a5 57bf 8b1b 86be
000001e0: 5ee5 43bf 5691 66bf 466a 20be 962a 0cbf
000001f0: f103 96bf 01b9 dabe 9111 33bf e565 0cbf
00000200: 8d17 0fbf 5a79 38bf 3b33 b6bf 81ba 8bbf
00000210: 8a83 8ebf cdae 91bf 2c91 9fbe ddfb 3fbe
00000220: f54f 1abf 5df3 34bf 4369 59bf 69eb 90be
00000230: 215c bbbf 6f33 31bf bc20 98bf f608 efbf
00000240: a11a 37bf 08d6 98bf c279 c3bf 33ce 24be
00000250: 8977 a2be 0bcd 02bf fc2d 13bd 8ebd a9be
00000260: 8f81 ddbe c5c6 15bf fd97 16bf be82 8bbf
00000270: 153f b5be 0a93 51bf 876c 95bf 94cc ecbe
00000280: a122 8b3d ceaa 48bf 0536 3dbf cd40 2abf
00000290: 22dc 3dbf 70f1 013f 3f4f 92bf 961a 83bf
000002a0: 17b9 70bf 60a1 19bf c6fd 65bf a505 44bf
000002b0: 0bfc a6be 3409 92bf c1ed 6e3f 738c a43a
000002c0: 16f6 bfbe 5126 3ebf 786b 7dbf d52b b9bf
000002d0: 1f15 dbbf bb30 36bf 9db8 67bf 78a1 2ebf
000002e0: a803 333e 4407 5cbf ff05 49be 2b9e 88bf
000002f0: a1d6 9dbf c015 84bf fb96 66bf fd06 d0be
00000300: e424 0abf 3fc9 1abf 48ea afbe cf13 1fbf
00000310: d517 49bf 9785 1abf 2a22 38bf daa0 3dbf
00000320: 7136 9cbf f76a 27bf e00f a7bf d68b 0dbf
00000330: f598 22be c6d5 ffbe dd4f fabf 247f b0bf
00000340: 22ec 503e b02d b2bf 5060 4cbe 3a04 40bf
00000350: 21a0 63bf 83d1 9ebf 9002 68bf c862 12bf
00000360: 8273 4c3f 4a12 06bf 7be2 01bf 3789 20bf
00000370: e0c9 57bf 8cdb 59be 57ce 7a3e fbbf 2ebf
00000380: 41a4 86be 94a0 b5bf 3a41 88bf 5321 b2bf
00000390: 15a3 aabf 6d81 acbf 9359 a4bf fef0 aabe
000003a0: 2595 98be bead aabf d14c 12bf 1dd3 08bf
000003b0: c00d 09bf 0b59 07bc 9b92 82bf 531d 00bf
000003c0: c9fe 1fbf 7075 10c0 8d10 47bf 4692 7abf
000003d0: 7c84 53be b3dc 48bf e0d6 4ebf 2d30 53bf
000003e0: eaf3 d9be 7be7 09bf 15c7 6dbf 66be 2bbf
000003f0: 7913 30bf cb04 69bf ecad 87be bc5f 143e
-1.1759022 -0.52186304 -0.77291596 -0.5950878 -0.32124668 0.79833686 -0.29588568 -0.38363573
-0.7502117 -0.52981997 -0.98086846 -1.1663439 -0.6779196 -1.0064385 -0.84557676 0.37908846
-0.76951665 -1.5905272 0.021688357 -0.97271967 -1.0809778 -0.6280876 -0.9730928 -0.17504975
-0.7474223 -0.98351306 -0.9992206 -0.53808016 -0.40567857 -0.8678815 -0.14710636 -0.65375996
-0.5110379 -0.5742651 -1.7160939 -0.91227174 -0.69010884 -1.59325 -0.8233693 -0.73403597
-0.69942796 -0.48377645 -0.49717355 -1.0760463 -0.3012602 -0.80295235 -0.81408525 0.14388075
-1.432857 -0.70043933 -1.039853 -0.59133106 -1.1314852 -0.7990725 -0.80215156 -0.73995155
-0.5648854 -0.28178608 -0.27910668 -0.79613113 -0.53151107 -0.32818177 -0.8192043 -0.81141925
-0.535095 1.6976336 -0.86219245 -1.108663 0.40122095 -1.775195 0.2557071 -0.9212501
-0.700056 -0.52099675 -0.50523967 -0.86240953 -0.68460983 -0.7906428 -0.5189558 -1.8918808
-0.6764876 -0.4260684 -1.5023266 -1.332501 -0.5655717 2.3831093 -1.1557419 -1.8890636
-0.5379815 -0.79448074 -0.7658263 -0.67955685 -0.1627253 -0.4067588 -0.7958137 -0.58966273
0.23877409 -0.9376129 -0.45376697 -0.5205093 -0.16057532 -0.5345095 0.12914948 -1.8402482
-0.9407244 -1.4942456 -0.64987564 -0.9591434 -0.64756846 -0.4877056 -0.6837925 -2.5227017
-1.0896456 -0.63794434 -0.039861046 0.21063003 -0.4310622 -0.63233995 -0.84237343 -0.2619289
-0.7652186 -0.90065515 -0.1566554 -0.5475248 -1.1719953 -0.42719272 -0.6994868 -0.5484298
-0.5589531 -0.7206017 -1.4234384 -1.0916291 -1.1133893 -1.138147 -0.31165445 -0.18748422
-0.60278255 -0.7068384 -0.8492624 -0.28304604 -1.463749 -0.69219106 -1.188499 -1.867461
-0.7152501 -1.1940317 -1.5271533 -0.16094284 -0.31731823 -0.5109412 -0.035932526 -0.3315243
-0.43262908 -0.58506423 -0.58825666 -1.0899274 -0.3539969 -0.8186499 -1.1673745 -0.4624983
0.06793714 -0.7838563 -0.7391055 -0.6650513 -0.7416402 0.5075903 -1.1430434 -1.0242488
-0.94032425 -0.60011864 -0.8984035 -0.7657111 -0.3261417 -1.1409059 0.93331534 0.0012554064
-0.37492436 -0.74277216 -0.9899211 -1.4466501 -1.7115821 -0.71168107 -0.9051607 -0.6821513
0.17481863 -0.85948586 -0.19631194 -1.0673269 -1.2331125 -1.0319138 -0.9007413 -0.40630332
-0.5396254 -0.6046333 -0.3435843 -0.621396 -0.7855199 -0.6036009 -0.7192713 -0.74073565
-1.2204114 -0.6539759 -1.305172 -0.552915 -0.15878661 -0.49967784 -1.9555622 -1.37888
0.20402578 -1.3920193 -0.19958615 -0.7500645 -0.8891621 -1.2407688 -0.9062891 -0.5718198
0.7986375 -0.52371657 -0.50736207 -0.62709373 -0.8429241 -0.21275157 0.24492775 -0.6826169
-0.2629719 -1.418963 -1.0644906 -1.391642 -1.3331019 -1.3476998 -1.2839836 -0.33386987
-0.29801288 -1.3334272 -0.5714846 -0.53447133 -0.53536606 -0.008260976 -1.020099 -0.50044745
-0.62498146 -2.2571678 -0.7775963 -0.97879446 -0.20656008 -0.7846176 -0.80796623 -0.82495385
-0.42568904 -0.53868836 -0.928819 -0.670874 -0.6877971 -0.9102294 -0.2649988 0.14489645

fc2.weight f4 [300, 300]
00000000: 0590 c1bd 4b7b 6bbd a0f7 f13b eeb0 403d
00000010: 7fd1 b23a 3eaf 08bd 186e 4c3c b22b 4bbd
00000020: 39f1 6dbc 0b87 98bd a7e1 19bc 0ed5 41bd
00000030: f28e d4bc bdf9 ca3c 5441 16bc 75f6 1fbd
00000040: fa99 923a 8824 023c 6a89 8cbd b671 56bc
00000050: 88c8 94bc fb1b 643c c84f 323c d802 4fbd
00000060: b10d 67bc 1a3a 823c 146b 593d fdcd 88bc
00000070: c560 56bd 043f 823c ca1d 99bd 99a5 82bd
00000080: 7433 71bd 2640 c2bc d470 91bd e93d 0dbc
00000090: ba19 1c3d 70ba 40bd 72ab 0dbd ae0c 39bd
000000a0: 611d 3f3c 9e5d 95bc 98ae b13a 4295 8cbc
000000b0: 626a fcbc 90ca 213d 1659 18bd 59ca 053d
000000c0: 4947 d1bc fae9 b83c 55ab 42bd f895 69bd
000000d0: 61dc 78bd 3c87 48bd 5848 c1bc 0e46 643d
000000e0: a1c8 d83b db2b 07bd 56cc a2bb ede0 3abd
000000f0: 2920 843c 0c1f f0ba 69c8 103c fead 97bb
00000100: 8fd9 6abd b250 85bd 834e 24bd deed 01bd
00000110: 2366 e5bd 0422 b93c 7d60 77bd d685 34bd
00000120: 44f2 f53b 4972 25bd a6f5 91bd abf3 20bc
00000130: 85d9 d6bc 565c 313b 7e87 e03a 108a c93c
00000140: 51c7 fdbc c4fd 14bc 7f2a b2bc 004b 553d
00000150: 9d9b 1c3c 8dde 1bbe 3054 8c3b 12d5 36bd
00000160: ec41 0dbd 92bb 7a3c ecb4 503d adf3 38bd
00000170: ccbb b1bd def5 1c3d 4522 37bd e17f 28bd
00000180: 7286 6dbd a0a9 d6ba 57d2 173d 8008 7dbb
00000190: 84c5 64bd 1271 f33c 5a4f 2cbd 03a5 6ebd
000001a0: 2195 1cbe ce4b 073b 10fb 6dbc d479 99bc
000001b0: 14e4 073d 719e 76bc 594c 37bd 2165 13bd
000001c0: 08dc 983c a6b0 0ebd 7dfa 32ba 9a19 4a3d
000001d0: 902a ce3b 8b42 ca3c e0b9 54bc 053c 203d
000001e0: 9896 5abd cf33 dd3b 6044 4f3c dffe c43c
000001f0: 6c30 54bd e05b 30bc 1dac 673a 46e8 33bd
00000200: 146d 7e3b 3386 293c eec3 16bd b61a 99bb
00000210: 7a34 1cbd fa9a 453c 23e5 5dbd 620e 5abc
00000220: 5c1f 943c e046 86bc 5083 20bd a06c 78bb
00000230: 7316 98bd 9aca c2bc 9bef 10bd 34fa b5bc
00000240: e24d d03c 352d 8abc dc53 88bc ae63 63bd
00000250: e51c 2bbd 11fd 5fbd 4c29 6ebb 2b25 c2bc
00000260: d42d f13c 78d7 febb 0c97 2dbd 53a3 32bd
00000270: ba73 07bd 81db 813b a242 38bc 380a 77bd
00000280: 0fb7 6bbd 5600 223d c43d fbbc eabe 30bd
00000290: 1080 863b ae27 40bd 436d ebbb 87e4 8bbd
000002a0: 68e9 8dbc a6a9 253d eec2 3bbd f32b e1bc
000002b0: dd46 39bd 3620 35bd 7933 38bc 3413 103c
000002c0: ffec 83bd 178a 0cbd 06c5 cbbc 750b 1abd
000002d0: 05d0 2d3b 426a 63bd 0f16 37bd 7eb0 34bd
000002e0: dc2f 2dbd 37d4 18bd 11c8 44bd e407 85bc
000002f0: bc46 66bd 66a8 133d bad2 40bd 84e8 56bd
00000300: 58ed 0e3c 2a4e 2abd 293a a3bd eee3 52bd
00000310: 32eb fa3c b01c 7ebd 1125 a1bc b1da 6e3b
00000320: cb3c bbbc 427e 32bd 0626 22bd bd82 80bd
00000330: 2f5f 42bd 2cc2 42bd 94d3 4e3d 763e 00be
00000340: 8999 ffbc 833e acbc d94d 30bd fa38 edbc
00000350: 2a11 08bd fe42 3cbd a379 7cbd f94c 32bd
00000360: 5d25 3cbd 20e7 da3b 7556 a9bd 7d80 d43c
00000370: 9125 39bd d26a ffbc cba2 d93c 18d7 1cbc
00000380: 28ab 563c c571 65bd 3837 053d 5ed9 70bd
00000390: 7917 38bd a2e6 2bbd 40f9 cb3c 32fe 513d
000003a0: 816e a0bd 309c 85bd 7884 663c 8ee8 a4bd
000003b0: d411 c6bc 28a8 00bd c0a7 4ebd edda 88bc
000003c0: caaa 49bd 282a 5fbd 8a47 28bd a132 04bd
000003d0: 5e3b 01bd 951a 22bd adaf acbd 2d56 b3bc
000003e0: a97c edbc bb42 b6bd e174 93bc 7b5e 54bc
000003f0: 2e3d fe3c c432 12bc 31e4 b0bd c7c9 663b
-0.09451298 -0.05749063 0.0073842555 0.047043733 0.0013642757 -0.03337025 0.01247742 -0.049602218
-0.014522844 -0.074476324 -0.009392179 -0.047322325 -0.025947068 0.024777288 -0.009170849 -0.0390534
0.0011184805 0.00794328 -0.06862147 -0.013088634 -0.018162027 0.013922687 0.010883279 -0.05053982
-0.014102385 0.015896846 0.053080633 -0.016699785 -0.05233838 0.015899189 -0.07476385 -0.063792415
-0.05888696 -0.023712229 -0.071015984 -0.008620718 0.038110472 -0.0470528 -0.03458733 -0.045178108
0.011664719 -0.018233117 0.0013556061 -0.017161015 -0.030812446 0.03949982 -0.037194334 0.032663677
-0.025546687 0.022572506 -0.047526676 -0.057027787 -0.060757045 -0.048957095 -0.023594067 0.05573087
0.0066157137 -0.03300081 -0.0049682064 -0.045624662 0.016128616 -0.00183198 0.008836844 -0.004628896
-0.057336386 -0.06509532 -0.040113937 -0.03172099 -0.11201122 0.022599228 -0.060394753 -0.04407295
0.007505687 -0.040392194 -0.07126932 -0.00982372 -0.026226768 0.0027063093 0.0017130224 0.024601966
-0.03097883 -0.009093706 -0.02174878 0.05207348 0.0095585855 -0.15221615 0.004282497 -0.044636793
-0.034486696 0.015303509 0.05095379 -0.045154262 -0.086783975 0.038320415 -0.044710416 -0.04113758
-0.057989545 -0.0016377456 0.03706583 -0.0038609803 -0.055852428 0.029717002 -0.042067863 -0.058262836
-0.15291263 0.0020644548 -0.01452519 -0.01873485 0.033176497 -0.015052424 -0.044750545 -0.035985116
0.018659607 -0.034836434 -0.0006827487 0.04934082 0.006291695 0.024689933 -0.012983769 0.03911974
-0.053366274 0.006750561 0.012650579 0.024047313 -0.05180399 -0.010764092 0.00088375976 -0.043922685
0.003882234 0.010346937 -0.036807947 -0.0046723736 -0.038135983 0.012060875 -0.0541736 -0.013309093
0.01808136 -0.016391218 -0.03918773 -0.0037906542 -0.07426157 -0.023778249 -0.035384756 -0.022214033
0.025427762 -0.01686726 -0.01664155 -0.055514984 -0.041775603 -0.054684702 -0.0036340533 -0.023699364
0.029440798 -0.0077771507 -0.042380378 -0.04361279 -0.03306935 0.0039629345 -0.011246355 -0.06031248
-0.057547625 0.0395511 -0.0306691 -0.04315082 0.0041046217 -0.04691284 -0.007184656 -0.068306975
-0.01732321 0.040444992 -0.045840196 -0.027486777 -0.045233596 -0.044220172 -0.011242741 0.008793641
-0.06441688 -0.03431138 -0.024874222 -0.037608583 0.0026521694 -0.055521257 -0.04469877 -0.04411363
-0.04228197 -0.03731176 -0.04804236 -0.016239114 -0.0562198 0.03604927 -0.047075965 -0.052467838
0.008723579 -0.04157845 -0.079700775 -0.051486902 0.030629728 -0.062039077 -0.019670995 0.0036446268
-0.022856137 -0.04357744 -0.039587043 -0.06274936 -0.047454055 -0.047548458 0.050494745 -0.12523827
-0.031201141 -0.021025902 -0.04304299 -0.028957833 -0.033219494 -0.045962326 -0.06163944 -0.043530438
-0.04593407 0.0066803843 -0.082684435 0.025940174 -0.04520184 -0.031178866 0.026566884 -0.009572767
0.01310233 -0.056016702 0.032523364 -0.058801048 -0.04494426 -0.041967995 0.024899125 0.05126781
-0.07833577 -0.06523931 0.014069669 -0.08052169 -0.024178423 -0.031410366 -0.050452948 -0.016705954
-0.049235143 -0.054483563 -0.04108385 -0.032274846 -0.031550758 -0.03957613 -0.08431945 -0.021891678
-0.028990107 -0.088994466 -0.018000068 -0.012961979 0.031035032 -0.008923236 -0.08637274 0.0035215484

fc2.bias f4 [300]
00000000: 0741 39be 078f 03be 0874 30be 09e5 f3bd
00000010: 3850 ffbd 983e f0bd 8e37 d4bd b5b0 39be
00000020: cdcf 85bd 304e b5bd a885 a2bd e510 11be
00000030: 9bf0 89bc 46a6 4ebe 00d0 1dbe e88c 1bbe
00000040: cf67 04be 4bda 06be c6be 1bbd 84bf f03d
00000050: 9729 a7bd 0cb4 2fbe 3f3f 93bd 2d67 47be
00000060: 73e4 bb3e 7a73 c4bd 451f c2bd b1b6 12be
00000070: 1d58 36be 3d80 33be 2a8c 9bbd 65a1 f4bd
00000080: 7d7b 06be f7c6 fabd 7ba6 01be bfea ebbd
00000090: 184f fabd 5706 5dbd 4321 283f 9027 10be
000000a0: 0c3c 1bbe dd45 23be 8d07 14be ed20 01be
000000b0: a252 fcbd 782c be3e e1e1 983d ff4d 0ebe
000000c0: cbed 05be 5833 4dbe 2d83 b23d 840a f7bd
000000d0: d5fc 9dbd 90bc 08be 38c1 28be a1b1 19be
000000e0: 79c7 20be 126a 0cbe bf05 41be 50b5 b4bd
000000f0: 093b 3cbe 4a93 f5bd af59 2fbe 347b 89bd
00000100: 35cd 93bd ab04 bbbd 0e41 1ebe f87a d0bd
00000110: efbf 36be 0bcf 053f 0be3 35be 54bf f0bd
00000120: 2c68 37be 40bc 48bf ca2a ccbd b1bd 3dbd
00000130: f2e7 2bbe 6f11 41be 7396 38be ea5d ebbd
00000140: cac2 e0bd 6ab4 02be 305b fcbd b40b cc3e
00000150: 6c5b 1bbe d2bd dabd 1306 29be baef bdbd
00000160: 840a b4bd 87c6 8fbe 7afd febd fd40 2bbe
00000170: 584f cd3e 5ec5 5fbd 3b4e 85bd 4a0e ddbd
00000180: 0cd6 efbd e41f 84be 1692 39be f413 31be
00000190: c2c0 a5bd 1ca7 dcbd 06e8 b2bd effb 69bd
000001a0: 9302 14be 24f9 16be 3a13 ffbd 12aa 38be
000001b0: 1ab8 42be 5f77 ccbd ae86 aabd f463 39be
000001c0: 7686 84bd 6235 64be a8e9 06bd 56b1 efbd
000001d0: e669 7fbe 332e 53bd 19ea 0cbe a843 3abe
000001e0: 6293 72be fb13 2bbe 8b00 19be 926f 3dbe
000001f0: c743 d2bd 9f57 19be 0206 d8bd 4eec b9bd
00000200: e423 11be 86fc 09be 2abe eb3d 7e49 2dbd
00000210: 52dc ecbd 79fa 05be 4d9e fbbd 0f91 1fbe
00000220: e2b8 04be 1a2f 2dbe 5041 83be 90f2 33be
00000230: 4d62 5abe 0bac 12be 0893 09be b28f c5bd
00000240: 58e7 72bd d712 37be 7d14 60be 6481 38be
00000250: 7cc0 6bbd 3e2f 78bd 6daa afbd b933 17be
00000260: 98ec 14be 8f8d cbbd 8839 81be 27a4 2cbe
00000270: 6bb6 e0bd 2df3 29be a26f 13be 59b7 74be
00000280: 0bd4 2f3f 7d09 3bbe d265 dabd 0182 9e3f
00000290: cb0a 1bbe fd80 1bbe 2799 c0bd 60bd 16be
000002a0: 1c92 32be 345e d8bd 165e 1dbe be04 0dbe
000002b0: 14a0 41be 9e76 10be 01f7 28be fa68 0ebe
000002c0: 1a79 9cbd c553 3bbe b9f7 08be d07f 50be
000002d0: 86e1 5ebe 6f17 0ebe d9e6 d3be 8225 a2bd
000002e0: 0092 a33c 9f78 10be 640a 1ebe 4cb8 37be
000002f0: 8bee 74be de28 33be 1456 b6bd 89f2 35be
00000300: ce94 cbbd be59 6abd 1667 6bbe 0a5c 04be
00000310: bcac e1bd eac2 31bd c6b3 a8bd cb49 a7bd
00000320: b94e 44bd d76f efbd 0886 3fbe ebd1 3d3f
00000330: 7780 e9bd 4031 8fbd 5b0d 2dbe 6bac d9bd
00000340: 02c3 613e a63a e2bd 7058 c9bd e895 bbbd
00000350: b363 18be 9493 1cbe e4ff 05be 7f44 05be
00000360: 3982 edbd 2783 19be 13ea 0abe 75e3 15be
00000370: 20f7 28be 1dbe fbbd c25c 22be 09a7 04be
00000380: c101 49be c97a 2fbe 336e 7dbe f6d8 01be
00000390: 9c8d 88bd 3c47 02be 7b43 21be a678 2dbe
000003a0: 47b5 9bbd 5e20 bdbd e866 27be ea2f 9abd
000003b0: 88be 01be a405 cebd 4887 e7bd ab00 00be
000003c0: da86 23be 76d7 24be 22ab d7bd c64f 0bbe
000003d0: e0e1 c5bd c9f9 d1bd 4443 97bd 16ba 4fbe
000003e0: ed62 fbbd 0e9f 8cbe 555a 31be 18be 4bbe
000003f0: 2e4e 7ebc e345 26be d0aa afbd 8382 45be
-0.18091212 -0.1284753 -0.17231762 -0.11908919 -0.124664724 -0.11730689 -0.10362159 -0.18133815
-0.065337755 -0.08852804 -0.07935649 -0.14166601 -0.016838362 -0.20180616 -0.15411377 -0.1519047
-0.12930225 -0.1316921 -0.038023733 0.11755279 -0.081622295 -0.17158526 -0.071897976 -0.19472952
0.3669773 -0.09592338 -0.094786204 -0.14327504 -0.1780705 -0.17529388 -0.075950935 -0.11944846
-0.13133045 -0.12244981 -0.12661164 -0.11519384 -0.12222117 -0.053961124 0.65675753 -0.14077592
-0.15159625 -0.1594462 -0.14456005 -0.12610216 -0.123204485 0.37143302 0.07464958 -0.1389694
-0.13078992 -0.20039117 0.08716426 -0.120625526 -0.077142395 -0.13353181 -0.16479957 -0.15009166
-0.15701093 -0.13712338 -0.18849848 -0.08823645 -0.18381895 -0.11990984 -0.17124055 -0.06712952
-0.072168745 -0.0913175 -0.15454504 -0.101797044 -0.17846654 0.5226905 -0.17762391 -0.11755243
-0.17910832 -0.78412247 -0.09969099 -0.046323482 -0.16787699 -0.18854307 -0.18026142 -0.11492522
-0.10974653 -0.12764135 -0.1232208 0.3985268 -0.15171593 -0.106807366 -0.16506223 -0.0927424
-0.08791068 -0.28081152 -0.124506906 -0.1672401 0.40099597 -0.054631583 -0.06509062 -0.10793741
-0.11710748 -0.2580558 -0.18122134 -0.17292768 -0.08093406 -0.10774061 -0.08735661 -0.05712503
-0.14454107 -0.14743477 -0.12454839 -0.18033627 -0.19015542 -0.09983706 -0.08326469 -0.18104535
-0.06470959 -0.22285989 -0.032937676 -0.11703746 -0.24942741 -0.05155773 -0.13761176 -0.18189871
-0.23689035 -0.1670684 -0.14941613 -0.18499592 -0.10266834 -0.14974831 -0.10548021 -0.09078275
-0.14173847 -0.13475236 0.1151088 -0.042306416 -0.1156546 -0.13083829 -0.12286053 -0.15582679
-0.12961152 -0.16912499 -0.25635767 -0.17572999 -0.21326561 -0.14323442 -0.13434994 -0.09646548
-0.059302658 -0.1787828 -0.21882816 -0.18018109 -0.057556614 -0.06059193 -0.08577428 -0.14765824
-0.14543378 -0.099391095 -0.25239205 -0.16859494 -0.109722935 -0.1659667 -0.14398053 -0.23898067
0.68682927 -0.18265338 -0.10663952 1.2383424 -0.15140836 -0.15185924 -0.094042115 -0.14720678
-0.17438549 -0.10564843 -0.15367922 -0.1377134 -0.18908721 -0.14107749 -0.16500475 -0.13907233
-0.07640286 -0.18293674 -0.13375749 -0.20361257 -0.21765718 -0.13876127 -0.4138706 -0.0791731
0.01996708 -0.14108513 -0.15433651 -0.17941397 -0.23919122 -0.17496058 -0.08903137 -0.17768301
-0.099404916 -0.05721449 -0.22988543 -0.12925735 -0.110192746 -0.043398775 -0.08237414 -0.08168372
-0.04792664 -0.11691254 -0.18703473 0.74148434 -0.11401456 -0.069918156 -0.16899626 -0.10628589
0.22047046 -0.110463426 -0.09831321 -0.09159452 -0.14881782 -0.15290672 -0.13085896 -0.1301441
-0.115971036 -0.14991437 -0.13565855 -0.14637549 -0.1650052 -0.122921206 -0.15855697 -0.12954344
-0.19629575 -0.17136683 -0.24749069 -0.1268042 -0.06667635 -0.12722486 -0.15748398 -0.16940555
-0.07602935 -0.09234689 -0.1634785 -0.0752867 -0.12670338 -0.100596696 -0.113051 -0.12500255
-0.1596941 -0.16097817 -0.10530688 -0.1360465 -0.09662223 -0.10252721 -0.07385877 -0.2028583
-0.12274728 -0.274651 -0.17319615 -0.19896734 -0.015521569 -0.16237597 -0.08577502 -0.19288068

fc3.weight f4 [1, 300]
00000000: 6cc9 813c c79c 99bc 1099 ac3b fdc9 a13c
00000010: ea6f 2139 730d 1bbc 5036 3fbc 9532 abba
00000020: 2b06 063b c1d2 f43b 61a5 2e3c 7108 f9bb
00000030: 29f8 373d e4c5 483c 358c d83c eaf7 92bc
00000040: 5c2a f6bc 8084 b2bc 6523 e9bc 4c11 6ebd
00000050: 73e5 a5bc 3063 f1bb 90ae 0c3c a6d2 973c
00000060: 3b41 84bc b2c5 643c c09e 64bc 24d0 8a3c
00000070: d859 c23b f877 5b3b 2063 763c f87c 89bc
00000080: 1432 d5bb 66c5 98bc 82b7 a6bb 1977 803c
00000090: d77d c1bc 0070 33bb 8ce7 38bc fd0b e03b
000000a0: a5bc e43c c664 6d3b 05f2 66bb 4d03 4e3b
000000b0: 7e1a 47bc 5e9c e73b eee3 283c ff3f b6bc
000000c0: 0bcc e83a 59a5 293c c5bc b1bc be02 0a3c
000000d0: c1e5 aa3c aebc d73b 42d1 84b9 0c35 bc3c
000000e0: 64df 36bc 34a4 9eb8 d7a3 1dbc 1c08 7938
000000f0: ee3a 1fbb ff55 e93b 77c9 123c ab1f dcbb
00000100: b272 a9ba 499b 1dbc ff10 713c c3f3 8dbb
00000110: b53f 1a3c dca5 2fbc cfba f93a 6c38 973c
00000120: 9cde 773c 3106 45bc 49ea 3f3c d1d6 be3c
00000130: 3dd4 c73b 72d2 cabc 021d cdbc 99e0 57bc
00000140: d6cd 2dbb a0da 3b3c 6809 78bb e663 2bbc
00000150: 1ffc 1b3c 6150 883b d530 283c 73c1 873c
00000160: 86ca adba b159 a4bb 8665 47bc 1fa1 383c
00000170: 67ec e23c 9248 903b a3a3 fbbc 783e a3bc
00000180: cb40 b13a bec1 04bd 0ae1 a93c 27fe b9b9
00000190: 7b80 b0bc 6d3b 47bc a3b0 b63a fe9f c03c
000001a0: 96bb a3ba b190 fe3c c6d1 dc3c 2830 54bc
000001b0: a1a0 9c3b 4900 5d3a 6733 2e3c ba79 0ebb
000001c0: 30cf 78bc 5f01 de3b 7289 dd3b 513b e7ba
000001d0: fae6 85bc 2b54 adbc 411d 9cba 5826 92bb
000001e0: 15d9 d6bb 6479 35ba 7ada 933b 72fb fe3a
000001f0: e324 853c d730 b9ba b0ba dabc e434 1d3c
00000200: ece4 71b9 b92f babc 8b6f 61bc 704c f73c
00000210: f2f9 e23c b58e 4dbc 7127 0d3d 9b41 89bc
00000220: d4f6 85bc 87c6 9dbc 7cba c33c 9917 ed3b
00000230: 7685 053d 5689 d9bb 2b64 963b d942 1c3c
00000240: 093c a03c 7dc3 1e3c 798f a9bc 648b 633c
00000250: fb0b 9b3a 1855 333c d9b7 343b edda 643b
00000260: 0fab e6bb b3c4 8f3c c1a2 fbbc 69c6 b83c
00000270: d747 173c 3c9b 643c e466 96bc 064f 3d3c
00000280: 0601 6b3c fbd5 a73c 151b 0b3c b160 c93c
00000290: 5f83 8d3b 579f 8e3b 0eda 52bc 9f7e c63c
000002a0: bcea b4bc 873a 633c 2c62 34bc e1c0 433a
000002b0: ed11 7abc 92c6 16bc 8e22 113a 6520 60bc
000002c0: 03e4 bcba 6053 15bc 0d66 dd3c 4b1e 5f3c
000002d0: 2ee9 663c e38c 76bb 7829 edbb f213 bfbb
000002e0: cd5d 6ebc 19a7 143c cbb5 403c e1af 163c
000002f0: 6e38 ce3b 2ea3 88bc fcb8 2c3c d1d3 b23a
00000300: 3470 65bc 6273 f23c 9cfe d1b8 1d14 a43b
00000310: a751 d63c ad1b 8bbc 6a7c aa3b 2a75 f03c
00000320: 5766 dc3c 1115 15bc e1ec 873c 82e5 783c
00000330: f580 a43b 4ac3 5b3c 2154 d3bb 4d55 d63c
00000340: ab5b 1dbe bebd b0bb 618e 8f3c 0c3a 923c
00000350: 6280 ecbb 7fb7 acbc 138b 5e3c 107f 74ba
00000360: fd89 bbbc e655 423c fe61 0abc eea2 cd38
00000370: 7212 6fbc 0534 efbb 8805 a5bc 27a2 8ebc
00000380: db5a ad3c aa4b 223b 1f65 afbb 278b c33c
00000390: 4e12 9f3c a1e8 9bbc 2de0 ab3c 9c7c 8d3b
000003a0: d3c5 bdbb a24e 473c b5c4 34bc 886d 663b
000003b0: 9d1b b63a 2607 3bbb d210 4cbb 76cb 493c
000003c0: 476d 4abb 4f96 fabb 1074 4b3c 75ee 6ebb
000003d0: 26c2 81bb c93b 4d3c 6df6 d33c 83ad 83bb
000003e0: e423 80bc ced9 5fbb c70e 923c 7bce 98bb
000003f0: 3e7c 723b 4916 97ba 08b4 b13c 11ce 8fbc
0.015843116 -0.018751515 0.00526727 0.019749636 0.00015395848 -0.009463656 -0.011670664 -0.0013061339
0.0020450454 0.007471413 0.010659547 -0.0075998832 0.0449144 0.012254212 0.026434043 -0.01794048
-0.030049495 -0.021791697 -0.02845926 -0.058121964 -0.020251011 -0.0073665604 0.008586541 0.018533062
-0.016144386 0.01396315 -0.013953865 0.016944952 0.0059311204 0.0033488255 0.015038282 -0.016783223
-0.006506214 -0.018648814 -0.005087794 0.01568179 -0.023619575 -0.002737999 -0.011285674 0.0068373666
0.027921984 0.0036223396 -0.003523947 0.0031435073 -0.012152312 0.007068201 0.010308249 -0.022247313
0.0017761005 0.010354363 -0.021696458 0.008423505 0.020861508 0.0065837717 -0.0002533291 0.022974513
-0.011161659 -7.564612e-05 -0.009621582 5.937378e-05 -0.00242966 0.0071208472 0.008959166 -0.0067176423
-0.0012927859 -0.009619542 0.014713525 -0.004332037 0.009414603 -0.010720696 0.0019052866 0.018459521
0.015128758 -0.012025402 0.011713573 0.023295792 0.006098299 -0.024758551 -0.025038246 -0.013176107
-0.0026520393 0.0114656985 -0.0037847403 -0.010460829 0.00952056 0.0041599725 0.010265549 0.016571736
-0.0013259209 -0.005015575 -0.012170201 0.011268883 0.027700616 0.0044031823 -0.030717677 -0.019927248
0.0013523338 -0.03241133 0.02073719 -0.00035475308 -0.02154564 -0.012160164 0.001393814 0.02351379
-0.0012491818 0.031074854 0.026955497 -0.0129509345 0.0047798906 0.00084305234 0.010632372 -0.0021740035
-0.015186116 0.006775066 0.0067607695 -0.0017641579 -0.01634549 -0.021158298 -0.0011910574 -0.0044601373
-0.00655664 -0.00069226907 0.0045121284 0.0019453599 0.01625294 -0.0014128935 -0.026700348 0.00959513
-0.00023068831 -0.022727834 -0.013759504 0.030187815 0.027707074 -0.012546231 0.034461442 -0.016754916
-0.016353048 -0.019259704 0.023892634 0.007235479 0.03259798 -0.006638686 0.0045895777 0.009537422
0.019559877 0.009690163 -0.020698296 0.013888214 0.0011829132 0.010945581 0.0027575402 0.003492053
-0.0070394347 0.017549848 -0.030717256 0.022555547 0.009233437 0.013953026 -0.018359609 0.011554485
0.014343506 0.020487776 0.008490344 0.024582239 0.004318639 0.004352491 -0.012869371 0.0242303
-0.022084586 0.0138689345 -0.011009734 0.0007467401 -0.015263063 -0.009202616 0.000553646 -0.013679598
-0.0014411215 -0.009114116 0.0270262 0.013618062 0.01409368 -0.0037620596 -0.0072376095 -0.005831235
-0.014548731 0.009073042 0.011762093 0.009197206 0.006293348 -0.016679373 0.010542151 0.0013643448
-0.014003802 0.029596034 -0.00010013321 0.0050072805 0.026161982 -0.01698097 0.0052028196 0.029352743
0.026904268 -0.009099261 0.016592445 0.015191438 0.0050202557 0.01341326 -0.006449238 0.026163721
-0.15367 -0.005393713 0.017523946 0.017849945 -0.007217453 -0.021083592 0.013582963 -0.0009326795
-0.022892946 0.0118613 -0.008446215 9.80551e-05 -0.0145918 -0.0072999024 -0.020144239 -0.017411305
0.021161487 0.0024764338 -0.0053526307 0.023870064 0.019417908 -0.019031825 0.020980919 0.004317833
-0.0057914048 0.012164744 -0.011033227 0.00351605 0.0013893727 -0.0028538196 -0.0031137955 0.012316575
-0.0030887888 -0.0076473127 0.012417808 -0.003645805 -0.003959912 0.012526461 0.02587434 -0.004018487
-0.015642114 -0.0034156921 0.017829312 -0.0046632863 0.0037000324 -0.0011527027 0.02169229 -0.017554315
