checkpoints/checkpoint_actor_agent_1.pth (torch_old, 296363 bytes, 10 tensors)

fc1.weight f4 [256, 24]
00000000: 8c09 44bd 0fc9 babc 00f7 a73b 1246 f83c
00000010: f3a8 173c fcf4 13bd 4703 2a3d a836 4cbb
00000020: 38a9 bcbc 4b0a 10bd baf4 8d3a ce12 f9ba
00000030: 3e43 263d 8a82 84bc 1451 1e3c 1e3b aa3c
00000040: fc0f 50bd f44d 51bd 9fa1 d4bc 9d01 b6bb
00000050: b5a5 c53d 7ad6 843d c8ff c23c e084 1fbb
00000060: db9b 6a3c b99d 0b3c 0b31 173d 71e3 2cbc
00000070: 35b9 8b3c ddcf e7bc 672c 4cbd 46ec 943d
00000080: c801 f73a e677 6f3d de60 b1bc 71e0 3fbc
00000090: 86c6 c63c a363 84bb af95 c7bc 1b85 253d
000000a0: 9f6c 4fbd 0662 a53d d503 183d 3480 983d
000000b0: 56b6 463d 066f eebd 6e7f 833d 64fd 823d
000000c0: 1459 8dba a23d 643d 3c23 2fbd a369 693d
000000d0: 73b7 023d 08a1 74bc c73c 023a d7f4 aebb
000000e0: 5d8d 2a3d 7bb1 223d cd0d a0bc e69c 81bd
000000f0: ed59 2a3d c8a9 243d 8c19 63bd 08fe 97bd
00000100: 4a23 bdbc 76f3 3cbd cddd 54bd 39f6 85bd
00000110: b101 aabc fe43 983d 0154 9b39 b4aa f3bc
00000120: 3b0b e13b 578e 6cbc 3b59 293c e3b7 54bd
00000130: 7b04 853d 63f4 503d 7cae 3f3c f7e6 113d
00000140: 7a09 b83b 9323 6abc 8d9e 6d3d 8231 33bd
00000150: 2f8c 5dbd 458c 14bd 0342 debb 2871 f13c
00000160: df14 923d 312f 4e3d bce2 7e3c 2eb6 f43d
00000170: 0294 c1bc 582f c43d 7eec f6bc f6ae af3d
00000180: a737 6fba 3cc2 85bd 50b1 83bc a3e7 6bbc
00000190: a397 a43d 42a2 bc3d 6413 bd3c 3c00 18bd
000001a0: cda3 b03d 56f5 a2bd 8208 db3c 61df 003d
000001b0: 6fac ae3b d18c b63d 4e0f efbc 3fb3 db3b
000001c0: 7597 963d 7bec ad3b 60e0 423c 2628 28bd
000001d0: 037a 9a3d 5ce2 953d cf1c 6dbb 82f6 7abd
000001e0: 18c7 82bd efa9 62ba 7573 35bd 99d9 4b3b
000001f0: c8b0 a2bd ef6e 783d 9fc2 953c dc4f 113d
00000200: 15ff 17bd fa9f 7d3d eb84 c6bb d104 873d
00000210: 8e5c 8c3d f9c2 4a3c 26c1 e4ba dee4 163c
00000220: b47f bdbc ee7a b13d 02fe cbba 281c 963d
00000230: c238 943d d3e9 8d3c 17b4 94bd 337b 793b
00000240: 958c 063d 5dd7 b6bd 1383 21bd 2c47 5d3d
00000250: 5e8d 2fbd cd51 dd3b ea88 b13c 4ec0 123d
00000260: 0d5c 0c3c 1e08 adbd 856d ea3a 32cb 763c
00000270: 5320 c0bc bae3 2dbc 59e9 eabb c051 d6bc
00000280: 5dfe a73d ea51 dfbb db02 403d a02b f7bc
00000290: 0a0b 93bd 5c98 9cbc 8a44 17bd 0c7a a6bd
000002a0: 8779 2c3d a39a d53d 129b a13b d6a6 b83c
000002b0: a039 70bd 31ed 603c ddd0 943c 574d 34bd
000002c0: 8af2 503d 5f7b 723b a2d5 933c e1c8 9abc
000002d0: ff74 3bbd aa1b a53d 4c03 f0bc 1700 48bc
000002e0: c095 d5ba f941 88bc 1863 fcbc ab6d d2bd
000002f0: 1cd0 c83c c92d 53bd 87f0 973d 3fa6 3cbd
00000300: 0b51 023c d0d3 bf3d 0c51 2abd 6893 453d
00000310: c4df 0bbd fa43 1a3c 7696 693d 7454 9d3d
00000320: 3f04 233b ca4f b23d 5e0a 52bd 0684 47bb
00000330: 2c8c 42bc a26b 6fbd fee4 6a3c 7bf1 46bc
00000340: 302d 173d 8be0 1c3e 5065 7fbc 402c 2d3d
00000350: 2ec2 e5bc 1c61 cbbd 64cd d7bc 1e33 3f3d
00000360: 4af3 00be f373 50bc a6fd 0d3d 614b 3a3d
00000370: 0b64 9c3c 2462 4c3d 28f6 7fbc 9d29 8d3d
00000380: 7d35 dcbc 9b7a a2bd b984 ccbc d294 873c
00000390: f10e 9abb d048 2fbd db63 8abd c17c 8cbd
000003a0: fbb8 86bb 1f2e 243b bf82 c73c 03ba 9d3b
000003b0: c241 4dbd dd1e 83bd 6073 7fbc d82a ecbc
000003c0: 7b61 3e3d 74d9 753c b46d 573b bda0 a4ba
000003d0: 7a67 50b9 91ef 9cbd 8b36 58bb 570c ce3c
000003e0: 6d67 2bbd 3b11 183c 5080 35bd b3e5 8cbc
000003f0: eea8 bcbc 74cc fbbd 23fa 183d d970 19bd
-0.047860667 -0.02280095 0.0051258802 0.03030685 0.009256589 -0.036122307 0.04150703 -0.0031160507
-0.023029909 -0.035166066 0.001083038 -0.0019002797 0.04059147 -0.016175527 0.009662885 0.020780142
-0.050796494 -0.051099733 -0.025955973 -0.0055543915 0.09650747 0.06486221 0.023803607 -0.0024340674
0.014319385 0.008521491 0.036912005 -0.010552273 0.017056087 -0.02829736 -0.049847033 0.07271628
0.0018845135 0.058463953 -0.021652635 -0.011711226 0.024264585 -0.004040198 -0.024363367 0.040410142
-0.0506407 0.08075337 0.03711303 0.07446328 0.048513733 -0.1164227 0.0642079 0.06395987
-0.0010783994 0.05572284 -0.04275821 0.05698551 0.031913232 -0.014930971 0.0004968163 -0.005339246
0.04163872 0.03972004 -0.01953783 -0.06328754 0.041589666 0.04020098 -0.055444285 -0.074214995
-0.023088116 -0.04613062 -0.05196934 -0.06541104 -0.02075276 0.074348435 0.00029626492 -0.029744484
0.006867794 -0.014438233 0.010336216 -0.05193318 0.06494995 0.051014315 0.011699315 0.035620656
0.005616364 -0.014290708 0.058012534 -0.043748386 -0.054088768 -0.036266584 -0.0067827716 0.029472902
0.07132887 0.050337974 0.015556987 0.119488105 -0.023630146 0.095793426 -0.030142065 0.08578293
-0.00091254193 -0.06531188 -0.01607576 -0.014398488 0.08036735 0.09210636 0.023080535 -0.0371096
0.086249925 -0.0795695 0.026737455 0.03146303 0.0053306143 0.08913577 -0.029182103 0.0067047174
0.07353107 0.0053077317 0.0118943155 -0.041053914 0.07542803 0.07318565 -0.0036180501 -0.061270244
-0.0638563 -0.0008646538 -0.04429956 0.003110504 -0.079438746 0.06065267 0.01828128 0.03547655
-0.0371085 0.061920144 -0.0060583255 0.065927155 0.06853591 0.012375587 -0.0017452582 0.00920984
-0.023132183 0.08666025 -0.0015563371 0.07329589 0.07237388 0.01732341 -0.07260912 0.0038067817
0.032848913 -0.08927796 -0.039431643 0.054022953 -0.042859428 0.006754136 0.021671731 0.035827927
0.0085668685 -0.08448814 0.0017885423 0.015063094 -0.023452913 -0.010613376 -0.0071689305 -0.026162028
0.08202813 -0.006815185 0.046877723 -0.03017217 -0.0717984 -0.01911562 -0.0369306 -0.08128747
0.042108085 0.10429885 0.004931816 0.022540491 -0.058648705 0.013728426 0.018166 -0.04401907
0.051012553 0.0036999804 0.018046204 -0.018894615 -0.045765873 0.08061917 -0.029298447 -0.012207053
-0.0016295239 -0.01663302 -0.03080897 -0.10274824 0.024513297 -0.051557336 0.07418924 -0.046056982
0.007953892 0.09366572 -0.0415812 0.04823628 -0.034148946 0.009415621 0.057028256 0.07682124
0.0024874357 0.08706625 -0.05127942 -0.0030443682 -0.01187424 -0.058452256 0.014336823 -0.012142534
0.03690833 0.15320031 -0.01558812 0.04227853 -0.028046694 -0.099306315 -0.026343055 0.04667961
-0.12592807 -0.012722957 0.034665726 0.045482043 0.019090673 0.04989828 -0.015622653 0.06892703
-0.026880974 -0.079335414 -0.02496563 0.016550455 -0.004701488 -0.04279405 -0.06757327 -0.068597324
-0.004111407 0.0025051904 0.024354337 0.004813434 -0.05011154 -0.06402371 -0.015591472 -0.028829023
0.046479683 0.015005458 0.0032871785 -0.0012560111 -0.00019874974 -0.07662881 -0.0032991495 0.025152368
-0.04184668 0.009281452 -0.04431182 -0.017199373 -0.02302977 -0.12294856 0.037347924 -0.037461136

fc1.bias f4 [256]
00000000: dd60 32bd 0c50 b53d 0132 873d 6448 823d
00000010: 5244 f1bd a4de 16be afc2 91be 5e0f 5c3c
00000020: 4158 57be 70aa 11bd 1ec7 d73d eed2 8fbd
00000030: a507 a7bd ceb4 72be 9b27 ff3c c0f6 423e
00000040: 67ef b93b d396 aabc bb2b 1bbe 9265 36be
00000050: 05a7 a93d cef3 5abe b53d 4dbd 0618 98be
00000060: 83d6 033c 4f53 59be 5bc6 60ba ac59 33bc
00000070: b8b8 70be af4d a6bd f30c c3bd c3cd 00be
00000080: b6e2 7abc ce87 b73c 7aa1 68be 32ae e93c
00000090: 7855 33be 67f9 213e 31a8 42be 1d45 913d
000000a0: df4d f8bd 3b44 19be 5cb9 86bd 5b22 27be
000000b0: 3806 3fbd 04d6 11be c9b8 01be ce0e 7fbe
000000c0: 939e 3d3e 8dc1 833c 101d d7bd 9421 243e
000000d0: 39b1 f4bd f2cc 6ebe 5aee e53c 1369 e8bd
000000e0: f688 e53d f746 5dbd e0a8 02be 2794 1d3e
000000f0: 2724 1abd 457e 203d 45cf 9dbd b0dc 6dbe
00000100: f5d7 acba 3097 32bd 25cf e2bd 06fe a23d
00000110: fe15 32be 25b3 3cbe e8a0 b2bd 1a85 89be
00000120: 5427 69be eebe d5bc 6e52 913c 709c 1d3d
00000130: ae14 c73d 946b 173e e26f 1fbc 23bf 06bd
00000140: d438 cbbd c1b8 17be 6232 45be 7090 67be
00000150: b9bd e23d b945 a9be 7bd6 cfbd 777d 853d
00000160: 859c 35be dea3 cd3d e688 07be da18 b03d
00000170: 8a49 e2bd c568 0a3e 4ae0 38be 1f9f e6bd
00000180: 1e8e 013e 6c21 5dbe 7150 263e 0c97 9abd
00000190: d5bf bc3d 8064 4dbc cfc5 0b3d 5192 9d3d
000001a0: 2163 dfbd c3c8 123e 9c8f 883d 996f e3bc
000001b0: 9db9 913c 6f73 26be 2d9a 74bd 03ae 63be
000001c0: 315e dfbd 8a11 30be 451e cbbc a295 33bd
000001d0: 45c3 5e3e a4c3 54be 48d0 15be b7e9 3f3e
000001e0: 8d4e e93c 13ab ab3c 3f6b b93d e9a0 033e
000001f0: d1b8 1d3d 2483 d13b 9530 fcbd b641 193d
00000200: 717a 0f3b 7b3f 64be 85fa 7abe d544 ae3d
00000210: edc9 69be f655 473d 3397 3c3d e3af b63d
00000220: 14ef 79bd 9534 533d aff3 07bb 54be 1d3e
00000230: 831b adbd 963e 55be a127 df3d 9e4d dcbc
00000240: d9c7 b63d 68ea 45be 5932 8ebd fa14 e7bc
00000250: c262 2c3d fd55 093e a368 a33d 5530 243e
00000260: 1e6b 133e e0bc 47be 63a4 133e cd5f 10bd
00000270: 0da2 f63c 591f 1d3d 8257 b6bd fb9c be3d
00000280: 943f 2bbe a790 4cbc 9fdd c2bd 344f 7b3d
00000290: b932 ffbd 77b1 083e 0409 0abd d092 e83d
000002a0: 5eb6 be3c e387 bf3d ecf4 c0bc 229a 76be
000002b0: 466b 8bbe 4818 7ebe 4219 8ebe af5b 07be
000002c0: 9c80 9cbd 6d8a 303e 7161 19be c65d d73d
000002d0: 7a66 2bbe c7b6 773d a97b 903c f591 febd
000002e0: 0474 4d3e 67e9 25be 8871 8bbe 10f5 3bbe
000002f0: 6d45 32bd 73d4 0c3e 328e 50bd 0565 dcbc
00000300: e0ca c9bd 07f1 91bd 15ee 453e 545b 7bbe
00000310: 7c36 dfbd 6eaa 1e3e 28f0 2a3e 09a3 e23c
00000320: fe99 b7bd 9ba4 9cbd ba70 79bd 4b71 c5bd
00000330: c699 293e 5cab 303e 8c4b e2bd ea9c ce3d
00000340: 6557 bfbd ba90 28be 41d3 013d 9d3f 913c
00000350: eb9a ba3d 59dd 853c 5589 d0bd e51c 10be
00000360: 3bb8 b83d da3c b73d cf57 a73c 0920 77bb
00000370: 1139 88bd 6b67 82bc ff84 1b3e 15fb 00be
00000380: ca68 51bc d19e 8abe 8d42 503d 3628 44be
00000390: 4844 3dbe 5304 4cbe e822 d73d 8877 d13d
000003a0: a0dc 87bd c7ec 90bd 450f 073e aab6 7ebc
000003b0: 054c 19be 3b2b c63c ef92 1d3d 66fd 803d
000003c0: 2bc2 2bbe 77e6 2fbe 4685 383e c26c 8cbd
000003d0: e0ba 7bbd 935f 1f3e 747f 92bc 1c51 6fbe
000003e0: 0f8a a5bd 9eec 2ebe becd 06bc a61e f9bd
000003f0: d140 1f3e 303d 073e 201e 7cbe 1a77 073e
-0.043549407 0.08853158 0.06601334 0.06361464 -0.11780609 -0.14733368 -0.28468844 0.013431398
-0.2102976 -0.035562932 0.105360255 -0.070226535 -0.08155755 -0.23701784 0.031146815 0.1903944
0.005674291 -0.020823872 -0.151534 -0.17812183 0.082838096 -0.21382067 -0.050107677 -0.29705828
0.008046749 -0.21223186 -0.0008574479 -0.010946672 -0.23507965 -0.08120286 -0.09523954 -0.12578492
-0.015312841 0.022403624 -0.22717848 0.028525446 -0.17513072 0.15817796 -0.19009472 0.070932604
-0.12124228 -0.14967434 -0.06578323 -0.163217 -0.04663679 -0.14241797 -0.12668146 -0.24907991
0.18517523 0.016083503 -0.1050359 0.16028434 -0.11947865 -0.23320368 0.028067756 -0.11348166
0.11207764 -0.054022755 -0.12759733 0.15388547 -0.037632134 0.03918292 -0.07705549 -0.23228717
-0.0013186919 -0.043601215 -0.11074666 0.079586074 -0.17391202 -0.18427713 -0.08722097 -0.2685936
-0.22768909 -0.026092019 0.0177395 0.03847927 0.09720741 0.14787132 -0.009731265 -0.032897126
-0.099229485 -0.14816572 -0.19257501 -0.22613692 0.11071343 -0.33061007 -0.10148331 0.06518071
-0.17735489 0.10041021 -0.13235816 0.0859849 -0.11049183 0.13516529 -0.1805431 -0.11260819
0.1265187 -0.2159478 0.16241623 -0.07548341 0.092162766 -0.012536168 0.03412419 0.07693923
-0.10907579 0.14334397 0.06668016 -0.027763175 0.017788703 -0.16254972 -0.059717346 -0.22234349
-0.109066375 -0.1719419 -0.024794707 -0.043843873 0.21754177 -0.20777756 -0.14630234 0.18741499
0.028479839 0.020955598 0.09053659 0.12854351 0.038506333 0.006393807 -0.12313954 0.037416182
0.002189305 -0.22289841 -0.24509628 0.085092224 -0.22830935 0.048665963 0.046042632 0.089202665
-0.06101902 0.051563818 -0.0020744612 0.15404636 -0.08452513 -0.20824656 0.108962305 -0.02689248
0.08924837 -0.193277 -0.06943197 -0.028208245 0.04208637 0.13411708 0.07978942 0.16034062
0.1439633 -0.19505644 0.14418177 -0.035247613 0.030106569 0.038359974 -0.089034095 0.093072854
-0.16723472 -0.01248566 -0.09514927 0.06135483 -0.124608465 0.13348947 -0.033700004 0.11356127
0.023280319 0.0935209 -0.023554288 -0.24082235 -0.2723028 -0.2481395 -0.27753645 -0.13218568
-0.07641718 0.17240305 -0.14978577 0.10515933 -0.1673831 0.060477044 0.01763709 -0.12430183
0.20063788 -0.16202317 -0.27235055 -0.18355203 -0.04352324 0.13752918 -0.050916858 -0.026903639
-0.098531485 -0.071260504 0.19329102 -0.24546558 -0.10899064 0.15494701 0.16693175 0.027665632
-0.089649186 -0.076485835 -0.06089852 -0.096407495 0.16562566 0.17252868 -0.11049566 0.10088523
-0.09342841 -0.16461459 0.031695608 0.017730528 0.091115795 0.016340898 -0.10182444 -0.14073522
0.09019514 0.089471534 0.020427613 -0.0037708303 -0.066515096 -0.015918454 0.15187453 -0.1259578
-0.012781331 -0.27074292 0.050844718 -0.19155964 -0.18483078 -0.19923525 0.10504705 0.10227877
-0.06633878 -0.07076412 0.13189419 -0.01554648 -0.14970405 0.024190536 0.038470205 0.06298332
-0.16773288 -0.17177759 0.1801959 -0.068566814 -0.061457515 0.15563802 -0.01788304 -0.23370785
-0.08082973 -0.1708245 -0.008227764 -0.12164049 0.15552069 0.13206935 -0.24620867 0.13229027

fc2.weight f4 [256, 256]
00000000: 2b20 043c bdf1 f9bc 6c98 4bbd 8e4e d83d
00000010: 9ebb b23c 7e0e 1f3c 8b7b 85be 8b2d d23c
00000020: 443d 0ebe 014b ffbb 1def 4abe ab0a aebd
00000030: 2e35 30be d760 113e ac14 59be a79b c23b
00000040: f7fa 85bc b14d 533d 5a8f 8ebd 40fb 433e
00000050: 75ae 25be e03c ffb9 eb56 aabd 4334 24be
00000060: 2ad3 ff3b b197 acbd 02bf 7c3d 8cc5 b43c
00000070: fea9 22be 76a2 663e c7b9 933d e7d1 e63c
00000080: a193 0bbd 46d6 05be 759c b0bd ae42 94bc
00000090: c605 80bc 0ec6 70bc a2b2 28be 7e8a 6e3d
000000a0: f43e a3bc 4319 09be 9e4d 8cbd d927 263e
000000b0: 9f6c 353c 09f5 853c 06eb 493c adfc b23d
000000c0: 1f9a 34bd e216 d03d 9183 25bd 126d 37bc
000000d0: 88f4 4cbd 0197 77be d8e8 803d 3a45 71bd
000000e0: 0183 4b3a 7e3b fb3b deb6 aa3b d74a 17be
000000f0: 5464 313c cfeb 41bd cfdd e0bd d3af 7a3d
00000100: 12c5 f3bd daa1 bdbc 580f 39bd d494 bbbc
00000110: c531 d8bd e757 023e 8fed 8cbc 2edb 9d3c
00000120: 1dac 8d3b 577b 143d ee31 3bbc 3b84 47be
00000130: 7d58 ca3c 9f9c adbd 1452 e53c 343e f6bd
00000140: ea02 80bd 292d 013e d2f5 aebd 90cb 8bbd
00000150: d021 f6bc bbba 15bd 3c49 05be 5e06 513e
00000160: 3976 ae3d 0014 35bd 676d 3fbd de90 3c3d
00000170: 08b9 fbbd 0145 e4bd 4991 0abe 35bc 7abd
00000180: bfdd 9dbd 47fd 74bd bd62 acba 58c9 10bd
00000190: 2cd5 dc3b f780 d13d 7337 0abe dcb0 95bc
000001a0: 858b 463d b41b b8bd 6e96 b33c 06fc 063d
000001b0: d23d 3abc 15f2 623c 63cf 953d 2a49 e43d
000001c0: 62cb 383e 42b5 f0bd 4af2 e8bc 40f1 4bbe
000001d0: a47c 883b 7eb7 27bc fa8f 7dbc 59aa 2fbc
000001e0: 0035 f4bc abe8 7a3c 2642 053d c4a6 1ebd
000001f0: 6d94 97bd 39a9 08be a8f1 453d 690e fcba
00000200: e389 f53d 7b97 c4bd d4cb ed3d d642 be3b
00000210: c1a5 8a3c ccd0 03bd 84b1 2fbe a6b3 93bd
00000220: 7951 47bd c891 043c 5836 993c 5e76 243d
00000230: 82bf d43c abac 06bd 3aa9 053d e634 b03d
00000240: e4e8 fbbd 0840 823c 4b5f b0bd e9dd 56bd
00000250: 28e9 23bd dd86 bcbd e3ef 853c b92f dabd
00000260: 6059 abbc 7a31 adbd 69b9 0ebd 70e5 74bc
00000270: 3bc8 02be 15c4 243d 5659 0dbd e855 ae3d
00000280: f1f5 963d 295d cbbd 29a0 14be 5e0e 203c
00000290: 9070 8f3c cd31 c53d ddb4 39be 9be0 12be
000002a0: b6e3 9bbd 09f5 b03d 1435 34be 6a43 c63c
000002b0: 993b 773d 0a5f 0bbe 0ad0 8b3c 94b2 c23b
000002c0: 6b94 1cbe ad75 273e 90b5 fdbc 09b9 193d
000002d0: 4bb2 2cbe 2189 ac3d 276b 49be fc6e 79bd
000002e0: 1c69 423e 4646 f2ba 4f57 33bd 10fb d73d
000002f0: 1352 e0bc 2f4a 60be eb50 86bd f81d 70be
00000300: 4360 a13c 94e9 41bc c22a 783c 753d 4ebe
00000310: 88a9 0a3b 4336 b7bd 14a6 8c3d 5aea dfbc
00000320: 6719 f93d 606f b33b 5252 b3bd 8149 63bc
00000330: 6409 323d 4363 ebbd b060 2c3d 3571 c73d
00000340: 6b79 8e3d e4b2 0c3e 6e40 d53c f4c4 01bd
00000350: 9628 00be 8642 04be 74b3 a7bb 6206 cb3d
00000360: 5519 653d 49f8 b23d 323c f13c 136d f1bd
00000370: 5b6d b23c 1fdd 4abe 3a42 c0bd b322 0dbe
00000380: d9eb c43d ba31 08be c4d9 28bd 77c1 46bd
00000390: 1862 aabd 02dd c3bd b903 043c 4899 23bd
000003a0: e4a4 14be 7cf5 d83b 036e c53c 9e1c e3ba
000003b0: 2872 8b3d 8112 a1bc 69f3 353e d85f b33c
000003c0: 7932 c23c eed4 0fbe 776d 46bd 5da3 91bc
000003d0: d8b8 c5bd 3435 233d b858 9a3e 79fc ffbb
000003e0: eb56 9cbd df50 5d3d 2f03 253d 600a cebc
000003f0: bc72 44bd 1da3 a63d 46cf ea3d 633f 593e
0.00806431 -0.030510778 -0.049705908 0.10561858 0.021817978 0.009708045 -0.26070818 0.025656482
-0.13890558 -0.0077909236 -0.19817777 -0.084981285 -0.17207786 0.14197098 -0.21199292 0.0059389654
-0.01635502 0.051587764 -0.06960936 0.19138813 -0.16179831 -0.00048682746 -0.083173595 -0.16035561
0.007807155 -0.0842737 0.061705597 0.022066854 -0.1588516 0.22522911 0.072131686 0.028176261
-0.034076337 -0.1307002 -0.08623592 -0.018098202 -0.015627753 -0.014695657 -0.16474393 0.058237545
-0.01992748 -0.13388543 -0.06850742 0.16226138 0.011073261 0.016352193 0.0123241 0.087396
-0.044092294 0.101606146 -0.040408675 -0.011195438 -0.05003789 -0.24178697 0.062944114 -0.05890391
0.00077633566 0.007667004 0.0052097877 -0.14774643 0.010827143 -0.047344025 -0.10979807 0.061202835
-0.119028226 -0.023148466 -0.04518065 -0.022898115 -0.10556368 0.12728845 -0.01720312 0.019269552
0.004323496 0.03625044 -0.011425478 -0.19484036 0.024700398 -0.08477139 0.02799324 -0.12023583
-0.06250556 0.12614883 -0.0854298 -0.06825936 -0.03004542 -0.036555033 -0.13016218 0.20412585
0.08518643 -0.044208527 -0.046735194 0.046036594 -0.12291151 -0.11145974 -0.13531984 -0.061214644
-0.0770831 -0.059811857 -0.0013151985 -0.035348266 0.0067392793 0.10229676 -0.13497715 -0.01827281
0.0484729 -0.08989659 0.021922316 0.032955192 -0.011367278 0.013851662 0.073149465 0.111467674
0.18046334 -0.11753322 -0.028435845 -0.19916248 0.004165249 -0.010236619 -0.015476221 -0.010721766
-0.029810429 0.015314261 0.032533787 -0.03873326 -0.07401357 -0.13345803 0.048326164 -0.0019230369
0.119891904 -0.09599205 0.11611143 0.0058063073 0.01692474 -0.032181546 -0.1715756 -0.072119996
-0.048661683 0.008091398 0.018702671 0.040151946 0.025970224 -0.032879513 0.03263209 0.086038396
-0.1230028 0.015899673 -0.08611926 -0.052457724 -0.040017277 -0.09205411 0.016349738 -0.106536336
-0.02091664 -0.084567025 -0.03484479 -0.01494728 -0.12771694 0.04022606 -0.034509026 0.08512479
0.07371128 -0.09929878 -0.14514221 0.00976905 0.017509729 0.09628639 -0.181354 -0.14343493
-0.07611792 0.08640487 -0.17598373 0.024202067 0.06035957 -0.13610473 0.017066974 0.0059416983
-0.15290992 0.16353483 -0.030970365 0.03752998 -0.16864888 0.08424593 -0.19669782 -0.06089686
0.18985409 -0.0018484078 -0.043784436 0.10545933 -0.027382886 -0.21903299 -0.06558403 -0.23448932
0.019699221 -0.0118354745 0.015146913 -0.20140631 0.0021158177 -0.089458965 0.068676144 -0.027333427
0.12163048 0.0054759234 -0.08755936 -0.013872505 0.043465987 -0.11493542 0.042084396 0.097383894
0.069567524 0.13740116 0.026031699 -0.03168197 -0.12515482 -0.12916002 -0.005117828 0.09913327
0.05593236 0.08738763 0.029447649 -0.117883824 0.02178066 -0.19810914 -0.09387632 -0.13782768
0.09615297 -0.13300219 -0.041223302 -0.048524346 -0.08319491 -0.09563638 0.008057528 -0.039941102
-0.14516026 0.006621061 0.02410031 -0.0017327254 0.06808883 -0.019662144 0.17768635 0.021896288
0.023705708 -0.1404607 -0.048444238 -0.017778093 -0.09654397 0.03984566 0.30145812 -0.0078120795
-0.07633766 0.054032203 0.04028624 -0.025151432 -0.04796098 0.0813658 0.114653155 0.21215586

fc2.bias f4 [256]
00000000: 5a8f 393e 439a 2e3e f95e ae3d 34cf 823d
00000010: 3fb4 273d 363e 843d 5566 183e 43ef 2e3d
00000020: 365b a83d da7f 5d3d f697 343c bb1c 0e3e
00000030: e1f4 9a3d 0026 d63d d8d7 99bc 90c3 14bc
00000040: 5537 d33d dce8 9a3d 1ca9 aa3d 2416 033e
00000050: 736c c73d 04af ce3d 09a0 f23b 32b8 e93d
00000060: 1129 1d3e 914f ba3d 5e64 1e3d 74ea 1c3d
00000070: 23a2 9a3d d134 be3c 2f8e 6b3d 252f 023d
00000080: 0102 ea3d 14f0 ec3d 1187 c43b af51 6e3d
00000090: 0228 003e cf5c 873d aafa e43d acfb 023e
000000a0: d0e9 d23d f46e a1bc 2c88 083e 4428 773d
000000b0: e55a 95bb 1804 ec3d d77a c53d 6892 e53d
000000c0: da3f ba3d 2f39 db3d 0501 0d3e ba26 3f3d
000000d0: a9dd 753d 8f53 ae3d 0a88 e13d 6b9a 9a3c
000000e0: b446 043e 513f 853d c323 ea3c 6702 133d
000000f0: e112 ed3d cf2d e43d f510 773d c8df a33d
00000100: 6bf1 863d 9227 7b3d e2cb a43d 446f df3d
00000110: ac6a c13d 9979 ce3d 343e ea3d b0ab 013e
00000120: 9eb4 c23c 7749 c83c a1dc 5a3c e376 eb3d
00000130: 128c 013e d4be 563d 04b7 c43d 09e6 a53d
00000140: 0117 293d 142f 563d 2be8 033d 6a37 c33c
00000150: 981e 083e bb8b 123e bf1b 88bc e570 563d
00000160: 03f1 a33d efb2 ac3d f2fe 103d dfba df3d
00000170: 9f24 d13c c0aa d03d 9eb2 5c3d e21d c63d
00000180: 3796 863d 9b58 5b3d 68df 983c 013a 3c3d
00000190: 00c4 e93d 6d24 ed3d ddcf 9b3d 7e4b 493d
000001a0: 29ee 983d 36f5 3f3d af2f c53d 71d6 a43c
000001b0: c73d b93d ee39 e1bb 8ca8 d43c 8503 933d
000001c0: ce7a 7e3d 773a 2a3d 17ab 8a3d 780d 2e3d
000001d0: f893 f13d 6f73 753d 88dd 0a3e e9e8 2e3e
000001e0: 8a12 f23d 9451 6f3d f308 963d a39e bb3d
000001f0: 481c 013e 0914 c83c 003b db3d bcaa 973c
00000200: 697a b23d 0f0b db3c 2f50 d0bc 8ada ac3d
00000210: e9ea 753d 3588 4c3d 687d 0c3e c365 a73d
00000220: bfc4 d93d c1ec 203e 9f79 bc3d 0fdd ad3d
00000230: 9866 bd3d 5dfe 573c e5d8 413d b09a 473d
00000240: 3521 b13d dd68 6b3d edfc 173a ee4f 563d
00000250: b19c 8c3d 5b93 1d3e 1ee6 163e b1d0 723d
00000260: 9b5e 273d 5a3c 393d d10b d93d 1d11 013e
00000270: a7ee 363d 48af cc3d a305 923d fc8d da3d
00000280: 6abb f53d 1772 1d3e 9f2d 0b3d baf8 223d
00000290: ab3b ac3c ea3c 673d 032f 033e 9f3e a33d
000002a0: fccd f63d a02d 133e de19 ea3d 4ff4 7a3d
000002b0: 7022 8b3d f715 5d3d d4b8 bc3c 8e3b b83d
000002c0: 9bbf 703d 1847 893d 2758 f63d 3278 c23c
000002d0: 0881 3e3d 6eb4 0d3e f47a 0a3e a06a 063e
000002e0: cf15 1a3e ea99 b83d 5ebe 823d b722 d73c
000002f0: fa9e bd3d 9633 0a3e 47df e6bc 3fd7 e63d
00000300: 3615 25bc dc89 413c a0ed f13d 2fdb d53d
00000310: 7d6d 0a3e 83dc 0a3d 8a17 a83d ef78 de3d
00000320: fea5 1e3d 22ce 7b3d 5b29 573d 928c 053e
00000330: e16d be3d 66ac 673d d309 fe3c 325f 9c3d
00000340: db5c ea3d 857b ca3d 6973 bf3d 7e2c 45bc
00000350: 0291 e43d 48d1 5a3d 53e3 b03d 5c03 3c3d
00000360: 09b5 a23d 2476 003d 26ce 853d a334 df3c
00000370: c8c4 b33c a269 903d c1a6 f33d 7614 a83d
00000380: 63d5 023d 0783 f93d c79b 023e 7fa8 683b
00000390: 4da3 e23d 39c6 c63d 3983 e13d 9bea aa3d
000003a0: 85f3 a73d c6a9 d53d 1e9a fa3d 31eb d53d
000003b0: af5d 8e3d 1f0c 123e 802c 353e 15fa c23d
000003c0: daa8 243c 9535 fb3c e0d7 eb3d 335a 893d
000003d0: 86a3 993d b9ba 853d 2b96 803d 916b fd3d
000003e0: a28b cc3c cf91 fc3c 2167 df3d cac9 b63d
000003f0: 464c 423c 417e a33d 9452 fb3d 0496 f93d
0.1812109 0.17051034 0.08514208 0.06387177 0.04094338 0.06457178 0.14882787 0.042708647
0.08220522 0.054077007 0.011022558 0.13878147 0.07566238 0.10456467 -0.01877968 -0.009079829
0.10313288 0.07563946 0.08333036 0.12801415 0.09737482 0.10091975 0.0074043316 0.114120856
0.15347697 0.09097207 0.038669936 0.03830953 0.075504564 0.023218544 0.057508644 0.03178324
0.114261635 0.11569229 0.0059975465 0.05818337 0.12515262 0.06609499 0.11180623 0.12791318
0.102985024 -0.019706227 0.13333195 0.060341135 -0.0045579546 0.11524218 0.096425705 0.112095654
0.0909421 0.10704266 0.1376992 0.046667792 0.060025845 0.08512031 0.110122755 0.01887246
0.12917596 0.06506217 0.028581506 0.035890963 0.115758665 0.1114155 0.060318906 0.08001667
0.065890156 0.061317034 0.080467 0.10909894 0.09444174 0.10081787 0.114376456 0.1266315
0.023767766 0.024449093 0.013358266 0.11497285 0.12651089 0.05242808 0.0960522 0.08100516
0.041281704 0.05229099 0.032203835 0.023830134 0.1329292 0.14311115 -0.016614793 0.05235376
0.08004954 0.084325664 0.035399385 0.10924315 0.025530158 0.10188818 0.05388128 0.096736684
0.0657162 0.053551298 0.018661216 0.045953754 0.11414337 0.11579213 0.07608006 0.04914426
0.074673004 0.04686471 0.096282355 0.020121785 0.09044986 -0.006873361 0.025959276 0.07178406
0.062128834 0.041559663 0.06770914 0.042493314 0.11795801 0.05992454 0.1356107 0.17081036
0.11819942 0.05842741 0.07325926 0.09161117 0.12608445 0.024423616 0.10704613 0.01851403
0.08714754 0.026738672 -0.02542886 0.084401205 0.06003848 0.049934585 0.13719714 0.081737064
0.106332295 0.15715314 0.09202885 0.08489429 0.09248084 0.0131832035 0.047325987 0.048731506
0.08648912 0.057473052 0.0005797882 0.05232232 0.06865824 0.15388243 0.1473622 0.059281055
0.040861707 0.04522357 0.10597957 0.12604184 0.04466119 0.0999437 0.07129981 0.106716126
0.11998637 0.15375553 0.033979055 0.039787985 0.021024546 0.056454577 0.12810902 0.079709284
0.12051007 0.14372873 0.11430715 0.061268147 0.06793678 0.053976025 0.023037352 0.08995734
0.05877648 0.06703013 0.120285325 0.023738954 0.046509773 0.1383836 0.13523465 0.13126612
0.15047382 0.09013732 0.06383966 0.02626167 0.09258838 0.13496241 -0.028182639 0.11271524
-0.010075858 0.011812653 0.118129015 0.104421966 0.13518329 0.033901703 0.08207615 0.1086291
0.03873252 0.06147588 0.052529674 0.13041905 0.092983015 0.056560896 0.031010544 0.076353446
0.11443492 0.09886841 0.093481846 -0.012034534 0.111604705 0.053422242 0.08637109 0.04590164
0.07944686 0.031362668 0.0653346 0.027246779 0.021944419 0.07051398 0.1189704 0.082070276
0.031941783 0.121831946 0.12754737 0.0035500822 0.110663034 0.09705777 0.11011357 0.08345529
0.082007445 0.10432772 0.12236427 0.1044525 0.069514625 0.14262436 0.17692757 0.095203556
0.010050023 0.030665198 0.11515784 0.06706657 0.07501893 0.06529755 0.06278642 0.12374032
0.024968926 0.030831246 0.10908342 0.08925207 0.011859005 0.079830654 0.1227161 0.12186816

fc3.weight f4 [2, 256]
00000000: 202b d83d 9c33 85be 04fa 103d 5978 30be
00000010: 0986 8dbe 176b 5c3d b1b2 4ebe f04b 55be
00000020: 417e a03d 1e1a 833e 312a 16be 99de 823e
00000030: 1f5e 49be db85 74be 0abd 64be 09d2 07be
00000040: c336 6e3e b924 613e 0132 19be 3196 39be
00000050: 1564 2fbe 42c1 33be 20ae 80bd 16d7 e73d
00000060: 5f3c 793e a911 da3d 3c92 cdbd 80f8 c3bd
00000070: 7296 26be 54af eabb 7a74 36be 9a1a 4fbe
00000080: ecb6 8cbd cc54 18be f22e 53be 7c79 51be
00000090: 4cca 9b3d ccdd 76bd 64de c83d 060a a8bc
000000a0: a743 a33e b818 adbc 480c 06be e7c8 533e
000000b0: 6a84 6cbe 9943 453e e376 533e 3928 7cbe
000000c0: 3890 55be 9b1c 3cbe e73e 2abe f0d8 4abe
000000d0: 099d 08be 4faf 9ebe c631 febd 3935 7cbe
000000e0: e2a2 39be 7704 7c3e 12b6 69be d8ed 563e
000000f0: c39d 6c3e 8af7 3f3e fba1 653e 0ee4 093e
00000100: c0f6 06be da5e 0abe e531 f83d cf5a 413e
00000110: 6c2e e4bd 4a8b de3d deaa e0bd 66f5 8c3e
00000120: f77a 26be ad33 cebd cc93 61be c0de 42be
00000130: f2fa 0abe 8414 29be 8482 1bbe a8c9 11be
00000140: cb7f 443e 35c0 8cbd ed65 e03d 08ff 08be
00000150: 5708 70be 392e 32be fd2d debd a5cf 4ebe
00000160: d8a4 a8bd 16b3 ecbd 03ae d43d 9cf7 2dbe
00000170: f489 8ebe 3b83 22be a86b 8fbe 8eb9 9d3d
00000180: 9917 9a3e cd5c 243e fb77 d1bd 7bfc 863e
00000190: 55d2 303e 7d1d 913e 6c74 4f3e 8972 913e
000001a0: 48d1 6ebe b361 20be 57a9 803e 31c8 a0bd
000001b0: 1613 dc3d 46cb 20be ec99 68be e23f 14be
000001c0: 87d5 72be 9b74 793e ed53 803e 7547 c6bd
000001d0: 4330 f2bd e1a1 573e d71e 33be 5e4c 3c3e
000001e0: 884d b0bd e9b6 cdbd 042e 9cbb fdae 123e
000001f0: a906 1abe c737 17be eb9b 0abe 6853 ddbd
00000200: 7c56 8e3e db63 c53d 43c6 e0bd def9 19be
00000210: 96cf 1dbe d507 6d3e 7f13 2bbd bde9 15be
00000220: 639a 1abe 7be9 903e a901 0bbe c80f cebd
00000230: 6072 b4bd 4ea9 66be 1a51 27bd c185 723e
00000240: 1566 81be f2e7 c6bd ae07 e9bd 1bb3 18be
00000250: 3c1a 693e 13e4 ce3d c93b 653e ec22 13be
00000260: 1af9 e43d 85b7 943d 38b3 7abe ec4d 883e
00000270: f654 05be 21fe cb3c 1c52 d7bd e0dd 6c3e
00000280: e270 c6bd cf11 903e 1f47 e5bd 3fbe c9bd
00000290: 1d80 80be db6a 7abe 3856 4fbd b604 34be
000002a0: a753 adbd 8541 5d3e 2327 93be 8e96 82be
000002b0: 3e2b f3bd 1217 863e f4bc 9b3d 8946 813e
000002c0: e16e b1bd 77a9 f3bd 7d41 c53d f6f1 3fbe
000002d0: 87af e7bd 400f 5e3e 9108 4bbe e7f1 863e
000002e0: d003 69be 6675 39be d655 fe3c 0b6a 4cbd
000002f0: 1eaf a1bd 17ba ad3d d87b 0abe 6584 96be
00000300: c6fc ddbd 8691 f23d 5bba 893d 0440 023e
00000310: 2a52 a53d 0f95 9ebd 1162 c03d 3187 f3bd
00000320: eb6e b03d 552f 523e 6e0c 5abe 75a9 b83d
00000330: ea39 a93d 115f 89be d478 cd3d 3996 583e
00000340: a9b0 5d3e 9014 98bd 866a b83d 19b4 5cbe
00000350: 09c2 723e 3a4c 533e 2fe3 e8bd 4ce2 41be
00000360: 03dd 11be d916 b2bd 24bf f2bd 29a1 2bbe
00000370: 39ea c7bd 7226 533e 9960 953d 49cc 5abe
00000380: 411e 5fbd 6943 3b3e 8f9c a8bd 34a1 babd
00000390: 0549 64be d06b 3f3e 862b 63be e9bd b33d
000003a0: ce8d d23d bb8b bd3e bb3d fa3d d37c 25be
000003b0: 056c 913d a998 963e 3216 6b3e 95a6 38be
000003c0: d05f 44be a782 00be 4014 47bd 55d5 26be
000003d0: cddf 21be 1bb9 8f3d a518 3bbe c30d 65be
000003e0: 8086 36be c7b0 3dbe 3461 9b3e e8a6 593d
000003f0: ddba e3bd 2e3b 0abe 6c63 06be 6728 763e
0.105551004 -0.26015937 0.035394683 -0.17233409 -0.27641323 0.053813066 -0.20185353 -0.20829749
0.07836581 0.25605863 -0.14664532 0.25560454 -0.1966481 -0.23879187 -0.22337738 -0.13263716
0.23263077 0.21986665 -0.14960481 -0.181237 -0.17128022 -0.17554191 -0.06283212 0.11320321
0.24339436 0.106479 -0.100376576 -0.09568882 -0.16268328 -0.007162014 -0.1781787 -0.20224991
-0.06870827 -0.14876097 -0.20623377 -0.20456499 0.076069444 -0.060270116 0.09808043 -0.020512592
0.31887552 -0.02112995 -0.13090622 0.20682107 -0.23097387 0.19264068 0.2065082 -0.24624719
-0.20855796 -0.18370287 -0.16625558 -0.19809318 -0.13341154 -0.30993125 -0.12411837 -0.24629678
-0.18128541 0.24611078 -0.2282336 0.20989168 0.23107056 0.18746772 0.22425072 0.13465902
-0.13180065 -0.13512745 0.121188916 0.18882297 -0.11141667 0.10866411 -0.1097009 0.27530974
-0.16257845 -0.1006845 -0.22029036 -0.19030285 -0.1357229 -0.16511732 -0.15186507 -0.14237082
0.19189374 -0.06872598 0.10956941 -0.13378537 -0.23440681 -0.17400445 -0.10848615 -0.20196398
-0.082345665 -0.115575954 0.103847526 -0.16988987 -0.27839625 -0.15870373 -0.28011823 0.077014074
0.3009613 0.16051026 -0.102279626 0.26364502 0.17267735 0.2834281 0.20259255 0.28407696
-0.23322022 -0.1566227 0.25129196 -0.078506835 0.10745828 -0.15702543 -0.22714967 -0.14477494
-0.23714267 0.24360888 0.2506403 -0.09681598 -0.118256114 0.21057846 -0.17492233 0.18388507
-0.08608538 -0.10044653 -0.0047662277 0.14324565 -0.15041603 -0.14767371 -0.1353604 -0.10806924
0.27800357 0.096381865 -0.109753154 -0.15036723 -0.15411219 0.23147519 -0.04176664 -0.14639945
-0.15097956 0.2830313 -0.13574852 -0.10061604 -0.08810878 -0.22525522 -0.04084883 0.23683836
-0.25273195 -0.09712209 -0.11378418 -0.14912073 0.22763914 0.101020955 0.22386087 -0.1436879
0.11180325 0.07261566 -0.24482429 0.2662195 -0.13020691 0.024901452 -0.10513708 0.23131514
-0.096894994 0.28138587 -0.11195206 -0.0985074 -0.25097743 -0.24454825 -0.050619334 -0.17579922
-0.08463221 0.21607025 -0.28740796 -0.2550549 -0.11873482 0.26189476 0.07604399 0.25249127
-0.086637266 -0.11897557 0.096316315 -0.18744645 -0.11312776 0.21685505 -0.19827487 0.26356432
-0.2275536 -0.1811119 0.03104679 -0.049905818 -0.07894729 0.084827594 -0.13523805 -0.29397884
-0.10839228 0.11844163 0.067249976 0.12719733 0.08072312 -0.077432744 0.09393705 -0.1189102
0.08614906 0.20525868 -0.21293804 0.09016696 0.08262999 -0.26830342 0.10032812 0.21151055
0.21649422 -0.07425797 0.09004693 -0.21553077 0.23706831 0.20634547 -0.11371457 -0.18933982
-0.14244466 -0.08695764 -0.118528634 -0.16760696 -0.09761471 0.20620134 0.07293815 -0.21366991
-0.05447221 0.18287434 -0.08232986 -0.09112778 -0.2229348 0.18693471 -0.22184572 0.08776457
0.10280953 0.37020668 0.122188054 -0.16160898 0.07100681 0.29413345 0.22957686 -0.18032296
-0.19177175 -0.1254984 -0.048603296 -0.16292317 -0.1580803 0.07017728 -0.1827112 -0.22368531
-0.17824745 -0.18524466 0.30347598 0.05313769 -0.11119626 -0.13499138 -0.13123864 0.2403885

fc3.bias f4 [2]
00000000: fe1d 0c3d 8925 a0bd
0.03420829 -0.07819659

bn.weight f4 [256]
00000000: e1af 853f ab70 0a3f a2ad 343f 2678 853f
00000010: 5a67 3d3f 27d1 a63e ab8c 943f 5fa6 b23e
00000020: 3bba 1e3f 9d6d 783f 5c19 0e3f 2e59 113f
00000030: 205e d43e fed2 e93e 7bfe 4c3f 9332 9e3e
00000040: ae86 173f 8bcd 2b3f c153 733e 9096 a03e
00000050: 94f1 183f b258 083f 38de 863e 4561 6a3f
00000060: 4ecd 3f3f a31e f13e 71a0 643f 59eb 613f
00000070: ef94 443f 58a8 123f ab45 463f e19c 8a3e
00000080: 85c9 153f 258f 9a3e 152d 843f c422 8e3f
00000090: 910c 883f a3c6 4c3f e72f 173f 7fc2 8f3e
000000a0: caef de3e 509f f73e f1f9 883f 4688 883e
000000b0: 1c7c 863f f609 6d3f 85b3 0f3f 1c8d da3e
000000c0: eb15 bc3e fbb0 643f bb1d f33e 10cf 0d3f
000000d0: 298f 7d3f 6950 8a3f cb68 5d3f 83d9 ee3e
000000e0: 9452 0d3f 747b 563f 78bb 383f bf7d 8a3e
000000f0: 8807 403f 4de1 083f a2b6 9e3e 00d5 9b3e
00000100: 0630 6d3f 28c6 e23e 6688 7a3e 241f 1f3f
00000110: 47b0 463f 1c56 923e 006b 7e3f 915a 053f
00000120: fb39 663f 95b4 823f 40cb a63e 80f8 dd3e
00000130: cb66 493f fa1a fd3e 2e15 483f 82ce c23e
00000140: cb51 893e a200 d93e 0e7e aa3e 0793 cc3e
00000150: 2076 6a3f 88d3 373f a441 463f c40a 9b3e
00000160: f5e0 843e 6302 3e3f 3f41 0f3f d19b 723f
00000170: 22e3 7d3e a20f 273e 17f9 a23e 556e 463f
00000180: ee8f ac3e 3b94 403f 5d76 733f ca1e b23e
00000190: 7293 853f 0eeb 783f 9eb5 0e3f c31b 053f
000001a0: 8161 223f 8c65 a23e 8484 383f ebc4 703f
000001b0: 21df 713f ed45 8b3f 0a2f f63e 4a73 6a3f
000001c0: 3a68 ab3e 61ef d93e 6f40 7a3f 0fb2 f83e
000001d0: eb97 a53e 4281 ec3e 8290 723f 4da7 883f
000001e0: eb90 713f 9add 303f cdd4 793f 92c7 763f
000001f0: d9e7 d63e 0943 5f3f 1f26 703f 1895 563f
00000200: 598d 5e3e ecc6 d73e 9bd1 963e ab1f 083f
00000210: acc6 893f 5c31 653f 9ebd 353f 0356 2e3f
00000220: 0aa1 713f 9271 7c3f b3bb 2a3e 6f76 613f
00000230: 5384 5c3f 47be 363f 46ba 873e a5b3 143f
00000240: 5ad6 d73e 29f0 cd3e 544e b93e ea4a 0e3f
00000250: c0cd 863f 9019 013f 6fa1 653e eb14 7f3e
00000260: 21ea 463e 12fa 7a3e 6851 b63e d035 9c3e
00000270: 94c1 653f a8ae 313f 563f 203f 26ca 223f
00000280: 03e2 003f 72e7 3a3f bdd4 a13e f044 4d3f
00000290: 800b be3e 7df7 293f d1e8 303f 7db0 003e
000002a0: fa11 3f3f c6cc 953e 1776 443f f2c2 8e3f
000002b0: ca17 213f d1aa 5a3f 7548 533f 4927 823f
000002c0: e74e 453f 9af1 933f 8112 763f fd31 653f
000002d0: c10e 983e 6ce5 b43e 4629 003f 73c0 653f
000002e0: b25c c53e 7acd 633f 5f2a d03e a3f6 943e
000002f0: 4cdc 9c3e 8d28 d63e 5529 8d3f 29cd 963e
00000300: 8363 763f cd99 213f a557 803f 78a5 673f
00000310: d8de 543f bbb6 493e 7bee 873f eec6 733f
00000320: 3225 963e 0289 1d3f 26fa 133f 1243 1a3f
00000330: 97ee 7f3f 8d02 843f e518 7c3f 0f9e 0c3f
00000340: 2104 553f 02ce c63e c8ee 103f cd54 3e3f
00000350: c885 8b3f 3d01 883f 844c 743f 0747 ef3e
00000360: 6eef 703f 2dab 013f 82ad fc3e 14fa 0d3f
00000370: 6369 293f fb15 693f 39bf ea3e ec11 633f
00000380: 1531 673f e9dd 4a3f f1d3 8a3f 512e 203f
00000390: 9f9c 583f 14ed 983f 5d8d 3c3f 7ea7 823f
000003a0: 95d0 0a3f f6e8 883f ffcf f43e 6df6 2c3f
000003b0: 125f 363f 54a1 ae3e 06f4 f73e cd53 2f3f
000003c0: 3bd4 8e3e 2390 223f b625 823f 5bf5 263f
000003d0: 5c3c c43e 40d9 163f 0949 143f 1bb5 8b3f
000003e0: a4f2 653e c584 5b3f 18dc d33e 9be0 ce3e
000003f0: 3f0e 7b3e 70f1 783f 4e67 b73e 0354 ad3e
1.0444299 0.5407817 0.7057744 1.0427291 0.73985827 0.32581446 1.1605428 0.34892556
0.62002915 0.97042257 0.55507445 0.567767 0.41478062 0.45668787 0.80075806 0.3089796
0.5918988 0.6711051 0.23762418 0.3136487 0.5974362 0.5326034 0.26341414 0.9155467
0.74922645 0.47093686 0.89307314 0.8824974 0.76789755 0.5728812 0.77450055 0.27072814
0.5851062 0.30187336 1.0326258 1.110436 1.0628835 0.79990596 0.5905747 0.28078076
0.4354232 0.48363733 1.0701276 0.26666468 1.0506625 0.92593324 0.561333 0.42685783
0.36735472 0.8933255 0.4748362 0.5539408 0.9904657 1.0805789 0.86488026 0.46650323
0.5520413 0.83782125 0.72161055 0.27049062 0.7501149 0.5346878 0.30998713 0.30435944
0.926514 0.44291806 0.24466094 0.6215689 0.7761273 0.2858132 0.9938202 0.5209132
0.8993222 1.0211359 0.32576942 0.43353653 0.78672475 0.49434644 0.7815732 0.38048178
0.26820216 0.42383295 0.33299297 0.39955923 0.91586494 0.71807146 0.7744391 0.3028165
0.2595288 0.7422239 0.5595893 0.94769007 0.24793676 0.16314557 0.31830665 0.77512103
0.3370356 0.7522618 0.95102483 0.34789115 1.0435622 0.97233665 0.55745876 0.51995486
0.6343003 0.317181 0.720772 0.9405047 0.9448109 1.0880715 0.48082763 0.9158217
0.33477956 0.42565444 0.9775457 0.48573348 0.32342467 0.46192366 0.9475175 1.0676056
0.9436175 0.6908814 0.97590333 0.9639827 0.4197376 0.8721166 0.9380817 0.8382125
0.21733607 0.42143953 0.2945679 0.5317332 1.0763755 0.8952844 0.7099246 0.68099993
0.9438635 0.98610795 0.16673164 0.8807134 0.8613941 0.7138409 0.26509303 0.58086616
0.42155725 0.4022229 0.36192572 0.5558306 1.053154 0.5042963 0.22424863 0.24910323
0.1942525 0.24509457 0.35608983 0.30509806 0.897485 0.6940713 0.6259664 0.63589704
0.50344867 0.7300941 0.3160762 0.80183315 0.3711815 0.6639326 0.6910525 0.12567325
0.74636805 0.29257792 0.7674269 1.1153243 0.62926924 0.85416895 0.82532436 1.0168239
0.7707352 1.1558106 0.96121985 0.895294 0.29698756 0.35331285 0.5006298 0.8974678
0.38547283 0.8898541 0.40657327 0.2909442 0.30636823 0.41827813 1.1028239 0.294534
0.9624559 0.63125306 1.0026747 0.9048686 0.8315253 0.19698612 1.0619653 0.9522542
0.29325253 0.6153718 0.5780357 0.6025859 0.99973434 1.0313278 0.98475486 0.5492868
0.83209425 0.38829046 0.5661435 0.74348146 1.0900202 1.0625378 0.95429254 0.46733877
0.9411534 0.5065182 0.49351126 0.55459714 0.6617643 0.91049165 0.45849016 0.8869922
0.9030927 0.7924486 1.0845929 0.62570673 0.84613985 1.194735 0.73653203 1.0207365
0.5422452 1.0696094 0.47814938 0.67563516 0.71238816 0.3410746 0.48428363 0.68487245
0.27896294 0.63501185 1.0167758 0.6521813 0.383273 0.5892525 0.5792394 1.0914644
0.22455841 0.85749465 0.41378856 0.40405735 0.24517153 0.97243404 0.35821003 0.33853158

bn.bias f4 [256]
00000000: c753 7cbd 3235 f7bc ac09 00bd 3079 94bc
00000010: b9a1 2abc 6285 5b3c 8daa b1bd 6039 403d
00000020: 7dc9 25bd a98d 2dbd f11f e7bc 2c57 23bd
00000030: f578 59bd ff37 053d 4b18 a13b b28a 8e3d
00000040: 7805 9bbc 898c d9bd 4dfb 99bd 6d28 03bc
00000050: 2b84 6bbc 6316 87bd e06e 03bd 5f46 e5bb
00000060: 6c3f 983d e904 87bd c655 2bbd fc1f b93d
00000070: 1373 33bd 2c61 b53d a83e 953c 28ad 84bc
00000080: e60e 85bc 416c b1bd 7d65 d2bd 40b3 a13c
00000090: d38f 09bd 8845 b23c 312b 64bd bc75 91bd
000000a0: 045c 5ebd 8f15 d8bd 6708 c43b 4fa7 e03d
000000b0: b64f 92bd abe6 58bd 3823 d2bb ef9d c63c
000000c0: e18c bcbc 561b 91bc 0264 67bd f60d 053d
000000d0: a975 86bc 34cf b4bd 269a fcbc 59d6 88bd
000000e0: 42e7 3ebd 2ce7 84bc b477 83bd fe43 1abe
000000f0: fe7a 523d bc43 2ebd d61e 02be 3260 293b
00000100: a564 0fbd 9e0b 4e3b 8243 3fbd 2bbc 70bb
00000110: 1e14 c3bd 4cdc 1a3e ea52 353b 4111 4fbc
00000120: f1ff 943b 6c72 17bd 03db bebd a672 92bc
00000130: dd98 29bc 3513 853c c4de 0ebd 2890 28bd
00000140: dae6 3c3d b104 5c3b ba70 9cbc cc2f 85bd
00000150: df06 9dbd a28f 79bd 2848 93bd 9843 25bd
00000160: 796a ca3c 95cf 11be 1542 debc 75b7 f8bc
00000170: ce88 863d 76dc 57be 3c32 bfbd 3b87 53bd
00000180: feb9 49bd b37f 0dbd fa09 923d 6ea9 16be
00000190: ad70 23bc 672b babc 04c8 09be 47e1 e33c
000001a0: db2d 20bc 7181 43bd cf6a 21bd 0739 02bd
000001b0: 5f8c 4b3d 96ca d8bc be5f a3bc d5e4 5e3d
000001c0: 4f53 513d 3ded 1ebc 9bf1 a1bc ab7a 87bc
000001d0: 9fa9 a5bd 994d d33b 0826 7b3d 60a1 3e3d
000001e0: b37c 24bd 4850 dd3c 5eba 833b cbd2 73bc
000001f0: 1de5 ddbc 416b d8bc baa1 82bb c891 d53c
00000200: ab27 d03d c2e7 c23b bf84 4abd e0cd a9bd
00000210: 9d90 4bbd ebf8 52bc 482d 17bd a759 b73c
00000220: 20a0 cebc 4a59 ebbb 68c9 37be b090 32bd
00000230: 36a1 15bd f32c 8dbc c484 ce3d cb5e 9bbd
00000240: 6353 a2bd d02b 94bd 7da2 8f3d 350b 3bbd
00000250: 7a8e 0cbd 7844 12bc db73 a4bd 4c87 12be
00000260: 662f a9bd c63a b9bd 206d cabd 3cb2 74bd
00000270: b7c1 253d 4158 99bd 5652 0cbd d95c 0cbd
00000280: 2c0d 1f3c ed13 bcbb c535 3cbe a2bc 02bc
00000290: cb9a 17bd e129 24bd c311 10bd fbb4 d9bd
000002a0: 7d1f c33c a9d8 223d 946a 05be ddac edbd
000002b0: 703e b2bd ce48 a33c 9316 6fbd 1ba7 08bd
000002c0: 9dd9 663a 6a3f a5ba 0e9d 85bd 65e6 943c
000002d0: 81a3 c7bd 6afc 70bd dfe6 263d 6723 dfbc
000002e0: b2fe 6bbd 763f 40bc bab0 9abd 2331 98bd
000002f0: 80fc 273d 1100 b4bc a88c 7fbd e936 063d
00000300: edc6 27bd c9b7 903a 7e7a a2bc 1960 09bd
00000310: 36ce 50bd 398e 6bbe 952d 81bd 0758 c1bd
00000320: 6b6e 313e 1d13 90bb 36a0 efbd d2fc 45bd
00000330: e44d 04bb b6e6 a8bd 39a7 eaba 2d49 8ebc
00000340: cd09 3cbd f0fc 993d d3b5 603c 1254 25bd
00000350: b876 69bd 305d 263c b2be fbbd 8104 7ebd
00000360: 58c2 c4bd 93a7 31bd 086c 62bd de31 33bc
00000370: 9012 8d3d 0719 633c 0a22 72bd dd5b aabd
00000380: 9ea5 b8bb b7c2 c6bc 868b 7dbd 7d10 49bc
00000390: 5fcc fc3c e571 d1bd 03f3 46bc 538c e3bc
000003a0: 794b 953c d342 f3bc 2af1 b7bd 4e10 1a3a
000003b0: 91c7 ccbc ce44 c43c bf5f e6bc 4e21 69bd
000003c0: 9821 b0bd 7f3f 59bd 47ab dbbb a0d1 45bd
000003d0: 83c2 2abd 6a68 663d a95e dc3c 2edc 13bd
000003e0: 02b7 58bd 3dce 77bd 2dea 8c3c 8913 a1bd
000003f0: b5a6 2dbe f481 4cbd 5592 8b3e 8470 5d3d
-0.061603334 -0.030176733 -0.031259224 -0.018124193 -0.010414534 0.0133985 -0.08675108 0.046929717
-0.040475357 -0.042371426 -0.028213473 -0.039878055 -0.05309387 0.032524105 0.004916226 0.06960048
-0.018923506 -0.10622508 -0.07518635 -0.008005244 -0.014374773 -0.06596067 -0.03208816 -0.0069969143
0.07433972 -0.065927334 -0.041829847 0.09039304 -0.043810915 0.08856425 0.018218353 -0.016195849
-0.016242456 -0.08663226 -0.102732636 0.019738793 -0.033584427 0.02176167 -0.055705253 -0.07102534
-0.05428697 -0.10550987 0.005982447 0.109694116 -0.0714411 -0.052954357 -0.00641289 0.02424523
-0.023016395 -0.01771323 -0.05649186 0.032484017 -0.016413527 -0.08828583 -0.030835222 -0.066815086
-0.046607263 -0.016223513 -0.06419316 -0.15065 0.051386826 -0.042545065 -0.12707075 0.002584469
-0.03500809 0.003144003 -0.04669524 -0.003673325 -0.095253214 0.15123099 0.0027667829 -0.012638391
0.004547112 -0.036974356 -0.09319117 -0.017876934 -0.010351387 0.01624451 -0.034880415 -0.041153103
0.046118595 0.0033572132 -0.019096721 -0.06503257 -0.07667326 -0.060927995 -0.07191497 -0.040347666
0.024708973 -0.14239343 -0.02713112 -0.030360917 0.06569062 -0.21080193 -0.09335753 -0.051642638
-0.04924964 -0.03454561 0.07130809 -0.1471307 -0.0099755945 -0.022725774 -0.13455206 0.027817382
-0.009776558 -0.047730867 -0.0394085 -0.031792667 0.049694415 -0.026463788 -0.019943114 0.05441745
0.05110484 -0.009700117 -0.019768527 -0.016537985 -0.08088993 0.0064484593 0.061315566 0.046540618
-0.040157985 0.02701582 0.0040200194 -0.0148818 -0.027086789 -0.02641833 -0.0039865645 0.02607049
0.10163816 0.005948038 -0.049443003 -0.08291221 -0.04969846 -0.0128767295 -0.036908418 0.022381617
-0.025222838 -0.007182275 -0.17947924 -0.043595016 -0.036530696 -0.017233348 0.10083917 -0.0758644
-0.07926061 -0.07234919 0.07013414 -0.045664985 -0.034315564 -0.008927457 -0.0802991 -0.14309424
-0.08260994 -0.09044413 -0.09884095 -0.05974029 0.040467944 -0.07487536 -0.03425821 -0.034268234
0.00970773 -0.00573968 -0.18379886 -0.007979544 -0.037012856 -0.040079 -0.03517319 -0.106302224
0.023818726 0.039757404 -0.13028938 -0.11605237 -0.08703315 0.019932177 -0.058371138 -0.03336249
0.00088062306 -0.00126074 -0.065240964 0.018176267 -0.09747983 -0.05883447 0.04074752 -0.02723856
-0.057615943 -0.01173388 -0.07553239 -0.07431247 0.041012287 -0.021972688 -0.06239 0.03276721
-0.040961195 0.00110411 -0.0198338 -0.03353891 -0.050977908 -0.23003472 -0.06307522 -0.09440618
0.17327277 -0.0043968097 -0.1170048 -0.04833681 -0.0020188028 -0.082471296 -0.001790262 -0.017368877
-0.045907784 0.07518947 0.013715225 -0.04036338 -0.056997985 0.010154054 -0.122922316 -0.062016014
-0.09607381 -0.0433727 -0.055278808 -0.010937182 0.06888306 0.013860947 -0.059114493 -0.08318303
-0.0056349775 -0.02426277 -0.061900638 -0.0122719975 0.03085917 -0.10226802 -0.012142899 -0.027776873
0.018224465 -0.02969495 -0.08981545 0.00058770634 -0.024997504 0.02395859 -0.028121827 -0.056916527
-0.086001575 -0.05303907 -0.0067037675 -0.048295617 -0.041689407 0.05625192 0.026900606 -0.03609865
-0.052908905 -0.06049942 0.017201507 -0.07865054 -0.16958125 -0.04992862 0.2726008 0.05406238

bn.running_mean f4 [256]
00000000: 0bee a43f 25f4 3d3f f020 363f 7771 663f
00000010: 9460 1b3f c6e8 8e3f 03a6 b63c 7647 463f
00000020: a60f de3d 5737 8a3f 7e5a 733a 0400 0000
00000030: 87f9 593e 5c96 d53e 218d 993d 7d17 933f
00000040: dc0c 103f 86f9 273f bb9e aa3f fb81 963e
00000050: af05 333d b99e 303f 6fb7 3b3f 8378 d13d
00000060: b9ac 873e a87e 5d3c 6e9a f63e 2bb0 c13d
00000070: 5053 943e cb00 be3c b991 a83e 5e79 783f
00000080: b4d5 b63f 9cfc b93e 6bde 5f3d 4067 833e
00000090: a77b e73e d2bc ac3e f5f4 b03e 66a1 583e
000000a0: 1c2f b73f f931 353f 0400 0000 0400 0000
000000b0: 208c ab3f aeb1 173e 3327 813c 0400 0000
000000c0: 1e6b 003f bd11 a43d 75ba d33f 3541 933f
000000d0: 73b0 613f f5dd 6f3e 2a31 ab3d 4fc3 0d3a
000000e0: ac73 4e3f b799 373f 8ce0 9a3e 283d 3c3f
000000f0: 4831 173d de48 5b3f 9d66 dc3f 564f 5f3d
00000100: 3ab9 cc3e c3af 923c a7e5 b43f e3fb db3d
00000110: 21d7 463f 05fd 6537 b3f2 343e 16b2 533e
00000120: 6a4e 583f d2e3 763e 11f3 873e 0400 0000
00000130: 9537 883e 0205 823f 2031 dd3c 6bc8 fa3e
00000140: 1455 f33b 0400 0000 0400 0000 418e 023f
00000150: 77dc 293f b679 373d 796f d03d 0dc8 da3e
00000160: 7440 753f bf62 233f 4f53 ef37 cb06 793f
00000170: 93b6 683f 2c38 4c3f 4cce 853e 23a2 a13e
00000180: 0400 0000 0df6 5f3c 979b f73e 2eb7 c53e
00000190: 3be8 5a3f a16c b63c ae39 833f 7ea8 013f
000001a0: e5e7 093e 5d44 543f cae6 3b39 59b8 2540
000001b0: 6304 be3e c5f8 013e a7ed 803f 85bb 0b3f
000001c0: c2f1 9a3c 319c 993d c3b0 933f 2892 df3d
000001d0: cd00 1440 eb03 b83e 31d2 843f 24bd 893e
000001e0: 462f bc3f 4c5a 3c3e f9d5 083f 2c8e 353e
000001f0: 9c1a d13e 0400 0000 8d4a 053e 2693 643f
00000200: 0400 0000 e5e2 9f3d 1f7a 103c 54a6 4f3d
00000210: 144e 113f 9445 833d 65e1 083e ae17 6e3f
00000220: c4fc a93e b254 bf3f 9f78 0c3f 12e4 da3e
00000230: 790a 7f3d dbfb 2c3e a751 373f 9534 0f3c
00000240: aa78 b23c c393 cb3d 1034 e63e 24e5 7d40
00000250: 8517 af3e 4eca 863f b557 0b40 3aa7 2e3f
00000260: 254d 793f 0400 0000 7bbe b13f 60bb a43b
00000270: d01e 493e 6def 873f b0b9 e038 3439 b13d
00000280: 5c0e 8c3f 16dd ab3b 5896 d13e 819a 0a3e
00000290: 0400 0000 5f41 9b3e e010 d23e 5286 623f
000002a0: 4324 2e3d 056f 6e3e f885 833e b8d6 453e
000002b0: a57d 573c 5aa4 ae3e ddc6 223e 0077 903f
000002c0: cbda cb3d d951 5d3e 9320 ab3d 8411 203f
000002d0: 17b7 f03e 5fd8 813d 21a4 0c3e 058c 343e
000002e0: 23a7 a93e c4af 1f3f a448 163c 0400 0000
000002f0: 9a9e 713c 50ae 7c3e b105 1b3e 1041 8f3c
00000300: 0400 0000 3830 5d3f 5d3e 983e 67e3 8f3e
00000310: 7b41 4e3f 1120 e73f a50f 223e c593 bf3d
00000320: abd6 363d 7326 b23d 0400 0000 568e 863f
00000330: 01b6 0a3f 2d43 a93e 4843 4b3f 0400 0000
00000340: ae4c ae3e c557 9a3c 0661 5c3e ced5 873e
00000350: 0400 0000 0469 de3e 6c2a b03e a8eb 183e
00000360: e612 933e a323 213d 0e72 3b3f 3c71 153f
00000370: 52fb 4b3e 3273 a03b 9413 ab3d aff6 163d
00000380: 0ea7 3e39 9890 9b3b 3a66 543f 8f98 b53c
00000390: 9860 f23e b3fb 123d 00af 503f c602 353f
000003a0: d580 713e ffb5 8d3d 4fef c23f 7890 b83d
000003b0: 6dcc 823f 9e49 ba3c ed18 4c3e fcb3 cf3e
000003c0: 5dcc 423f 67a0 773e 7206 7b3f 4853 3d3c
000003d0: 67ae 653f 5a89 f03e 7d5f d53d 297c 2b3e
000003e0: efd3 d63e cf91 533f 761d 1040 5714 873f
000003f0: 171c b33c 6eb2 0b3f 0bbb 593d d575 8b3d
1.2885145 0.7420066 0.7114401 0.90016884 0.6069424 1.1164787 0.022295957 0.7745279
0.108428285 1.0798138 0.0009283199 6e-45 0.21286593 0.41716278 0.07497621 1.1491543
0.5626962 0.6561512 1.3329691 0.29396042 0.043706592 0.6899219 0.7332677 0.10228064
0.26498964 0.013518967 0.48164696 0.094574295 0.28969812 0.023193737 0.32923678 0.9706019
1.4283967 0.36325538 0.054655474 0.2566471 0.45211527 0.33737808 0.34561887 0.21155319
1.4311252 0.7077938 6e-45 6e-45 1.3402138 0.14813873 0.015765762 6e-45
0.5016345 0.08011196 1.6541277 1.1504275 0.88159865 0.23424514 0.08358987 0.00054078264
0.8064525 0.71718925 0.3024944 0.7353082 0.036912233 0.8565806 1.7218815 0.05451902
0.39985067 0.017906075 1.4132584 0.10741403 0.7767201 1.3708374e-05 0.17670707 0.20673403
0.8449465 0.24110344 0.26552632 6e-45 0.26604906 1.0157778 0.027000964 0.48981032
0.0074259136 6e-45 6e-45 0.5099831 0.6635203 0.044793807 0.10177512 0.42730752
0.9580147 0.6382255 2.8529814e-05 0.9727599 0.90903586 0.7977321 0.26133955 0.31569013
6e-45 0.013669503 0.48360893 0.38616318 0.85510606 0.022268595 1.0251977 0.50647724
0.13467367 0.82916814 0.00017919685 2.5893767 0.37112722 0.12692554 1.0072526 0.5458301
0.018914107 0.07500494 1.1538318 0.10916549 2.3125489 0.3594049 1.0376645 0.26902115
1.4701927 0.1839382 0.53451496 0.17730016 0.40840614 6e-45 0.1301672 0.8928703
6e-45 0.078069486 0.008818178 0.050695732 0.5675976 0.06409755 0.13367231 0.9300488
0.33200657 1.4947722 0.54871553 0.4275213 0.062265847 0.1689295 0.71608967 0.008740564
0.021786053 0.09940293 0.44961596 3.9671106 0.3419763 1.0530488 2.1772282 0.6822392
0.9738334 6e-45 1.3886255 0.0050272197 0.1964066 1.0619942 0.00010715739 0.08653489
1.0941882 0.0052448614 0.40935016 0.13535501 6e-45 0.30323312 0.410285 0.88486207
0.04251505 0.23284538 0.25688148 0.1932019 0.013152515 0.34109765 0.15896173 1.1286316
0.09953841 0.21613254 0.083558224 0.62526727 0.47014686 0.06340098 0.13734485 0.17631538
0.33135328 0.6237757 0.009172592 6e-45 0.014747286 0.2467587 0.1513889 0.017487079
6e-45 0.864017 0.2973508 0.28103182 0.80568665 1.8056661 0.1582628 0.09354357
0.044638317 0.0869874 6e-45 1.0512187 0.54183966 0.33059064 0.7939954 6e-45
0.34042877 0.01884068 0.21521387 0.26530308 6e-45 0.43439496 0.34407365 0.14933646
0.28725356 0.039340626 0.7322091 0.58375907 0.1992009 0.004896545 0.083533436 0.03685635
0.00018182045 0.0047474615 0.82968485 0.022167472 0.4733932 0.03588457 0.8151703 0.70707357
0.23584302 0.069194786 1.5229281 0.0901193 1.0218636 0.022740182 0.19931383 0.40567005
0.76093084 0.24182282 0.9805671 0.0115555 0.8971924 0.4697979 0.104186036 0.16746582
0.41958568 0.8264436 2.2517982 1.0553082 0.02186398 0.5456914 0.053156894 0.06809584
