checkpoints/checkpoint_critic_agent_1.pth (torch_old, 324010 bytes, 9 tensors)

fc1.weight f4 [256, 52]
00000000: d0d2 113e be3b b2bc 51b1 433c d5d5 ca3d
00000010: fdaa 2a3e 9c33 56be f3e5 96ba b60a d93d
00000020: ecfd 113e 1b48 1ebb af16 05ba ff97 c53e
00000030: 0b79 5e3e 3c5b 84be 9d55 81bd d957 d53e
00000040: 4f65 1d3e 9a6e 603d 5354 303d 164c 0d3f
00000050: cfcc 823e 2803 5bbe 3da5 0cbc e34c e23e
00000060: e09a 4b3e 7ea1 cfbd 2fd3 08be 44d0 08bf
00000070: 227c b7bd b8b7 4cbe f38f c3bd cfa3 0bbf
00000080: c906 283e 381a 8cbe c889 85bd e17d f1be
00000090: 7cc9 4cbe 5974 92be 1f84 01be 00f8 ffbe
000000a0: 3149 383e 374b 8dbe aa35 1bbe bcae 973d
000000b0: baaf 20be 0cae 71be 105d 17be 2be4 133e
000000c0: b899 2ec0 6a7c 02bf f8eb b8bd 8c13 3c3e
000000d0: dcab 3c3e a80e b3bd 9da6 bf3d 7bb1 dfbd
000000e0: c4da f43c 79f1 1ebe 4c59 8e3d 3fd4 e7bd
000000f0: 4c6d f03c 2181 0e3d eb97 a8be 00cd 833e
00000100: b432 843d 984f f5be 5b34 a1be d742 933e
00000110: 68b1 393e 25d6 df3c f5f2 c33d b2ac 76be
00000120: eb6d 0e3e 017a 38bf 0ad7 c53d b17e 8dbe
00000130: 161b c5be 967f babe de4d de3d cd6c cc3c
00000140: d0b2 02bd 8b01 5bbe b335 ce3d 1762 563c
00000150: 39a2 a1be 7f13 b8be f0d9 07be 0bc4 373e
00000160: af92 aebd dc63 debe 662f 34be b743 1b3e
00000170: 95b8 67be acab f9be 3131 80bd d9ff ba3e
00000180: 0af9 0bbe 7680 24bf 9ab2 3cbd f114 ab3e
00000190: 8491 d73f a29c c03d 73a8 a0bf c0fd c33d
000001a0: dfa9 11bd 80fd 4bbf 0035 12be 410a 743e
000001b0: aeab 53be 2fed 05bf d231 e0bd 6731 823e
000001c0: b8b7 efbd 42fe 53bf 1884 09bc 7a9b 1e3d
000001d0: 560c 2abc 4f55 25bf 96f9 a7bc 2db7 893d
000001e0: a7d3 2d3c d210 2ebf 6713 593d 7ed2 253f
000001f0: afbd f23d 4e50 36bf 661a 923d 1f53 203f
00000200: 17aa 7ebe 48d2 63bf 18bd 773a e7f4 9cbe
00000210: aac9 5f3e 494b 0bbf 18b7 103d 7e81 59be
00000220: 5e44 fc3c 530c 75bf 0146 f43d 5b20 c1be
00000230: ede6 583d 801c 23bf fce3 583d e129 e1be
00000240: cba0 303e 50dd 62bf 3ec8 bd3d 73c1 b9bc
00000250: 746a dfbd 6a4d 40bf 777c f23c 7c62 4f3d
00000260: 4187 48bf 2efc 9e3e a6a7 36bc ac24 26bf
00000270: eb6f 61bd 11fc 69bd 95d2 003c 44b2 51ba
00000280: dd36 853d a58f aa3d c13e 06bd a082 8d3c
00000290: f42b 7f3e 6cc0 ebbd 4ec4 f93b a64a ab3c
000002a0: 6d7b 83be be6d 43bc 8e1e bbbd ba1f b63d
000002b0: e4fd 573e 512a ddbd 2435 f4b8 1120 ef3d
000002c0: f15a 96c0 ef34 28bc 0a7d abbc 63d2 133d
000002d0: 60e5 aa3b 2c7b a9bc cad6 203d 76e3 f03d
000002e0: beeb 4bbd e153 b93c 76dd efbc 6183 0e3d
000002f0: 62fd c7bb d9ef 52bd 97ca ab3c 24ea 44bd
00000300: c17f b33e ae8e 2a3d e9e0 99bc 88ce 493d
00000310: 3741 ad3d 41ec d2bd 576e 37bc aceb 1fbe
00000320: fa81 9740 0cd0 92bd 2d09 9bbb c614 acbd
00000330: 9b63 4f3e 98ff 233e 35fd ae3d 3ee7 2bbe
00000340: b89b b03e 987b 993e 695c a1bd 4c6f 243f
00000350: f0bd ff3c 9c8d dbbd ce4e 06be 4f96 133f
00000360: b357 b53e 7e22 aa3e 27ea 0e3e 433b fc3d
00000370: 1a69 143d eb12 fbbc 8c5d fe3d 269d 553e
00000380: b5eb df3e 593e 763e b54e ca3b 807c 7bbe
00000390: 0ae5 fd3c a3e8 173e c990 8bbd 6127 4fbe
000003a0: 1d7c c4bc 3dde aebe 6ef4 ae3d 8415 ee3e
000003b0: 4959 e8bc 9dfe 0abe ddd4 463d 7495 0c3f
000003c0: bc02 84bc e4d8 5fbe 6d17 adbd 052b 8b3d
000003d0: 8d9f 7abd 30bc 063d 8dbe a8bd a81b 8d3d
000003e0: 7b7e cc3d 3f0b 8abe e818 16bc 2311 a23e
000003f0: 3789 74bd c129 523e 50ca 48bd 47e7 a83e
0.14240575 -0.021757003 0.011944131 0.099040665 0.1666679 -0.20918125 -0.0011512622 0.10597746
0.1425702 -0.0024151865 -0.00050769275 0.38592526 0.21725862 -0.25850856 -0.063151576 0.41668585
0.15370677 0.054792978 0.043049168 0.5519422 0.25546882 -0.21387923 -0.008584318 0.44199285
0.19883299 -0.10138224 -0.1336181 -0.5344279 -0.08959223 -0.19991958 -0.095489405 -0.5454683
0.16408838 -0.27363753 -0.0652042 -0.4716635 -0.19998735 -0.2860439 -0.12648056 -0.49993896
0.1799667 -0.27596447 -0.1515719 0.07406375 -0.15692034 -0.2360155 -0.14781594 0.14442508
-2.7281322 -0.5097109 -0.090293825 0.18366832 0.18424934 -0.0874303 0.09357951 -0.109225236
0.029889472 -0.15521802 0.06950626 -0.113197796 0.029348992 0.034791116 -0.32928404 0.2574234
0.06454983 -0.47912288 -0.31485257 0.28761932 0.18134081 0.027323792 0.09567825 -0.24089316
0.13909118 -0.72061163 0.09660156 -0.2763572 -0.38497227 -0.36425465 0.10854696 0.024954224
-0.03190881 -0.21387307 0.10068836 0.01308491 -0.3156908 -0.35952374 -0.1326673 0.17945878
-0.085240714 -0.43435562 -0.17596206 0.1516255 -0.22629006 -0.48763788 -0.062593825 0.3652332
-0.1366922 -0.64258516 -0.046068765 0.33414415 1.6841283 0.09404875 -1.2551407 0.09569883
-0.035562392 -0.79683685 -0.1427803 0.23832037 -0.2067096 -0.5231504 -0.109470025 0.25428316
-0.117049634 -0.8280984 -0.00839331 0.038722493 -0.010378918 -0.64583296 -0.020504754 0.06724391
0.010609544 -0.67994416 0.05299702 0.6477431 0.118525855 -0.71216285 0.07133941 0.6262683
-0.24869572 -0.8899274 0.00094504794 -0.30655596 0.21854272 -0.5441175 0.03533086 -0.21240804
0.030794319 -0.9572193 0.11927415 -0.37719998 0.052954603 -0.6371536 0.052951798 -0.43977264
0.17248838 -0.88618946 0.09266709 -0.022675252 -0.10908976 -0.75118124 0.029600365 0.05063103
-0.7833138 0.31051773 -0.011148369 -0.64899707 -0.055038374 -0.057125155 0.007862707 -0.0007999281
0.06504605 0.08328179 -0.03277469 0.0172742 0.2491911 -0.11511311 0.0076222783 0.020909619
-0.25680104 -0.01192802 -0.09136687 0.0889277 0.21092945 -0.10799087 -0.00011644725 0.11676038
-4.6986012 -0.010266527 -0.020933647 0.036089312 0.005215332 -0.020688616 0.03926734 0.11762135
-0.04978537 0.022623004 -0.029280405 0.03479326 -0.0061032036 -0.051498268 0.020970626 -0.048074856
0.35058406 0.041639976 -0.018784003 0.04926923 0.08459704 -0.10298968 -0.011195741 -0.15617245
4.7346163 -0.07168588 -0.0047313184 -0.084024 0.2025284 0.1601547 0.08544389 -0.1678743
0.34493804 0.29977107 -0.07878954 0.64232326 0.031218499 -0.10720369 -0.13115999 0.5765123
0.35418472 0.3322944 0.1395651 0.12315991 0.036233045 -0.03064867 0.124201864 0.20860729
0.43734518 0.24047221 0.0061739334 -0.24559212 0.030993003 0.14834838 -0.06814725 -0.20229866
-0.023984963 -0.3415393 0.08542715 0.4650079 -0.028362887 -0.1357369 0.048542846 0.5491555
-0.016114585 -0.21860081 -0.08451734 0.06795315 -0.061187316 0.032894313 -0.0823947 0.06890041
0.09985062 -0.26961705 -0.009161212 0.316537 -0.05970117 0.2052374 -0.049021065 0.3298895

fc1.bias f4 [256]
00000000: 0a4f 2fbf 3886 12be 7e93 b9bb eece 2a3d
00000010: 42f2 7cbe d10d 8ebe f173 c5be c68d adbe
00000020: e549 c7be 2c76 ffbe 679a 2abf c316 e4bb
00000030: b641 92be ebf4 293a 2e15 e83d 852b fcbd
00000040: 7060 f3bd 8338 dfbe bda0 9ebe b396 99be
00000050: 9251 99be 0e19 0b3d 7add bdbd 79e6 4dbe
00000060: c3a5 04bf b93b 08bf cab0 6abf 978e b2bd
00000070: 9f57 f53e d66e c8be 3af9 83bb 7bf2 073d
00000080: c30b 0cbf fa91 883e 4c46 26be 809b 2dbd
00000090: 67f1 f0bd 3520 babe 408b e4be b9e3 2cbc
000000a0: 4eee a8bd 3f0c 1dbf 1764 9dbe 464f c6be
000000b0: d994 c7be 6e27 93be 8757 8bbe 2adb 53be
000000c0: 04b2 9cbd ce17 ea3c 8397 a2be e1cb 86be
000000d0: f5ad 953d 4a58 b8be ae78 febd 7cd6 833e
000000e0: 0f5e 89be 4eed c9be 32b0 a3be 8bc0 10bf
000000f0: 1767 cbbe c75e 39be 3544 37be be74 01be
00000100: 6ce9 03bf 2e9a babe 1294 733d f62a 91be
00000110: 6d22 063c 11e1 aebe 2cf0 83be bf8a edbe
00000120: ae84 a6be afba 0dbf 3c89 80be 3ad0 e7bd
00000130: 9cb3 37be ba35 8fbf 52f0 50be e6db 76bd
00000140: 4302 24bf e5b9 ee3d 362c b2be 16f1 043e
00000150: 4691 c6be d1ae 08be 7d1a bdbd 66ce 3dbe
00000160: 02d8 b8be e1c2 d8be c60b bbbd 501f b7be
00000170: 4dfe 7fbd 66e1 903c 1490 debe d17a 92bd
00000180: 401b c83b 9e15 63bd fc98 27bf d04c 58be
00000190: 88bd 9abe 17d8 84be 2f09 edbe 2187 83be
000001a0: f5b1 20bf 4e2e dcbe 0b93 1cbe a9e4 aabd
000001b0: 3d43 29bf 0120 5bbe d999 b8be 3aaf 9fbe
000001c0: f958 483e 5f51 53be 6a09 2ebe a681 733e
000001d0: 5de6 8cbd 89fe 85be 30e9 7bbe 1f66 adbe
000001e0: 0e70 053d c88e 96be da70 77be c32a 1a3e
000001f0: 133b d8bd f9f8 71be d5d0 a6bd 3a92 cfbe
00000200: 1523 9bbe cf87 03bf d62c 43be af6b 7abe
00000210: 8108 f9be cd71 a3be 3b14 17bd 3d58 6cbe
00000220: 36cc e9be f08b c0bd 8691 61be a1c6 0dbf
00000230: f10d ba3d 4d67 f4be a06a 1f3b c60c 8abe
00000240: a10b a8be 9aad f1be 4afe 1abe c6a6 b5be
00000250: 523c e7bd 4932 c53c 91f0 bfbe a2c9 8dbe
00000260: 5400 0dbe d4f6 56be d8c1 d3bc c786 a5be
00000270: 9bad 26bd 44e4 02bf 620c 78be e89a c5be
00000280: c481 71bc 7fba f63c 882e d3bd de1e 84bd
00000290: b9b1 8dbe 6954 efbe 6f72 0abf 7c07 d2be
000002a0: bb28 a0be 51a9 2cbe b493 a4bd 6f54 febe
000002b0: 8945 b2be 6f33 f9be a21a 4b3e 41e6 673d
000002c0: 2c14 3abe 7905 4abe 967c 95be 9a7e 13bf
000002d0: 0e44 9dbd 7485 bdbe fd34 88be b9ac ebbd
000002e0: e7e1 85bc 3e89 e7bd f72b 56be e7af a3bd
000002f0: a985 27be 285b ddbe e06d bcbe 5bf4 18be
00000300: 7586 45bd 26df 8ebe b533 88be ceef 4cbd
00000310: 0493 ffbd b807 f1bd 1842 473e ee40 6ebc
00000320: 08d2 13be 6ed1 b7bd a8be 13be 5aa5 87be
00000330: 5ffa 87be 1539 75be 70c0 f1be fbb5 5fbe
00000340: 000c 56be 6c3c c0be 97f0 86be e53e c2be
00000350: de6e 97bd 8af1 6fbe 5afc ecbd 4b49 e7be
00000360: 2ca9 94bd cfe3 4bbe 71b7 8fbe 484e 84bd
00000370: 6da3 05bf c901 9bbe 9ffc adbe 585f 53be
00000380: db64 dcbd c52a de3d 2b77 3bbe f16c 943e
00000390: 6aaf febe 6718 a7be 8560 b6be 75f4 3abe
000003a0: c3f1 253e a18b 043e a92e 28be 2ba7 5cbe
000003b0: 7ba6 6dbe edb6 a7be f1e2 88be 7132 75be
000003c0: f746 1dbe cd24 86be 6ab0 9b3d f429 21be
000003d0: b2d7 66be a05b 0cbf 92e2 eebe 7cd2 99be
000003e0: 5ec2 9fbe ccf8 d4be 74be 57be 1423 bb3d
000003f0: ec60 7fbe 9a90 d3bd 9c20 94be 0159 a4be
-0.6847998 -0.14309013 -0.0056633344 0.04170125 -0.24701789 -0.27744916 -0.3856502 -0.33897227
-0.38923565 -0.49894845 -0.6664185 -0.006960721 -0.28565758 0.0006483334 0.11332165 -0.12312988
-0.11883628 -0.43597803 -0.3098201 -0.29997787 -0.29945046 0.03395944 -0.09270759 -0.2010745
-0.5181543 -0.5321613 -0.9167601 -0.08718603 0.47918412 -0.3914706 -0.004027513 0.03319023
-0.54705447 0.2667387 -0.16237754 -0.042384624 -0.11764794 -0.36352697 -0.4463749 -0.01055234
-0.08248578 -0.6134681 -0.30740425 -0.38732356 -0.3898075 -0.2874102 -0.27215216 -0.20689073
-0.07651141 0.028575804 -0.3175622 -0.26327422 0.0730857 -0.3600486 -0.124253616 0.25749576
-0.26829574 -0.39438862 -0.31970364 -0.565438 -0.3972709 -0.18102561 -0.17897113 -0.1264219
-0.5152805 -0.36445755 0.059467383 -0.2835309 0.008186919 -0.34156087 -0.25769174 -0.46394917
-0.32523102 -0.5536298 -0.25104702 -0.11319013 -0.1793961 -1.1188271 -0.20404175 -0.060268305
-0.6406595 0.1165655 -0.34799355 0.12982592 -0.3878271 -0.13347937 -0.09233568 -0.18535766
-0.361023 -0.4233618 -0.09133105 -0.35766077 -0.06249838 0.017685603 -0.43469298 -0.071523316
0.006106764 -0.055440538 -0.6546781 -0.21123052 -0.30222726 -0.25946113 -0.4629607 -0.25689033
-0.6277154 -0.43004078 -0.15290467 -0.08344395 -0.6611822 -0.21398927 -0.36054876 -0.31188375
0.1956519 -0.2063651 -0.16995779 0.23779926 -0.06879876 -0.26170757 -0.24600673 -0.33866975
0.032577567 -0.29405808 -0.24164143 0.15055375 -0.105581425 -0.23630132 -0.081453 -0.4054125
-0.30300203 -0.513791 -0.19060072 -0.2445514 -0.486393 -0.3192276 -0.036884528 -0.23080535
-0.45663613 -0.09401691 -0.22028169 -0.5538121 0.0908469 -0.47735062 0.0024325028 -0.2696287
-0.32821372 -0.4720276 -0.15136066 -0.354788 -0.11290802 0.02407183 -0.37488225 -0.27692896
-0.13769656 -0.20992595 -0.025849268 -0.3232939 -0.040692907 -0.51129556 -0.24223474 -0.38594747
-0.014740411 0.030118225 -0.103116095 -0.064512 -0.27674654 -0.46744087 -0.5408086 -0.41021335
-0.31281075 -0.16861464 -0.08035985 -0.49673793 -0.34818676 -0.48672053 0.19834378 0.05661607
-0.18171757 -0.1972865 -0.29196614 -0.57615054 -0.07678996 -0.3701588 -0.26602927 -0.115075536
-0.01634307 -0.11305474 -0.20915209 -0.07992535 -0.16359581 -0.4323361 -0.36802578 -0.14936964
-0.04822393 -0.27904624 -0.2660195 -0.050033383 -0.12479213 -0.1176905 0.19458807 -0.014541848
-0.1443559 -0.089754924 -0.14428198 -0.2649334 -0.26558205 -0.23947556 -0.4721713 -0.21846764
-0.20903015 -0.37546098 -0.2635543 -0.3793861 -0.07394193 -0.23431984 -0.1157157 -0.45173106
-0.072588295 -0.19911121 -0.28069642 -0.064602435 -0.5220249 -0.302748 -0.33981797 -0.2064184
-0.10761424 0.108480014 -0.18307178 0.28989366 -0.49743205 -0.32635805 -0.35620514 -0.18257315
0.16205506 0.12943889 -0.1642405 -0.21548145 -0.23208039 -0.3275675 -0.26735643 -0.23945023
-0.15359102 -0.26199952 0.07602008 -0.1573866 -0.22543219 -0.5482731 -0.46657234 -0.300434
-0.31202978 -0.41596067 -0.21068746 0.0913755 -0.24939317 -0.10330315 -0.2893113 -0.32099155

fc2.weight f4 [256, 256]
00000000: 7604 463d ada1 0f3c b29f c43c 271e 54bd
00000010: 468e 7dbc f633 27bd d6ad 8dbe 1157 4c3d
00000020: 1166 173e 95eb 0f3e 8b85 c93d dce9 9abe
00000030: fda1 77be 709b debe 4001 28be 6eb1 45bd
00000040: d71d 353d df18 cb3d a4c8 b93d f153 01bd
00000050: 0874 e8bd 330d 7c3d 8fc1 3e3d a2fb 25be
00000060: 336b 5fbe c779 e83d 589e f2bd 3139 0a3e
00000070: 63a5 6e3e b802 08be 8840 fcbe 159a 313c
00000080: 59b5 2cbe 1131 28be 70fb 04be 61b8 54be
00000090: 0269 c6be 880f 073d 9c84 a8bd d34f 84bc
000000a0: e240 83be b3d6 45be 8565 343d 6a23 da3d
000000b0: 2b16 70bc 55c6 1bbe 0bae dd3b 0068 eabd
000000c0: b175 1a3e e3e4 00bf 8b58 233e f565 5f3d
000000d0: d88d be3d 8124 87bd 57db c43d 56e9 6bbe
000000e0: 06e9 3bbe 3ebf 0dbe e1f2 5f3d 0c5e 0ebd
000000f0: 6fa3 6a3d 3959 80be 6976 423d 05dd 9dbd
00000100: b62a 663e 9714 92be 0ba0 493d a73e 1abc
00000110: e5a1 663e 92a3 7bbd e157 e33e e354 853d
00000120: 9b9d 7abe fd57 0cbe c58c 683e 938e 103e
00000130: 3998 a4be 09d6 28be ad9d 233c 5b8a d4be
00000140: 00dc 153e a8da f9bc dae3 46bd d69a 143e
00000150: 2bdd 3fbd 4555 61bd 2639 11bd 77ea 903d
00000160: 6280 babe 6832 623d 8e4b b1bc 5177 efbe
00000170: b966 96be faa9 33bd 306a 0cbf 094e 80be
00000180: c192 13be 66d8 5cbd b847 a23c f9a7 fc3e
00000190: dc5a 803c 8316 0dbe 695e afbe bf3d 37be
000001a0: f7d3 c23c e583 653e 2cb6 fcbd 35c4 06bf
000001b0: 5726 87bd 50b5 883e b625 e4bd ce52 2fbd
000001c0: 8354 6a3e 49ab 43bd 02f1 cebe a219 87be
000001d0: c44c 3bbc e463 e1be ff5c babe 2e25 e0be
000001e0: 93ed b63c 9426 70be 1781 0ebe b561 96be
000001f0: d250 c33c 4f0e 6dbe d7d5 48be 57d5 5dbe
00000200: 2d5d d73d 52a3 82bd 23ae bebe ef82 b1be
00000210: d163 1cbd 89ca a1bc d198 ccbd 4561 a83d
00000220: f5bc 14be 1654 05be df33 c13c 6977 553d
00000230: 758a 733d b81b 103e c600 4abe 9042 803e
00000240: d38a 21be b420 8bbe 4c4b 073e cc8a e03d
00000250: 5915 453e 49ca 2a3e b980 89bd 3d4f 2d3e
00000260: 2506 66bd 3227 4ebe c973 dabd 6a5a 933d
00000270: b4a7 12be 9b95 843d a1af 6b3e 2a7d adbd
00000280: 34a7 9cbe 94f3 d4bd 33a4 e53d d606 f93c
00000290: 4fdd 653e c51a 81be 08c0 8a3d a805 16bb
000002a0: 310c 1bbb e2fa 823d 2e7c cf3e 99e9 cd3d
000002b0: d6a6 3b3e e1c6 963d 512f 62be 6301 353b
000002c0: 284d 5e3d d0b1 dcbc c258 50be 6e92 45be
000002d0: 0393 d43d 2685 a53c 02b8 c1bc cb8b 8cbc
000002e0: c5e2 73bd e81b 9abe 2695 013e 1809 37be
000002f0: 94bf 92bd 5724 4f3d 33ae 00be 0774 85be
00000300: 814f 563e 071c 9fbc af43 2d3c 36a2 17bc
00000310: f865 d33d ead4 1a3e e3ed 433e 48aa 563d
00000320: fb92 cfbd 71f7 273c 93bd db3d e6fa 273e
00000330: 7afc 87bd 8cda 2dbe 26b2 8ebe 812a 5cbe
00000340: 4c4c 01bf a9a3 96be 233f fcbd a063 a1be
00000350: fedf 14be d8d1 8ebe bbf8 62be 7d3d 7bbe
00000360: dff9 b5bd b635 933e c176 583e 104a 69be
00000370: a3f1 71be f07a febc 8d9b 93ba 3454 703d
00000380: 13d7 f63c 3304 873c 6c75 e0bd ae28 86be
00000390: 21c7 13bb e1a5 9d3a cf5a 96be ea61 b2bc
000003a0: f15b 28bb 5a5c e33c edd4 883d 2439 b0be
000003b0: 0fb2 d53b fdbe 5a3c f242 9ebd d90f 42be
000003c0: 5458 8d3d 8c28 1bbe 3c0d 593d f6f1 6dbe
000003d0: 783c 2abe bb72 a13d d3b1 423e 5a4f 90be
000003e0: d12e 0a3c d213 c4bc 9bef 5ebe 795f cc3d
000003f0: 690b 123e 8734 6b3e 80fa 6bbe dead 36bd
0.048344098 0.008766574 0.02400193 -0.051786568 -0.015475815 -0.04082104 -0.2767169 0.04988772
0.14785029 0.14054711 0.098399244 -0.30256546 -0.24182887 -0.43477964 -0.16406727 -0.048264913
0.04421791 0.09916853 0.09071472 -0.031574193 -0.11350256 0.061536025 0.04657131 -0.16209272
-0.21818237 0.11351352 -0.11846608 0.1349838 0.23305278 -0.13282287 -0.49267983 0.010839959
-0.16866054 -0.16424967 -0.12986541 -0.2077346 -0.3875199 0.032973796 -0.08228418 -0.016151344
-0.2563544 -0.19320183 0.04404213 0.10651286 -0.014653723 -0.15212376 0.0067651323 -0.11445618
0.15083958 -0.50349253 0.15951745 0.054540593 0.09304398 -0.065987594 0.09612148 -0.2303823
-0.1835061 -0.13842484 0.054674987 -0.03475766 0.05728477 -0.2506807 0.047476206 -0.07708172
0.2247723 -0.28531334 0.049224894 -0.009414352 0.22522695 -0.06143529 0.44402984 0.065103315
-0.24474184 -0.1370544 0.2270995 0.14116888 -0.32147387 -0.16487898 0.009986323 -0.41511807
0.14634705 -0.030499771 -0.04855714 0.1451219 -0.04684178 -0.05501296 -0.03545489 0.070759706
-0.36426073 0.055223852 -0.021642473 -0.4677072 -0.29375246 -0.043863274 -0.5484953 -0.25059536
-0.14411451 -0.05391731 0.019809589 0.49346903 0.015668325 -0.13778119 -0.34251717 -0.17894648
0.023782713 0.22413595 -0.12339434 -0.5264314 -0.065991096 0.2670083 -0.11140005 -0.042803578
0.22883801 -0.047770772 -0.4041825 -0.26386744 -0.011431877 -0.44021523 -0.36399075 -0.43778366
0.022330081 -0.23452216 -0.13916431 -0.2937142 0.023842249 -0.2314999 -0.19612823 -0.21663414
0.10515819 -0.06378807 -0.3724223 -0.34670207 -0.03818113 -0.019749897 -0.09990085 0.08221678
-0.14525206 -0.13020357 0.023584304 0.05211583 0.059458215 0.14073074 -0.19726858 0.25050783
-0.15775613 -0.27173388 0.13212317 0.109639734 0.19246425 0.16678728 -0.06714005 0.16924758
-0.056158204 -0.2013214 -0.106666155 0.071949795 -0.14321786 0.064738475 0.23016216 -0.08471139
-0.30596316 -0.10398021 0.11212959 0.030398767 0.22447704 -0.25215736 0.06774908 -0.0022891555
-0.002365839 0.06395508 0.4052443 0.10054321 0.18325362 0.07362152 -0.22088362 0.0027619235
0.0542728 -0.026940256 -0.20346358 -0.1929414 0.10379603 0.020205092 -0.023647312 -0.017156502
-0.059542436 -0.30099416 0.12654552 -0.17874563 -0.07165447 0.050571766 -0.12566452 -0.26065084
0.20928766 -0.019422544 0.010575219 -0.009254983 0.10322183 0.15120283 0.19133715 0.052408487
-0.10135456 0.010251866 0.10729518 0.16404304 -0.06639953 -0.169779 -0.2787029 -0.21500589
-0.50507045 -0.29421738 -0.1231673 -0.3152132 -0.14538571 -0.27894473 -0.22165196 -0.24535175
-0.0888555 0.28751916 0.21139051 -0.22782159 -0.23627333 -0.03106448 -0.0011261568 0.058674052
0.030131852 0.016481495 -0.109598964 -0.2620291 -0.002254911 0.0012027585 -0.29366156 -0.021775205
-0.0025689567 0.027753998 0.06681237 -0.34418595 0.0065214704 0.013351199 -0.077276126 -0.18951358
0.06901613 -0.15152186 0.052991137 -0.23236832 -0.1662463 0.07883211 0.19013147 -0.2818554
0.008434013 -0.023935232 -0.2177109 0.099791475 0.14262165 0.22969256 -0.23044777 -0.044599406

fc2.bias f4 [256]
00000000: aa8c 4abe e7ee e3bd aafa 0fbe fb15 56bd
00000010: ec97 f0bd ba4d 80be 2492 60bd a40c 47be
00000020: c985 85bd 5582 99bd 72d3 36be 21a3 eabd
00000030: e184 8ebe 6db1 4cbe 1e7e 20be ec4f 18be
00000040: 046c 5ebe 3801 d3bd 242a b6be 094d b8bd
00000050: 2e75 1dbe 3411 21be 7791 5abe f3d3 18be
00000060: dac7 71be 0acd 30be d3bf 21be caec 28be
00000070: f2fa 34be 16cf e0bd ecc7 26be 94d9 1abe
00000080: 5277 6bbd aa89 03be 9d13 eebd 0020 fabc
00000090: e979 a8be 7c53 53be 832f 34bd 8b74 dbbd
000000a0: 9bbb 37be 57b8 c6bd 2adf ddbd 4884 afbe
000000b0: b4c2 03be 3a73 e3bd 475e 74bd 6071 bebd
000000c0: 2b75 fdbd bb7f e2bd 4f19 d3bd 96ca 47be
000000d0: 45bf 6dbe a690 d3bd 06d1 2dbe d0b0 36be
000000e0: 5d17 90bd 591e 6abd 9737 b1bd bb05 04be
000000f0: f47a fa3c a59a 57be 18df c0bd 7701 41be
00000100: 35aa 1fbe 330a 69bd e29d 3dbe b5b5 5cbe
00000110: 8c97 c3bd 421d 41be 04c7 87bd b1cc 6dbd
00000120: c92d 14be 979e 6fbd d9a6 48be c36e 09be
00000130: 6c38 eebd 84c8 84bd c043 95be 415d 5dbe
00000140: 91dc bdbd c583 a1bd 1aba 47be 6a53 e3bd
00000150: a037 17be cef8 dbbd 74a8 eabd e890 98bd
00000160: 924c 4dbe 4e01 98bd 531f 7abd 84c3 8cbe
00000170: dfdc f2bd b807 1dbe d9bb 42be fee3 e2bd
00000180: 85ea 48be 57bd acbd 3191 24be 8045 7cbe
00000190: 1c7d 92bd 0a8f c8bd 16e3 0ebe 9320 063a
000001a0: c0b1 82be 8ca5 61be ea41 99be 7ea5 d4bd
000001b0: 6d95 e6bd 08aa 24be 665e 39be e31a 77be
000001c0: 0378 03be 8860 95bd 36e4 66be 8321 33be
000001d0: 57d3 0abe 3d2f 0abe 194a e3bd fd73 b2bd
000001e0: dffa 10be d8f8 a3bd 6149 28be fac1 b0bd
000001f0: 8efe 3cbe 211d 72be 590b f2bc a4c8 30be
00000200: 0bce 9abd c9fc b6bd ba6a 2ebe e475 0cbe
00000210: 134a 17bd f4aa 70bd 3eee 3dbd 50b0 debd
00000220: 4327 9ebe 5621 9bbe 84b3 dcbd f529 0abe
00000230: 612d fbbd cb1c bdbd 9cbd a13d 882b d0bd
00000240: 5b10 20be a852 9abd 2fb8 18be a009 b0bd
00000250: 0d52 0dbe dd2b 26be 3ce2 42bd 6676 6cbe
00000260: 6476 1dbe c147 fdbd 8b54 1fbe cd5f 4ebe
00000270: 3c49 dcbd bf72 11be 814e 0bbc f4b5 abbd
00000280: 03c9 8dbe a7ab 3fbe 433c babd 03c5 2abe
00000290: 0e02 1fbe 76e7 10be cddb 28be 7b2c 84bd
000002a0: 1f2b 70be 9f86 bcbd 96db 08be 7b25 4bbe
000002b0: 3aa4 abbd a77f 1bbe 9c2d 2bbe ecfa 3cbe
000002c0: cb8e 2abe fb4e 2abe fc4a 48be 6152 93bd
000002d0: 7883 f3bd a6af b3bd 4c8f 34be 52e4 f4bd
000002e0: 8ed8 94be f545 cfbd 1a18 1cbd 6cad 36be
000002f0: 3c7b b3bd 9329 dbbd 5443 a8bd 4f37 62be
00000300: f67d c3bd 74f7 98bd 824a fdbd 0747 fabd
00000310: 9794 7cbe f197 75be e9b6 7eba 715c 81bd
00000320: 5681 38be a7d8 ecbd ee0c 3fbd 0ae6 f9bd
00000330: 021e 49be 5155 a6bd 5030 16be 99fd 80be
00000340: db21 84be 9f6e 93bd 1d78 91bd db5d 3dbe
00000350: 47a7 71be dd30 07be 179d 8ebd 5a3c 03be
00000360: 2264 39be 420b b7bd 5cce 92bd 5d81 08be
00000370: cd32 74be 07e4 adbd 42e1 56be 36bd 39be
00000380: 3bf1 90bd 3408 66be 77ae a7bd d17b 4ebe
00000390: 5cda f8bd 291b 5fbe b3f0 60be 4e06 45be
000003a0: 8c8c 5bbd c592 3cbe fa69 1dbe 41b7 4cbe
000003b0: b58d 51be 900d 82be 2b90 19be aa96 56be
000003c0: 47ed 34be f037 53bd 06d8 cfbd 5aec ccbd
000003d0: ae08 eabd 0744 12bd 36b5 0cbe 92c3 c3bd
000003e0: dbae 68be af7e 01be eede 34be 899e f3bd
000003f0: 6a24 14be d86b 9bbc 271a 32be e0a6 f1bd
-0.19780222 -0.111295514 -0.14060465 -0.052267056 -0.11747727 -0.250593 -0.05482687 -0.19438416
-0.06519658 -0.07495562 -0.17854097 -0.114568956 -0.27835754 -0.19989558 -0.1567311 -0.14874238
-0.21720892 -0.10302967 -0.35579026 -0.08999068 -0.15376732 -0.15729219 -0.21344553 -0.14924602
-0.23611394 -0.17265716 -0.15795831 -0.16496578 -0.17673853 -0.109769985 -0.16287202 -0.15122062
-0.05748684 -0.12845483 -0.11624835 -0.030532837 -0.3290551 -0.20637316 -0.043990623 -0.10715588
-0.1794266 -0.09703129 -0.10833581 -0.3428061 -0.12867242 -0.11105962 -0.059660222 -0.09298968
-0.12375864 -0.11059519 -0.103075616 -0.19510874 -0.23217495 -0.10330324 -0.16974267 -0.17840886
-0.07035706 -0.057157848 -0.08653181 -0.12892811 0.030576207 -0.21055086 -0.09417552 -0.18848215
-0.15592273 -0.056894492 -0.18517259 -0.2155369 -0.0955039 -0.18858817 -0.06629756 -0.058056537
-0.1447059 -0.058500852 -0.19594897 -0.13421158 -0.11631855 -0.06483558 -0.29153252 -0.21617605
-0.09270585 -0.07886461 -0.19504586 -0.11099894 -0.14767313 -0.10740815 -0.11457911 -0.07449514
-0.2004874 -0.07422124 -0.06106503 -0.27492917 -0.11858534 -0.15334976 -0.1901697 -0.11078642
-0.19620712 -0.08434551 -0.16071011 -0.24635887 -0.07152769 -0.097929075 -0.13953814 0.0005116548
-0.25526237 -0.22035807 -0.299331 -0.10383128 -0.112589695 -0.16080487 -0.18102416 -0.2413135
-0.1283875 -0.072938025 -0.22547993 -0.17493252 -0.13557182 -0.13494582 -0.110981174 -0.08713529
-0.141582 -0.080064476 -0.16434242 -0.08630748 -0.1845648 -0.23643924 -0.029546427 -0.17264038
-0.07558831 -0.08934934 -0.170329 -0.13716847 -0.036935877 -0.058756784 -0.046369784 -0.10873473
-0.3088933 -0.3029887 -0.107764274 -0.13492568 -0.12264515 -0.092340074 0.07897493 -0.10164553
-0.15631239 -0.07535297 -0.1491401 -0.08595586 -0.13800831 -0.1622767 -0.047579035 -0.2309204
-0.15377194 -0.123672016 -0.15559594 -0.20153733 -0.10756156 -0.14203928 -0.0085026035 -0.08384314
-0.27692422 -0.18717824 -0.09093525 -0.16676717 -0.15528128 -0.14150795 -0.16490097 -0.064537965
-0.2345395 -0.092053644 -0.13365015 -0.19838516 -0.08380933 -0.15185414 -0.16716617 -0.18455094
-0.16656034 -0.16631691 -0.19559854 -0.07193447 -0.1189031 -0.08773737 -0.17632788 -0.11957611
-0.29071468 -0.10120765 -0.038108923 -0.17839593 -0.087637395 -0.10701289 -0.08215967 -0.22091411
-0.095455095 -0.07469073 -0.12367727 -0.12220579 -0.24666058 -0.23983742 -0.0009716587 -0.0631646
-0.18018088 -0.11564761 -0.04664319 -0.122020796 -0.19640353 -0.081217416 -0.14666867 -0.2519348
-0.2580708 -0.07198834 -0.07102988 -0.18492834 -0.23598967 -0.13202234 -0.06963556 -0.12815991
-0.18104604 -0.08937694 -0.07168266 -0.13330598 -0.23847504 -0.084907584 -0.20984367 -0.18138584
-0.07077261 -0.22464067 -0.081875734 -0.2016442 -0.12151024 -0.21787705 -0.2196682 -0.19240686
-0.053600833 -0.18415363 -0.15372458 -0.19991781 -0.20464213 -0.25400972 -0.14996402 -0.20955911
-0.17668639 -0.051567018 -0.10148625 -0.10006018 -0.11427437 -0.035709407 -0.13741001 -0.095587865
-0.22722952 -0.12645982 -0.17663166 -0.118954726 -0.14467016 -0.018972322 -0.17392789 -0.11799407

fc3.weight f4 [1, 256]
00000000: 90ab 7d3c 0c42 a2bb a2ad 34bb 01b8 673d
00000010: c2c3 bfbc 35eb 82bd c825 433c d32b 303d
00000020: e0b7 563c 9be3 46bc b5ce 3d3c 508a 5f3c
00000030: a04f 51bd ccee edbc 721a 653a a3f6 4abc
00000040: 5619 873c 7020 21bd aa41 54bd 8e90 1a3c
00000050: dcf1 a93d dcd4 9cbd 2ff8 14bd 71df 453d
00000060: 0d44 9e3c 80d8 d5bb c619 e1bd 3820 b03c
00000070: d8c5 2abd 84b6 1dba fae7 b1bd b95b 4ebc
00000080: 0226 a4bb 2aa4 4ebd 0fc2 07bc d8d8 b8bb
00000090: 5303 713c de05 6d3c 1544 88bc 9bf1 423d
000000a0: ba77 3ebc c6d5 123c b876 6c3c b2ce b9bd
000000b0: 8263 cd3b e557 fe3a c3cc 45bc 4aeb 3f3c
000000c0: 302d 7b3c 6722 e83c 1d4f 0d3c 5111 aebb
000000d0: a0a7 7ebc 4dd4 adbc c895 87bd c5a5 52bc
000000e0: 00ce 8ebd 879c 09bd 67a5 33bd 60bb 6dbc
000000f0: 2888 84bd d050 20bc f485 583c 306a aebc
00000100: 3b0b ddbb 777e ba3d fdbf cd3c 9f09 7abb
00000110: cc49 14bd 3819 633b e4d6 f7bc 6205 093d
00000120: 2bfe f9bc 1834 403c 76ce afbb c80e a0bc
00000130: 8239 17bc 2a01 a23a f4cb 453d e19f c73c
00000140: ef99 2e3c 5268 c73c 082a 933c b2d3 823c
00000150: 06d8 a53c f1fe adbc 42ed c43c d8ce 9a3b
00000160: a50a 9f3b e1cc 833c a116 bbbc f6ad 82bb
00000170: e1c6 6ebb a743 7f3c ec16 8c3b fd4e 80bc
00000180: c6a4 51bc d60c febc 196e 78bb 59a0 7dbb
00000190: 5d89 13bd bc6a 953c fe46 923c 95dd 3bbd
000001a0: a9d0 bc3c c062 90bd 3035 ea39 8783 983c
000001b0: 8f08 b73c 4fd0 813b 4508 2c3c 4dd0 783b
000001c0: 71b8 25bc 9e8a be3b 2272 88bc 9101 b63b
000001d0: 7c38 25bd 8ca4 fb3b 9ff0 6fbd dd38 c53c
000001e0: 6d15 ffbc d795 253a afc4 a83b dfac 093b
000001f0: 3158 56bd f378 d73c bea3 b13c ef31 963c
00000200: d35e 3fbd 8867 9a3b 98b0 0838 e9c0 a4bb
00000210: 11ea e63a b8e3 22bc f64c 853c 3145 0d3c
00000220: 27bc 99bd d418 45bd 7891 05bd 2d49 633c
00000230: bf81 883c bdbd baba a97b c73c 6d8a b7bc
00000240: 8f46 0f3c 541e 70bc e8c0 f8bc 0a22 9dbc
00000250: 3dce 3b3c c85c 983c aa2a 4fbc 1bd2 f5b8
00000260: 5f75 b838 cd72 99bd 0752 6cbc f581 04bd
00000270: 0673 2fbc 6185 813c 93ea 523c de58 2c3d
00000280: 7bde e4b9 061a dfbc 128d 2abd b654 cd3b
00000290: cf8f 1bbd 1530 bdbc 34ba ad3b 60e9 013d
000002a0: 3150 e13b 35f7 003d 75a3 04bd d361 5c3c
000002b0: 7ca1 203d 05de d63a 9bde 533c 5ebc f0bc
000002c0: a8ed fa3b fc84 6ebd f77d 9f3b d50f 883a
000002d0: d9ab b2bc e32f cb3c 4e54 a83b 1dfa 9a3c
000002e0: 8934 27bd a3ab 3c3c 592e 413c ccfa 8abd
000002f0: aabf e4bc a1cd 8b3c 2491 6a3c 4ebe e03c
00000300: f71b a0bc 7944 803c 4ad9 9a3c 40af 22bd
00000310: 8616 55bd 15ce a93c d4b9 68bd 5275 4fbd
00000320: fb5d be39 774e 17bc 8c11 adba 8e83 313c
00000330: 4912 f5bc b869 c53c 8eda 1f3d a761 b139
00000340: c6c5 7c3d 2741 643c c16c cd3b 622c 69bc
00000350: 93eb f9bd 4d4f 2ebc 3de3 e73c 0dc3 97bd
00000360: e3ad ebbd 4be2 8abd 7f38 debc 7424 7dbd
00000370: 19d6 28bc aa1e 933c dcc8 99bc 010f 333d
00000380: f0e2 213c b27c d4bc 02f5 8bbd 0e80 a1bb
00000390: bde7 8fbd 0ce7 5ebc f0c6 e13c 744c 993b
000003a0: ce15 27bd 350e e138 8569 1fbd 341f b9bc
000003b0: 219e 593c f3aa 043d af19 47bd 6989 863c
000003c0: 0f5b 6b3c c64d 8f3c 616b 623c e71a 29bd
000003d0: 078e 123c 71f9 e7bb 6ec5 ac3c b0d8 7fbb
000003e0: d0c7 28bd 7995 4e3b 076a fa3c 36e5 a2bb
000003f0: 3f80 bf3c bfb4 2fbd 48b2 b7ba 56fd babc
0.015482798 -0.004951721 -0.0027569314 0.056571964 -0.023408774 -0.063925184 0.011910863 0.043010544
0.013105363 -0.012139226 0.011584927 0.013643816 -0.051101327 -0.029044531 0.00087395974 -0.012387904
0.016491573 -0.039337575 -0.051820435 0.009433879 0.08298084 -0.07657787 -0.0363695 0.048308793
0.019319559 -0.006526053 -0.10991244 0.021499738 -0.041692585 -0.00060162717 -0.08686824 -0.012595111
-0.0050094137 -0.050449528 -0.008286013 -0.005641084 0.014710265 0.014466731 -0.016634027 0.047593694
-0.011625225 0.0089621 0.014432602 -0.09072627 0.006267966 0.0019404857 -0.012072745 0.011713812
0.015330598 0.028336717 0.008624819 -0.005312123 -0.015542895 -0.021219397 -0.066203654 -0.012856905
-0.06972885 -0.03359654 -0.04385891 -0.014510006 -0.06471282 -0.009784892 0.013215531 -0.021290869
-0.0067457235 0.091061525 0.025115961 -0.0038152707 -0.03620319 0.0034652483 -0.030253835 0.0334524
-0.030516705 0.01173117 -0.0053651882 -0.019538298 -0.0092300195 0.0012359966 0.048290208 0.024368228
0.010656818 0.024341736 0.017964378 0.015970085 0.02024461 -0.02123973 0.024038915 0.0047243647
0.004853564 0.016088905 -0.022837939 -0.003988023 -0.003643446 0.015580094 0.0042751934 -0.015662665
-0.012795633 -0.03101198 -0.003790742 -0.003870031 -0.03601967 0.018239371 0.017856117 -0.045865614
0.023048716 -0.07050085 0.00044671586 0.018617405 0.022342948 0.0039616 0.0105000185 0.0037965954
-0.010114775 0.0058148643 -0.016655985 0.005554386 -0.04033707 0.0076795276 -0.058579084 0.024074966
-0.031138146 0.00063165784 0.0051503996 0.002100758 -0.0523302 0.02630279 0.021684524 0.018334357
-0.04672129 0.004712049 3.2589393e-05 -0.0050278795 0.0017617365 -0.009941988 0.01627205 0.008622454
-0.0750659 -0.04811938 -0.032609433 0.013872427 0.01666343 -0.001424722 0.024350958 -0.022404874
0.00874485 -0.014655668 -0.030365422 -0.01918127 0.011462745 0.018598929 -0.012644449 -0.000117216456
8.795666e-05 -0.074926 -0.014423854 -0.0323505 -0.010708576 0.01581067 0.01287331 0.042076938
-0.0004365331 -0.027234089 -0.04163844 0.006266202 -0.037978943 -0.023094216 0.005301738 0.031716704
0.0068760146 0.031485755 -0.032382447 0.0134510575 0.039216504 0.0016393071 0.012931491 -0.029386695
0.0076577254 -0.058232293 0.004867311 0.0010380695 -0.021810459 0.024803108 0.005137003 0.018918091
-0.040821586 0.011515531 0.011790835 -0.06786117 -0.027923424 0.017065825 0.014316831 0.027434494
-0.019544585 0.01565765 0.01890244 -0.039717913 -0.052023433 0.02072815 -0.056817845 -0.050648995
0.00036309645 -0.009235016 -0.0013204082 0.010834588 -0.029915946 0.024098262 0.03902679 0.00033832827
0.06171205 0.013931549 0.006269068 -0.014231773 -0.12203135 -0.010639024 0.028306598 -0.0741025
-0.11507776 -0.06781443 -0.027126549 -0.061802343 -0.010304951 0.017958958 -0.018772535 0.04371548
0.009880766 -0.025938366 -0.06833841 -0.0049285954 -0.070266224 -0.013604891 0.027560681 0.0046783034
-0.04079228 0.00010731482 -0.03891899 -0.022597887 0.01328233 0.032389592 -0.04860848 0.016422944
0.014364972 0.01749314 0.013819546 -0.04128542 0.008944995 -0.0070792963 0.021090236 -0.0039039068
-0.04120618 0.0031522198 0.030568136 -0.0049711717 0.023376582 -0.042896982 -0.0014014924 -0.022825878

bn1.weight f4 [256]
00000000: ae99 3e3e ea50 2f3e 6d43 443e 6fe8 5c3f
00000010: 47cb 16be a59d bb3d b1ca 7b3d 4db4 573e
00000020: c799 0b3d 0457 ea3d 10d9 2b3e ff87 2e3e
00000030: d7dc 2f3d eafb d13d 7acd 003e bf7c 073e
00000040: 745e 683d d5a2 243e 55ba 4c3e facd b83d
00000050: c366 163e e274 253e a230 283e 31e7 8c3e
00000060: 7ca8 373e 57dc 953e 02af e23e f752 313e
00000070: 550d 083e 911f 5b3e 03e4 2f3e 36bb cbbd
00000080: f9bc 2a3e d01c 3d3d 20f9 093e d474 1d3c
00000090: 7a67 343e 78cc 843e 17a2 a63d 6dec fa3d
000000a0: 426d 9b3e b634 e33d 6f40 203e 762f ea3d
000000b0: ec75 303e 24b2 453e 18a7 df3e c11a 2a3e
000000c0: c1a6 36bc ec65 273e 0644 39be 063f 703e
000000d0: 10ee 103e 987f 933d 4dc1 2a3e ff31 edbb
000000e0: 1a89 a13d 48b2 053e f5d2 173d afb8 4c3e
000000f0: 529b 203e a9db 573e 9959 413e a4be 873d
00000100: e4a5 323e 4241 7a3d 2e97 f23e 82d0 9d3d
00000110: 31ec 3c3e 0264 d83d 03db ac3d 4eaf c93d
00000120: 6c49 0e3e 49ee f83d b7ff 213e 2bb8 403e
00000130: d3e9 8c3e 94b5 f03e 6727 1f3e 2df9 bd3e
00000140: 101c 853e 7e7a 923e 0083 103f 1b98 eb3d
00000150: 4247 213e a71b 263e 7105 3c3e 65cc 1b3e
00000160: 0c6f 683d c9ca 813d bbdf f53d a8ee 373e
00000170: 3470 923e ca55 8a3d 8ca1 013f 0000 a63d
00000180: c7b0 383e ea9b 543e e9f0 573e ada4 613d
00000190: 0b6b 053e bfaf cb3d b33a 523e f642 dd3d
000001a0: 7bdf 8c3e 5d47 7b3e d225 063e 3a38 8c3e
000001b0: e7d2 9e3d ce97 e53d f043 5ebe f70a 2d3e
000001c0: 3620 823a 6642 0b3e 52c9 1e3e 0f10 ef3d
000001d0: eeaa 91ba bba3 4d3e f284 8d3e 9ba4 213e
000001e0: 001e 483e 1862 073e 9cf5 0b3e 9a4f 663e
000001f0: 7653 893e 9c2c 9b3d 3510 043e 19d6 5d3e
00000200: 4ee9 cc3d 5fe3 5e3e 0dfe 453e 90dc 773e
00000210: 3dab b4bd 841a 643f fa27 ff3d 83fa 003e
00000220: be4b 6b3d 6aaa 763d 376b 8b3e fcb6 373e
00000230: dd0d bb3d bbfb 623e 0249 033e 7686 80bd
00000240: 8f1a 393e 449c b83d c647 7e3e f8e3 d43d
00000250: fa46 a13d 2aaf f23d 0b39 1a3e 6048 f53d
00000260: c59d 66bd 04dd 313d 45be 29be 9f0a e13d
00000270: b81f dd3e 882e f03d 5581 b73d bb0d 0e3e
00000280: 6f07 013e 7952 833d 43b2 003e 1e7a 003e
00000290: 3bce 5a3e 6343 443e 3198 ae3d f6ff 4b3f
000002a0: 2e0d 913d c9c3 1c3e d34f b13d 5317 003e
000002b0: 7a70 053e fca8 513d 0bcd 393e a31a 4e3e
000002c0: 3f87 fa3e 4874 2c3f 789b c13d a42b 373e
000002d0: 7433 d93d c671 b23d 4dd0 893e 8c52 113e
000002e0: eb50 7a3e 139c 0a3e 7243 033e b021 823d
000002f0: 6b2d 2b3e d690 d73d 8634 cb3d 8a4d 8e3d
00000300: 6c3e 0e3e 9a95 4b3d df8b 1e3e 113a e83d
00000310: 7672 0b3e e8a6 193e e4e5 873e 23dd bfbd
00000320: a8c9 373e c40e 6f3e 3554 4c3e e177 903e
00000330: 949c 2c3e 874e 283e 1f86 f93d 4838 f73d
00000340: 56c7 713d 38c6 273e c565 133e 8c3b 493e
00000350: 84c3 013e 5a4e 513e c004 163e 759e 513e
00000360: 292c c63d 3de1 da3d 59f3 4e3e b60f ce3d
00000370: 841a 013e 9ef2 9f3d 8b68 dc3d f556 c23d
00000380: 3c98 fd3d c7d8 d43e 8da6 b23d 6c5d f43e
00000390: ec4a 743e 610e 5a3e 42d6 423e 3df5 013e
000003a0: 724e 9c3d 3d76 063e 76a3 333f 1595 463e
000003b0: 2d58 373e 62a9 813e d4fe d63c 4596 293e
000003c0: 5990 4b3e 5f99 c13d ffdb ca3d 8367 0d3e
000003d0: 9e6d 8b3d cd72 d13d b417 913d fc81 133e
000003e0: c666 773e a7a7 ba3d 482e 24be 9eb8 563e
000003f0: eb2b 823e 660d 103e c282 cd3d 9dc1 2c3e
0.18613312 0.1712071 0.19166346 0.86292166 -0.14725982 0.09160928 0.0614726 0.21064873
0.0340822 0.11442378 0.16782022 0.17044066 0.04293522 0.10253127 0.12578383 0.1323118
0.056730703 0.1607774 0.19992955 0.09023662 0.14687638 0.16157869 0.16424802 0.27520135
0.17935365 0.29269668 0.44274145 0.17316805 0.13286336 0.2139876 0.17176823 -0.09947817
0.1667365 0.046170056 0.1347394 0.0096103735 0.17617598 0.25937247 0.08136385 0.12252126
0.30356795 0.11094038 0.1564958 0.11434834 0.17232484 0.19306237 0.4368217 0.16611768
-0.011148156 0.16347474 -0.18092355 0.23461542 0.14153314 0.07202071 0.16675301 -0.007238626
0.07887478 0.1305629 0.03706642 0.19992326 0.1568425 0.21079887 0.18881835 0.06628159
0.17446095 0.06109739 0.47380966 0.07705785 0.18449475 0.1056595 0.08440211 0.0984789
0.13895196 0.12154824 0.15820204 0.18820255 0.27522144 0.47013533 0.15542375 0.3710417
0.25997972 0.2860908 0.5644989 0.11503621 0.15749839 0.16221486 0.1836145 0.15214689
0.056746528 0.06337506 0.12005564 0.17962134 0.2860123 0.06754644 0.50637126 0.08105469
0.18036185 0.20762601 0.21087994 0.055088688 0.13029115 0.0994563 0.20530204 0.108037874
0.27514252 0.24538942 0.13100365 0.27386647 0.0775507 0.11210595 -0.21705604 0.16898714
0.0009927812 0.13599548 0.15506485 0.11672985 -0.0011113563 0.2008199 0.27640492 0.15785448
0.19542694 0.13221014 0.13667911 0.22491303 0.26821488 0.07576868 0.12896807 0.21663703
0.10005437 0.21766423 0.19335194 0.24205232 -0.088217236 0.8910296 0.12458797 0.12595563
0.05744528 0.060221113 0.27230236 0.17940897 0.091335036 0.2216634 0.12820819 -0.062756464
0.18076538 0.0901418 0.24832067 0.10395044 0.07874866 0.11849816 0.15060823 0.11976695
-0.056302804 0.043423668 -0.16576488 0.10988354 0.43188262 0.11727625 0.08960215 0.13872425
0.12600492 0.06412215 0.12568001 0.12546584 0.21367733 0.19166331 0.08525122 0.7968744
0.07082592 0.15309061 0.086578034 0.12508897 0.13031188 0.051186547 0.18144624 0.20127349
0.4893131 0.6736493 0.094534814 0.17887741 0.10605517 0.08713107 0.26916733 0.14191645
0.2444493 0.135361 0.12818697 0.06354082 0.16716544 0.10525672 0.099221274 0.06948383
0.13891 0.049703218 0.15483044 0.113392 0.13617882 0.15005076 0.2654258 -0.0936835
0.1794802 0.23345476 0.19953997 0.2821646 0.16856605 0.16436206 0.12183785 0.12071282
0.059027992 0.16384208 0.14394291 0.19651622 0.1267224 0.20440045 0.1465025 0.20470603
0.09676392 0.10687492 0.20210017 0.100615904 0.12607771 0.078099474 0.107621275 0.09489242
0.12382552 0.41571638 0.08723173 0.47727525 0.23856705 0.21294548 0.19027045 0.12691207
0.0763215 0.13131042 0.70171297 0.19392808 0.1790473 0.2532454 0.026244558 0.1656123
0.19879283 0.09453081 0.09905242 0.13809018 0.06808017 0.10226975 0.07084599 0.14405054
0.24160299 0.091140084 -0.1603328 0.20968863 0.25424132 0.14067611 0.10034706 0.16870733

bn1.bias f4 [256]
00000000: 3ea9 653d bfd9 793d f2a1 a23d d664 c23e
00000010: ca52 3ebd 3f0d 023d 4373 ad3d 38fc bc3d
00000020: eb26 9a3c d082 003d 7da2 753d 99b3 9a3d
00000030: 54a8 3b3c 04d2 5a3c 4f48 3b3d f10c 183d
00000040: 2618 e33b 38aa 213d 6c94 973d a58f 213d
00000050: 29fc dd3d a8d2 743d c941 503c 709e c23d
00000060: e995 793d 385a 163e c9e9 00bd 2c3f 683d
00000070: 6258 dcbc a2a8 143e a1cd d53d 108e 80bc
00000080: b779 923d 6905 233c 4b82 433d e427 3a3e
00000090: 30a2 b73d 7bc5 223e f412 c13c 2cf1 e53c
000000a0: 136b 173e a784 493c 87a1 773d c2c1 f33c
000000b0: 67c0 723d 736f e43d 1563 633e c782 783d
000000c0: 1cb9 45be 677d 1e3d 0363 ddbc 2dd5 5f3d
000000d0: f2a4 863d cd08 253c aa2b e83d bc44 3a3e
000000e0: 6842 153d aae1 e83c 2183 8a3c ac9f 023e
000000f0: a270 233d 235a bc3d bb11 993d 3cdd f33c
00000100: 1d2a 7f3c 2262 483c 7e61 a03d ad32 013d
00000110: a771 aa3d ee17 6a3d 98a7 b53c 4c0c 153d
00000120: 1270 603d 2e12 523d 549d 8f3d 6b3a d53d
00000130: 8f81 ff3d a044 efbd 153e 453d 8784 0f3e
00000140: 8370 753d fd2e 363d 6c5e 1d3e 433e fc3c
00000150: 8880 853d a6c2 b63d d37f 8d3d 2f0d 7a3d
00000160: 9ca1 833c 0c11 213d ff7e 133d 0b6c ba3d
00000170: 7f41 c43d f7ee 0a3d fb5f 243e 3b6d 773d
00000180: 4169 b73d 5a7c e33d c7de 953d e384 203c
00000190: 1aba 863d 6d32 1a3d b1ba d73d be8e 163d
000001a0: b2fd 003e 0b41 fd3d 42d9 8f3d 3825 143e
000001b0: 7d12 8f3b f67c 79be 7faf f0bc a347 093e
000001c0: 887e 3236 7b09 8c3d ca5a 2f3d 8d65 c53d
000001d0: 03bc 883a b524 733d 67ae c73d a086 9a3d
000001e0: 8ff0 973d 3f39 2e3d 3379 4f3d bd22 893d
000001f0: 9364 863d 5b63 1f3b 8e9d 0e3d 12cc 753d
00000200: 1fe6 db3c 5a65 f03d a08d a13e 864e c13d
00000210: 2e7c c1bc f9be 4f3e 01fa 833d 994b 243d
00000220: 8542 f23c 06e6 b63c 7835 c73d 10d5 983d
00000230: eb27 043d 84e9 493d 6175 573d 3a06 23be
00000240: dece 6d3d a7dc 9e3d 2c85 2f3e cb27 d93c
00000250: 3ddd 473d d7a5 d23c 403e 303d e3d0 303d
00000260: 600e d4bc 1889 9e3d 7180 8abd 51b8 4c3c
00000270: b423 763e 9d9d 353d 2d5c 273d 5b3a 663d
00000280: 8337 743d b5d6 903c b8c7 513d aa73 4d3d
00000290: 4d8f 423d f50b a23d 0259 db3c 90d5 6b3e
000002a0: 9d32 eb3c 1584 b33d 2cd2 123d fa6d 4a3d
000002b0: a32b 9f3d 4390 b13c e602 d33d ed4e f33d
000002c0: bebe 3e3e 7e55 343e f3a5 313d 8568 9c3d
000002d0: b431 4d3d a6ab 283d c403 043e 77f4 a33d
000002e0: f12d ad3d 360d 493d 2dcd c33d 2ff0 d53c
000002f0: da16 583d ced3 643d 3330 e23c afb0 103d
00000300: 2ab6 993d 61a1 ba3c b2ed a13d b25d 823d
00000310: e502 923d 46da 573d 9755 ab3d a9e0 76bc
00000320: 378e 853d e985 313d 3485 d53d 3056 fa3d
00000330: 08b5 bc3d f22e 283d e2fc 053d 4c7d 923d
00000340: d43c 5e3d 007f 9c3d e140 a83d af96 bc3d
00000350: 6f1f 033d 8ec0 ef3d 04af 163d 0d8a 8d3d
00000360: fbf6 b83c f608 e0ba bfc4 e23d 0532 5e3d
00000370: 3c73 973d d35b 013d ddcf 393d 8fe0 ba3c
00000380: 58d1 3f3d b1d9 063e 5b5e 333d 1beb 473e
00000390: f5e4 c23d 82f1 013e 7c84 a03d c1e6 9e3d
000003a0: 71b4 103d e432 bc3d a619 293e d367 e53d
000003b0: 0bbe 753d 0935 763d 3c70 823c 104c 743d
000003c0: e9d0 bd3d 8133 813c 295c 3e3d 22b7 b93d
000003d0: f2a7 ea3c 1f9f 1d3d 8acd b23c 17bb 4d3d
000003e0: bfc9 0d3e f7af bc3c c49a a5bb b857 443d
000003f0: 5dbe e33d cc9e a73d 4b6a 793c 3a28 6a3d
0.056069605 0.060998674 0.07941045 0.37967557 -0.046465673 0.031750914 0.0846925 0.092277944
0.018817386 0.031374753 0.059969414 0.07553787 0.011453707 0.013355736 0.045723256 0.037121717
0.006930369 0.039468974 0.07401356 0.03944363 0.10839111 0.05977121 0.012710997 0.09502876
0.06093398 0.14682853 -0.031472955 0.05670087 -0.026897613 0.14517453 0.10439611 -0.01569274
0.071521215 0.00995002 0.04773168 0.1817928 0.08966482 0.15895645 0.023568608 0.028069101
0.1478694 0.012299693 0.06045678 0.029755477 0.05926552 0.1115407 0.22205766 0.060671594
-0.19308895 0.03869381 -0.027024752 0.05464666 0.065744296 0.010072899 0.11336453 0.18190283
0.036440283 0.028427918 0.01690823 0.12756222 0.039902337 0.0919688 0.07474085 0.029768579
0.015574005 0.012230428 0.07831095 0.03154247 0.08322459 0.057151727 0.022174641 0.03638868
0.05479438 0.05128687 0.0701243 0.10411533 0.12475883 -0.11683011 0.04815491 0.14015399
0.059921753 0.044478405 0.1536805 0.030791407 0.06518656 0.08923845 0.06909146 0.06104773
0.016068272 0.039322898 0.036009785 0.09102639 0.09582805 0.0339193 0.16052239 0.060406905
0.089556225 0.111077026 0.07317882 0.009797308 0.06578465 0.037645746 0.105336554 0.036757223
0.12596777 0.123659216 0.070238605 0.14467323 0.0043662176 -0.24364075 -0.029380558 0.13406233
2.6597718e-06 0.06837746 0.042811193 0.0963851 0.0010432008 0.05936118 0.097500615 0.07545209
0.0741893 0.042535063 0.050652694 0.06696079 0.06562152 0.0024320695 0.034818225 0.06000907
0.026843129 0.11738081 0.31553364 0.09438805 -0.023618784 0.20287694 0.06444169 0.040111158
0.029572735 0.02232648 0.09726995 0.074625134 0.03226463 0.049294963 0.052602176 -0.15920344
0.058058612 0.0775693 0.17140645 0.026508233 0.048794974 0.025713844 0.043028116 0.04316796
-0.02588576 0.07740992 -0.067627795 0.012495116 0.24037057 0.044339765 0.04085939 0.056207996
0.059623253 0.017680505 0.051215857 0.050159134 0.047499944 0.07912437 0.02677584 0.23030686
0.028710658 0.08765427 0.035844967 0.049421288 0.07771995 0.021675235 0.10303287 0.11880288
0.1862745 0.17610738 0.043371152 0.07637123 0.05009623 0.04117932 0.12892061 0.08005612
0.08456028 0.049084865 0.095606185 0.026115505 0.052756168 0.055866055 0.027610874 0.03532475
0.07505448 0.02278203 0.07906665 0.06365527 0.07129458 0.052698396 0.08365934 -0.015068212
0.06521266 0.043340597 0.10425797 0.1222347 0.092142165 0.041060396 0.03271187 0.07152805
0.05425723 0.07641411 0.082155 0.09208428 0.0320124 0.11706649 0.036788 0.06911097
0.022578707 -0.0017092514 0.110726826 0.05424692 0.07395026 0.03158171 0.04536425 0.022812156
0.046830505 0.1316898 0.043791156 0.1952328 0.09516326 0.12689784 0.078377694 0.077588566
0.035328332 0.09189394 0.1651369 0.112014435 0.059995692 0.060109172 0.015922658 0.05964285
0.09268362 0.01577163 0.04647461 0.09068133 0.028644536 0.038481828 0.021826524 0.05022725
0.13846491 0.023033125 -0.00505385 0.047935218 0.11120293 0.08184585 0.015223096 0.05716727

bn1.running_mean f4 [256]
00000000: 0f04 833f 8c0b 7240 d2a9 f03f 9902 9c41
00000010: 9af7 ba3f 3dc8 d440 afa7 fb40 3f02 e640
00000020: bfea f740 ff1e 8e3f a573 f23f ba6e 8d40
00000030: d84c 7141 0bb7 aa3f 49f1 c83f cbe1 a63c
00000040: 083a 013e 620c e53e 6435 c240 b465 e240
00000050: 2b32 0240 52cb 1540 5062 073c f70e 9f3e
00000060: 880a 953f 3d0e 8740 bf12 3e41 508c c53f
00000070: 40a5 cb41 b8da 8040 cc5e 203f 8766 593e
00000080: ff86 8f3f 67e3 8941 b6c2 903e 52be 4441
00000090: d554 1b40 e812 8840 4673 933f 2100 e53d
000000a0: 4820 2841 8406 4c40 f5db 9f3f bdbc 103f
000000b0: 0d33 0040 b809 f73f 0dc1 0941 b1a3 2740
000000c0: 0512 4040 9df7 e33e c4b7 023e 3bf7 713e
000000d0: d829 9640 24a9 cb3e 1c78 ad3f 1729 8441
000000e0: e0fb ad40 0ae4 7440 8216 9640 71e4 403e
000000f0: 8382 0f3f e018 3540 9b55 3d40 897d d03f
00000100: 1ed0 213f 13d8 e23e 4276 8141 847f 1740
00000110: a180 4e40 a464 e940 b5a0 d03e 148b cd3f
00000120: 5408 ad3f 7ec8 f63e ea89 7f40 7250 3240
00000130: 9f27 1140 2e3c 6741 3cd4 ae3e c985 ff3b
00000140: f206 9d3f 45e3 743e ac23 a43f 92fa 6e3f
00000150: 4f82 2540 fd63 2e41 b21f 9b3f f33e 803f
00000160: 7214 523f 2c74 c040 c362 df3e 38cd 973f
00000170: 77df 4540 99b5 8a3f ff44 cc3f 89d2 6e40
00000180: e5d3 3040 05c9 f53e 53c9 e83f 9be7 093f
00000190: 1a39 4b40 409f f53f c6a9 8240 1aaa f73e
000001a0: 89c6 5c40 6f9d 5940 3824 d140 f75d 0840
000001b0: ccab e940 991b ed40 7177 1b3e f871 f640
000001c0: d2b4 9040 a87b c43f c670 c840 1280 d240
000001d0: ab96 0440 dea7 1f3d 9bbc 8b3f 85cf e83f
000001e0: 2148 5d3f b565 be3f a995 6f3f ac78 5d3f
000001f0: f05d 953f d34e 4341 96e3 ed3e 1cd1 ed3f
00000200: fb89 7b3e ae0e d63f b521 2a3e f432 3340
00000210: 4b5c 3040 6f4a b441 59d7 3340 c780 1740
00000220: a66b 0e40 c8be 0e3f 5970 a63f 1ecd 9840
00000230: b51b a740 df70 633f 0a1e eb3f c3f5 f13d
00000240: 8bf6 343f 7d73 943f d18a 2e40 b841 d83e
00000250: ec2e e03f ed5d 6c3f 9b31 383f 0e81 0240
00000260: 2328 7640 871f 8d40 2122 0e40 f0c3 1941
00000270: 78db fd40 3ad1 e33f 157a d83f 9467 5b40
00000280: c8d3 d03f 2b06 793f d46b fe3f 8f02 0e40
00000290: 2443 1d40 23f3 7b40 d28f 2b40 37cd fe40
000002a0: 90c7 a140 8475 f73f 835c cf3f 1829 8240
000002b0: 7391 e740 9d21 0a40 4f66 b33f 07fc a040
000002c0: 44a0 5b41 6605 8841 af20 9a40 8561 2640
000002d0: 2cec ae40 d8bd 5640 f587 0d40 f644 9e40
000002e0: bba6 e53f a389 1b3f 61ad 553f 2164 4040
000002f0: 1246 b83f 3b0b 3040 08a9 3b3f 1989 b940
00000300: b1c6 3640 fbf5 2a40 733c f13f 090d f840
00000310: 73c8 2b40 eebc 273f e127 2140 229a e03e
00000320: e46e 5f3f b2b8 f040 2bdf fe40 9be2 5440
00000330: 1c00 9740 f146 043f 6dec 873f 41ec aa3f
00000340: aba2 a340 2ddc 9840 0b68 1c40 f8b4 2c40
00000350: 34cf 323f 4675 8240 418c 073f f78b b43f
00000360: ce2d bd3e 146c 4740 967f c540 7ab2 4840
00000370: 756d ae40 fa8b 2640 181b 4340 be00 b93e
00000380: 71d7 8340 b595 b33e 9c97 8f40 5d72 9c3f
00000390: ab9d 5540 a4ec 3640 79f0 ca3f a3d9 7440
000003a0: afe9 653e 59da 7340 7cef 1b40 f9f7 e73f
000003b0: 2e9e 0b40 9db2 b93e ab9e 9540 3729 cd3f
000003c0: c81a ba3f 5f50 893e 6043 9040 1f4e 9e40
000003d0: 3280 2940 09e5 313f 8e36 0440 ba5c e73f
000003e0: 5359 5340 eca1 ce3f 68b3 283f a2b2 303f
000003f0: 6baa 8f40 a8fa b140 f1be 4a3e 779e 0940
1.0235614 3.7819548 1.8801825 19.501268 1.4606812 6.649443 7.864219 7.187774
7.7474055 1.1103209 1.8941542 4.4197664 15.081261 1.333711 1.5698634 0.020371338
0.12619793 0.4473601 6.0690174 7.074915 2.034312 2.3405347 0.008263186 0.31066105
1.1643839 4.220488 11.879577 1.5433445 25.455688 4.026699 0.6264465 0.21230517
1.1213073 17.236036 0.28273553 12.296465 2.4270527 4.252308 1.1519554 0.11181665
10.507881 3.1878977 1.2489 0.5653799 2.003116 1.9299841 8.609632 2.619366
3.0010998 0.4452485 0.12765414 0.23629467 4.692608 0.39777482 1.355228 16.520063
5.4369965 3.8264184 4.6902475 0.18837143 0.5605852 2.8296432 2.95835 1.628831
0.63208187 0.44305477 16.182743 2.367158 3.226601 7.293535 0.4074761 1.6058068
1.3518167 0.48199838 3.9927926 2.78616 2.2680433 14.452192 0.34146297 0.007797931
1.2267745 0.23914821 1.2823386 0.9335109 2.5860784 10.899411 1.2119048 1.001921
0.8206245 6.014181 0.43630037 1.1859503 3.0917642 1.0836669 1.5958556 3.7316
2.762933 0.48004928 1.8186439 0.53869027 3.1753602 1.9189224 4.0832243 0.48371965
3.4496176 3.400234 6.535671 2.1307352 7.3022213 7.409619 0.15182282 7.701412
4.522073 1.5350237 6.2637663 6.5781336 2.071696 0.03897845 1.0916933 1.818833
0.86438185 1.4874789 0.9358774 0.86512256 1.1669292 12.206744 0.46462697 1.857944
0.24564354 1.672323 0.1661442 2.799985 2.755633 22.536345 2.8100188 2.367235
2.2253203 0.5575986 1.3003036 4.7750387 5.222132 0.888441 1.8368542 0.118144535
0.70688695 1.1597744 2.7272227 0.4223764 1.751432 0.9233082 0.7195069 2.0391269
3.8461998 4.4100986 2.220833 9.610336 7.9330406 1.7798226 1.6912256 3.428197
1.631463 0.97275037 1.9876657 2.2189062 2.457223 3.936715 2.680653 7.9625506
5.0556107 1.9332738 1.6200107 4.0675163 7.236505 2.1583016 1.4015597 5.030765
13.726627 17.002636 4.8164897 2.5997021 5.4663296 3.3553371 2.2114232 4.945918
1.7941507 0.6075689 0.8346768 3.0061114 1.4396384 2.7506855 0.73304796 5.7979856
2.8558772 2.6712635 1.8846573 7.751591 2.6841094 0.6552266 2.518059 0.43867594
0.8727858 7.522546 7.964742 3.326331 4.7187634 0.5167075 1.0619026 1.3353349
5.113607 4.776877 2.4438503 2.6985455 0.69847417 4.0768156 0.52948385 1.4105214
0.3694901 3.1159716 6.1718245 3.1358933 5.4508615 2.6022935 3.0485287 0.3613338
4.120049 0.35075155 4.487257 1.2222401 3.3377483 2.8581934 1.5854636 3.8257835
0.22452424 3.810202 2.436492 1.812255 2.1815295 0.36269084 4.6756186 1.6028203
1.4539423 0.2681913 4.5082245 4.9470363 2.6484494 0.69490105 2.0658298 1.8075173
3.302327 1.6143165 0.6589875 0.6902257 4.489553 5.5618477 0.19799401 2.150297
