checkpoints/checkpoint_actor_agent_0.pth (torch_old, 296357 bytes, 10 tensors)

fc1.weight f4 [256, 24]
0.088741 0.038292244 -0.030354774 0.075931765 0.0013188212 -0.019284861 0.0060263476 0.042508736
0.047829956 0.011396526 -0.0032809789 0.0002537205 0.0011004325 0.030798668 0.005298837 0.02293393
0.0012757787 0.013850862 -0.028988872 0.049406163 0.013673803 0.088399306 0.020770581 0.05252645
0.06287014 0.021584315 0.06617514 -0.03973488 0.110953376 -0.12878421 -0.020584146 0.04353338
0.038316976 0.074591435 0.0033061828 -0.039237794 0.017595058 -0.04890089 0.0005954625 0.012884174
-0.041086122 0.038192395 0.0016934957 -0.0029630037 0.0053893784 -0.08507558 0.028788397 -0.0134661645
0.046317834 -0.049827836 -0.026892366 0.07750164 0.0071569355 -0.035686895 0.016362423 0.015177599
0.063326694 -0.070043154 0.011203005 -0.021104466 0.08734526 0.012501176 -0.024703963 -0.03203171
0.018727453 -0.10884752 -0.028412882 -0.00092498685 0.08837855 0.0027794018 0.023853268 0.034742143
0.035362545 -0.013979733 -0.016061973 -0.027317744 -0.008280104 -0.041508444 -0.014698984 0.060236733
0.008353824 -0.04588801 -0.025377972 0.014276325 -0.08717135 -0.070225865 -0.090173215 0.0874974
0.07970196 0.03991565 0.019180179 0.08198719 -0.022184392 0.06927436 -0.026518403 0.048281986
-0.031884916 0.017009042 -0.0034735247 -0.05564196 -0.051682625 0.044277392 0.035683013 -0.07835297
0.0036006893 -0.014636094 0.009081535 -0.07572053 -0.11625281 -0.0054990123 -0.046838254 -0.100478835
-0.0395268 0.044856276 0.015985306 -0.005457103 -0.07358238 -0.069171615 0.0004728258 -0.025673924
0.025461955 0.046656497 -0.014327216 0.005940798 -0.079114705 -0.037197772 0.04825384 0.03830698
0.028938666 0.116548635 0.007987877 0.031360522 0.04754918 -0.058508717 0.0123008555 -0.025357177
0.047182664 0.102596365 0.073629946 -0.024194798 0.018469721 -0.04035054 0.0025768213 -0.093683064
0.058605038 0.037652325 -0.04905965 0.05953623 -0.08120856 -0.052638274 0.012043954 0.0413411
0.009913264 0.041540485 0.0027680187 0.0033086354 -0.019079074 -0.059194926 -0.006189334 -0.037916765
0.07681946 0.10454134 0.032230973 -0.030504514 -0.023385838 -0.06748835 -0.05157736 -0.08161885
-0.0028623375 0.08136613 -0.0072709518 0.0662191 -0.053917486 -0.117431946 0.0059634 -0.00034063242
0.04940548 0.02288836 0.01962723 0.016470345 -0.048465934 -0.084876806 -0.027717711 0.023157695
0.013337788 -0.022469979 -0.049621582 -0.06552492 0.018331666 -0.13162349 0.055376813 -0.008834281
-0.025836844 0.061085954 -0.06674132 -0.08947993 -0.05218756 -0.057967484 0.031868044 -0.06089544
-0.02992946 0.039638396 -0.052358814 -0.031678904 -0.002792655 -0.07583806 0.0132575 -0.040777374
0.025139235 0.07574762 0.014183051 0.01793142 0.021245493 -0.020259256 0.0034281008 0.022332322
-0.0089766905 0.028588189 0.023726517 -0.0020601258 0.05116677 0.02739095 -0.026562076 0.021385144
0.067080736 -0.041460816 0.016790146 0.046026833 0.0018007042 -0.051075906 -0.025817588 -0.03912154
0.07901217 0.0389729 0.017420344 0.015004718 -0.06687938 -0.08256619 -0.022525461 -0.018637935
0.07753334 0.020519262 0.007065942 0.019543478 0.064386636 -0.13910042 0.00047970438 0.045951426
0.0006681668 0.021478342 -0.019748544 0.055792388 -0.020275865 -0.101519264 0.061911076 0.035530694
00000000: d7bd b53d 54d8 1c3d 93aa f8bc 1d82 9b3d
00000010: 4cdc ac3a 49fb 9dbc ab78 c53b a41d 2e3d
00000020: 58e9 433d 7fb8 3a3c b105 57bb ca05 8539
00000030: 633c 903a 7d4d fc3c dea1 ad3b f0df bb3c
00000040: 0838 a73a baee 623c 127a edbc 1e5e 4a3d
00000050: 1608 603c b20a b53d 1127 aa3c fa25 573d
00000060: 0fc2 803d 97d1 b03c d586 873d 0bc1 22bd
00000070: 863b e33d 02e0 03be 15a0 a8bc 0f50 323d
00000080: 43f2 1c3d 65c3 983d 8bac 583b cfb7 20bd
00000090: 8323 903c 4d4c 48bd d018 1c3a 2418 533c
000000a0: ec49 28bd a16f 1c3d 49f8 dd3a f42e 42bb
000000b0: 6299 b03b 1b3c aebd a5d5 eb3c 30a1 5cbc
000000c0: c5b7 3d3d 4618 4cbd 614d dcbc 2eb9 9e3d
000000d0: ba84 ea3b 6c2c 12bd 7d0a 863c 77ab 783c
000000e0: 6db1 813d c972 8fbd cf8c 373c 46e3 acbc
000000f0: 12e2 b23d bcd1 4c3c f75f cabc af33 03bd
00000100: 516a 993c 73eb debd 22c2 e8bc d17a 72ba
00000110: d0ff b43d a026 363b ee67 c33c c74d 0e3d
00000120: 51d8 103d 400b 65bc 6694 83bc 76c9 dfbc
00000130: 46a9 07bc c204 2abd 02d4 70bc cbba 763d
00000140: 7ade 083c 11f5 3bbd 77e5 cfbc 3fe7 693c
00000150: e586 b2bd 94d2 8fbd bcac b8bd d631 b33d
00000160: c83a a33d 987e 233d c01f 9d3c e6e8 a73d
00000170: 0bbc b5bc b7df 8d3d 1f3d d9bc 55c3 453d
00000180: c299 02bd 8c56 8b3c 13a4 63bb d3e8 63bd
00000190: 29b1 53bd 365c 353d 5a28 123d 8677 a0bd
000001a0: 8bf9 6b3b 3acc 6fbc b8ca 143c 5d13 9bbd
000001b0: f415 eebd 0f31 b4bb 78d9 3fbd d9c7 cdbd
000001c0: dbe6 21bd 37bb 373d 9ef3 823c 7fd1 b2bb
000001d0: 5cb2 96bd d9a9 8dbd 9be5 f739 1f52 d2bc
000001e0: 9795 d03c e21a 3f3d b3bc 6abc 07ab c23b
000001f0: e406 a2bd b15c 18bd d2a5 453d c8e7 1c3d
00000200: c810 ed3c 0db1 ee3d 96df 023c e473 003d
00000210: eec2 423d d6a6 6fbd 8789 493c dbb9 cfbc
00000220: 9c42 413d 0b1e d23d 4ccb 963d 2b34 c6bc
00000230: d04d 973c 9c46 25bd e3df 283b e8dc bfbd
00000240: d60b 703d 5339 1a3d c6f2 48bd 43dc 733d
00000250: ac50 a6bd 3b9b 57bd 0154 453c 4955 293d
00000260: 3e6b 223c 5b26 2a3d a667 353b b1d5 583b
00000270: b84b 9cbc 6176 72bd e6cf cabb 9c4e 1bbd
00000280: 8553 9d3d c519 d63d a004 043d 9ae4 f9bc
00000290: a893 bfbc 5537 8abd c842 53bd c927 a7bd
000002a0: 0e96 3bbb 49a3 a63d 2a41 eebb e19d 873d
000002b0: 95d8 5cbd 2980 f0bd a068 c33b e996 b2b9
000002c0: 675d 4a3d 5f80 bb3c 49c9 a03c d1ec 863c
000002d0: 3784 46bd e4d3 adbd 4110 e3bc 35b5 bd3c
000002e0: bd86 5a3c f612 b8bc 0040 4bbd ee31 86bd
000002f0: 4a2c 963c 4fc8 06be ccd2 623d a9bd 10bc
00000300: caa7 d3bc 4435 7a3d acaf 88bd 4141 b7bd
00000310: 9fc2 55bd 506f 6dbd 1188 023d 7f6d 79bd
00000320: a02e f5bc df5b 223d 3276 56bd bdc1 01bd
00000330: fa04 37bb fc50 9bbd fc35 593c 2d06 27bd
00000340: ccf0 cd3c 9121 9b3d 0760 683c eae4 923c
00000350: 070b ae3c bdf6 a5bc fda9 603b 46f2 b63c
00000360: f812 13bc c731 ea3c 1d5e c23c 2d03 07bb
00000370: 3f94 513d fc62 e03c b698 d9bc e62f af3c
00000380: a061 893d d1d2 29bd 7d8b 893c a286 3c3d
00000390: 9b05 ec3a f834 51bd 687f d3bc e83d 20bd
000003a0: 22d1 a13d 0ca2 1f3d 1cb5 8e3c 59d6 753c
000003b0: 0ef8 88bd 7618 a9bd 5187 b8bc 95ae 98bc
000003c0: cdc9 9e3d 0318 a83c 6b89 e73b a519 a03c
000003d0: 24dd 833d 5770 0ebe d580 fb39 9037 3c3d
000003e0: ea27 2f3a 59f3 af3c b3c7 a1bc 8f86 643d
000003f0: 9219 a6bc 55e9 cfbd 7896 7d3d a288 113d

fc1.bias f4 [256]
-0.08986536 0.09318296 -0.06376465 -0.0023999838 0.025100188 -0.23176907 -0.2971098 -0.05176787
-0.23053777 -0.14361803 0.064007945 -0.0915435 0.063557446 -0.20020911 0.041810792 0.11049707
-0.10919967 -0.011324219 -0.1744752 -0.34413666 0.09670543 -0.29511228 -0.09968513 -0.24817075
0.041891526 -0.25099373 0.046878032 0.010641447 -0.15119067 -0.10258447 -0.11001 -0.12057125
-0.07927106 0.015880631 -0.18223135 0.017877227 -0.18948017 0.16845953 -0.21562058 -0.018874427
-0.13203481 -0.18956397 -0.00014931033 -0.13719796 -0.14752276 -0.2389188 -0.16161236 -0.20580848
0.10052399 0.117022805 -0.18030249 0.17222634 -0.12962256 -0.16626647 0.034400977 -0.15857355
0.119375005 -0.024529321 -0.17190386 0.15535286 -0.061091784 0.042663954 -0.11043703 -0.17655206
0.067551754 -0.10298464 -0.14889081 0.10985927 -0.17908159 -0.18728146 -0.04704187 -0.19185409
-0.24571185 -0.10281499 -0.100292906 0.08190363 0.005148868 0.2177068 0.08614537 -0.035779327
-0.1295934 -0.15758005 -0.25843033 -0.27880615 0.08706862 -0.18499774 -0.12638955 0.076033935
-0.21580243 -0.056208804 -0.0008749124 -0.0049087196 -0.100117154 0.03331329 -0.22876157 -0.22008888
0.098063156 -0.10842205 0.20116195 -0.042514585 0.08357575 -0.07903799 0.06148913 -0.028308406
-0.1303381 0.15776025 0.067500666 -0.05302024 0.05732766 -0.09091522 -0.1022279 -0.21165225
-0.0863736 -0.23156115 -0.08367652 0.027162937 0.10890098 -0.20851398 -0.2335557 0.17098737
-0.12044255 -0.06100707 -0.009646904 0.12787196 -0.036308657 -0.031448 -0.013810388 0.031620696
-0.06399441 -0.2298125 -0.19958769 -0.009424843 -0.16755217 0.109470986 0.11003838 0.15628462
0.069493406 0.023031222 0.04150925 0.053625286 -0.048498653 -0.22030896 0.04865954 0.028985584
-0.00044303673 -0.16642153 -0.05199288 -0.16652495 -0.052813284 0.1077564 0.07841486 0.10910164
0.032390844 -0.14768559 0.1962178 -0.12696023 0.2051931 -0.04386896 -0.093976125 0.17962992
-0.1720537 0.0038115492 -0.14483899 -0.023594765 -0.15143588 0.11936523 -0.050036207 0.0784209
-0.007200099 0.15734564 -0.04658587 -0.27649134 -0.16438492 -0.3080363 -0.25521508 -0.16766736
0.014922567 0.10620385 -0.20247982 0.0032012719 -0.16468115 0.06765644 0.0397672 0.0033714708
0.13110931 -0.19506478 -0.23986548 -0.2205173 -0.047393814 0.16176234 0.14607693 -0.043577258
-0.046388667 -0.13456465 0.16535679 -0.19765949 -0.16649462 0.09884298 0.12064856 0.0748762
-0.0213 -0.07965261 -0.02728899 -0.16944635 0.14768344 0.1296989 -0.12391386 0.040051617
-0.052181866 -0.26554194 -0.03218652 -0.06372006 0.12379876 -0.051094886 -0.08448694 -0.26182184
0.121340334 0.1060547 0.002418518 -0.032548487 -0.10430143 0.019902682 0.104302086 -0.12488777
-0.020600293 -0.27401012 0.054382857 -0.04675421 -0.052982662 -0.19089594 0.06817764 0.14456661
-0.19043143 -0.070916295 -0.025974821 0.008585632 -0.11602581 0.009054217 0.009219726 -0.048548147
-0.19887854 -0.2506804 0.0619754 -0.010929782 -0.17478094 0.17682144 -0.015216664 -0.19505541
-0.093295135 -0.16706586 -0.155587 -0.2522001 0.040538646 0.07814561 -0.24402179 0.14148206
00000000: 540b b8bd b5d6 be3d 0a97 82bd 0c49 1dbb
00000010: e99e cd3c df54 6dbe c71e 98be 8c0a 54bd
00000020: 1812 6cbe 9b10 13be 9916 833d 297b bbbd
00000030: 682a 823d 9e03 4dbe cb41 2b3d 4a4c e23d
00000040: 14a4 dfbd 3889 39bc a0a9 32be ae32 b0be
00000050: 7f0d c63d f518 97be b827 ccbd 7920 7ebe
00000060: 7396 2b3d 4082 80be 2e03 403d 7759 2e3c
00000070: bad1 1abe ce17 d2bd ec4c e1bd 0fee f6bd
00000080: de58 a2bd 1918 823c db9a 3abe 4373 923c
00000090: 1707 42be a880 2c3e a4cb 5cbe 8b9e 9abc
000000a0: 2234 07be 0f1d 42be 3090 1cb9 9f7d 0cbe
000000b0: 3510 17be 21a7 74be b67d 25be 75bf 52be
000000c0: 86df cd3d a7a9 ef3d 37a1 38be 1a5c 303e
000000d0: c7bb 04be c241 2abe 0ae8 0c3d 1b61 22be
000000e0: e27a f43d b7f1 c8bc 9107 30be d214 1f3e
000000f0: 613b 7abd 66c0 2e3d cf2c e2bd 10ca 34be
00000100: 9358 8a3d 9ce9 d2bd d576 18be e6fd e03d
00000110: 2a61 37be b6c6 3fbe faae 40bd 6675 44be
00000120: e39b 7bbe aa90 d2bd 5e66 cdbd 17bd a73d
00000130: d6b7 a83b 88ee 5e3e fc6c b03d 588d 12bd
00000140: 22b4 04be aa5c 21be fb50 84be aebf 8ebe
00000150: 0851 b23d 0c70 3dbe 436c 01be aeb7 9b3d
00000160: 50fb 5cbe 343b 66bd 615a 65ba 53d9 a0bb
00000170: 390a cdbd 8473 083d 7940 6abe fb5e 61be
00000180: 56d5 c83d 610c debd 66fd 4d3e c623 2ebd
00000190: c329 ab3d abde a1bd 07dc 7b3d 08e7 e7bc
000001a0: 5a77 05be e78b 213e ca3d 8a3d c02b 59bd
000001b0: 69d0 6a3d c231 babd dc5c d1bd 5ebb 58be
000001c0: a4e4 b0bd 5e1e 6dbe 985e abbd cf84 de3c
000001d0: 7a07 df3d b084 55be 3a29 6fbe 5017 2f3e
000001e0: 95aa f6bd 8de2 79bd 0c0e 1ebc def0 023e
000001f0: 63b8 14bd 9ecf 00bd f744 62bc b484 013d
00000200: 800f 83bd f853 6bbe b760 4cbe a86a 1abc
00000210: cc92 2bbe 5332 e03d cd5b e13d 1309 203e
00000220: 8f52 8e3d f9ab bc3c 9a05 2a3d 30a6 5b3d
00000230: 86a6 46bd ac98 61be 3a4f 473d 2d73 ed3c
00000240: 6247 e8b9 686a 2abe 7cf6 54bd 8485 2abe
00000250: be52 58bd 63af dc3d f897 a03d ae70 df3d
00000260: 43ac 043d e43a 17be 52ed 483e dd01 02be
00000270: 241e 523e f0af 33bd 8e76 c0bd e8f0 373e
00000280: d82e 30be 2fcb 793b ac50 14be cf49 c1bc
00000290: 0212 1bbe c275 f43d c4f2 4cbd 239b a03d
000002a0: cfee ebbb 371f 213e d3d0 3ebd 4690 8dbe
000002b0: 8554 28be efb6 9dbe 8dab 82be feb0 2bbe
000002c0: c87d 743c 6781 d93d df56 4fbe 6ecc 513b
000002d0: 2da2 28be 768f 8a3d eee2 223d e5f3 5c3b
000002e0: 8541 063e 10bf 47be 4c9f 75be 49cf 61be
000002f0: 0420 42bd 07a5 253e 3195 153e 117e 32bd
00000300: 0b02 3ebd 51cb 09be 4a53 293e 4067 4abe
00000310: 917d 2abe 306e ca3d 9816 f73d b158 993d
00000320: 567d aebc e820 a3bd 298d dfbc 5883 2dbe
00000330: 543a 173e cacf 043e 8dc6 fdbd 2a0d 243d
00000340: a7bc 55bd 1df5 87be 03d6 03bd aa7f 82bd
00000350: 348a fd3d df48 51bd 7d07 adbd 830d 86be
00000360: 4881 f83d 3533 d93d 0080 1e3b 9051 05bd
00000370: fd9b d5bd f30a a33c 559c d53d 29c5 ffbd
00000380: f2c1 a8bc 0e4b 8cbe 8fc0 5e3d 5881 3fbd
00000390: 5904 59bd 3a7a 43be b8a0 8b3d 4509 143e
000003a0: 7500 43be 903c 91bd 26c9 d4bc c0aa 0c3c
000003b0: f19e edbd 2358 143c 550e 173c 6cda 46bd
000003c0: d1a6 4bbe 2e59 80be ebd9 7d3d d412 33bc
000003d0: c6f9 32be ae10 353e 514f 79bc 9bbc 47be
000003e0: 8511 bfbd 5013 2bbe 3352 1fbe 5f20 81be
000003f0: da0b 263d ce0a a03d d9e0 79be ace0 103e

fc2.weight f4 [256, 256]
-0.018388797 0.047252383 0.027941773 0.10019467 0.068585165 0.07839809 -0.035774052 0.28423232
-0.12660152 -0.057084054 -0.032811176 0.06607663 0.06448708 0.12901667 -0.06824535 0.033808786
0.0771528 0.05455308 -0.24035746 -0.11449631 -0.017450333 0.1171033 -0.15640879 -0.01049309
-0.063791335 0.044954706 -0.00071841007 0.08328901 -0.065439045 0.06266982 0.09980909 0.18729594
-0.03582148 0.013951191 -0.0011763693 -0.034418296 0.015546863 -0.06778745 0.10158675 -0.1499634
-0.06637938 -0.017832259 0.04769462 0.13715225 0.054810308 0.085623614 -0.09954529 0.18888555
-0.017013397 -0.011820206 -0.0124095315 0.012816519 0.06082062 0.023514476 0.067583784 -0.02817288
-0.01761117 0.057348773 -0.14887792 -0.07490679 -0.072013594 0.13368693 -0.021102095 0.094569206
0.069812685 0.07204036 -0.0054737283 -0.25174323 0.05652157 -0.13073897 0.03532093 0.035168387
0.0058121826 3.251551e-05 -0.06165335 0.029100092 0.13508858 -0.021543432 -0.015657905 -0.021708708
0.0796299 0.119024515 0.0941616 -0.03064602 0.01467138 0.10080569 0.03673763 0.17767687
0.0765539 -0.040396556 -0.068898536 0.08974283 -0.06773291 -0.15043157 -0.040963273 0.005591498
0.099870585 -0.02207348 0.08765764 0.016562365 0.023786739 0.04876288 -0.021565806 0.088805914
-0.01089953 0.04706758 -0.04913388 0.05079404 -0.074625246 -0.022088796 -0.010151001 0.02419789
0.08880439 -0.035757188 0.044481765 0.047167704 0.020244572 -0.025693165 0.018369714 0.015365892
0.05020723 -0.16767499 0.14428873 -0.13261844 -0.047429524 0.040193204 -0.016760988 0.08045411
0.040395774 0.010161227 0.18540205 0.016965233 0.07098706 -0.0026227182 -0.12999834 -0.13019274
0.06052948 0.07050107 0.004787281 0.082449526 0.16919933 0.03634435 0.1148524 0.087396
0.02546515 0.03814733 -0.016290862 -0.007696123 0.048149955 -0.087633714 0.060736626 0.040051095
-0.17767599 -0.2576369 0.11103476 -0.061468426 -0.018785458 0.08024483 -0.16749527 0.035449177
0.18851201 -0.019364921 -0.29578552 0.056539636 -0.053711377 0.07694864 -0.070172966 -0.22477484
-0.0628147 -0.05305468 -0.024917336 0.059145093 0.0012195224 0.027538942 0.014376413 -0.049252164
-0.033875793 0.002816381 0.17572021 0.035466757 0.15045358 -0.005263494 0.059987735 0.046622783
0.09451154 0.04657327 -0.02006325 0.11648323 0.14720854 -0.0888898 0.046365768 0.09596915
-0.02365132 -2.0853706e-05 0.10680494 0.005988369 0.07429356 -0.18133684 -0.08157486 0.023366682
0.16152182 0.050637837 -0.011448747 -0.10440491 0.005931582 0.102064505 0.09500067 0.008066382
-0.17611678 0.0024375448 0.009814277 -0.1707811 -0.056712363 0.048552953 0.07481097 0.15506202
0.014337442 0.058475018 0.00043093716 -0.053047102 0.09958744 -0.009062926 0.12797906 -0.023006566
-0.06431523 0.08030577 0.11588485 -0.0138722 0.07495898 0.0052442746 0.1359265 0.03470713
-0.14544562 -0.030817198 0.08876845 0.09287178 0.07889877 0.115143955 0.12559804 0.0764192
0.00650675 0.09037737 -0.025619145 0.04794982 -0.025878413 0.026695693 0.09884689 -0.033973552
-0.07565427 0.07819693 -0.07284738 0.035932623 -0.22968924 -0.06793509 0.036287248 0.027490245
00000000: 1aa4 96bc b78b 413d 25e6 e43c dd32 cd3d
00000010: 6176 8c3d 2e8f a03d d087 12bd e686 913e
00000020: d4a3 01be f8d0 69bd 0365 06bd 2f53 873d
00000030: cd11 843d f21c 043e 38c4 8bbd 157b 0a3d
00000040: 4a02 9e3d 0d73 5f3d 4420 76be 0b7d eabd
00000050: 00f4 8ebc dbd3 ef3d a029 20be 36eb 2bbc
00000060: 08a5 82bd 6d22 383d af53 3cba 6e93 aa3d
00000070: e804 86bd 0959 803d b568 cc3d 82ca 3f3e
00000080: 8bb9 12bd 8993 643c 6730 9aba 33fa 0cbd
00000090: 45b8 7e3c 26d4 8abd b70c d03d 0190 19be
000000a0: eaf1 87bd f514 92bc 6f5b 433d a471 0c3e
000000b0: c680 603d 6f5b af3d 67de cbbd 376b 413e
000000c0: ae5f 8bbc 8aa9 41bc 5951 4bbc 60fc 513c
000000d0: 0b1f 793d 6ea1 c03c 5e69 8a3d d0ca e6bc
000000e0: 4d45 90bc 8ce6 6a3d 7473 18be bb68 99bd
000000f0: dd7b 93bd 3ae5 083e 4dde acbc 80ad c13d
00000100: f4f9 8e3d e589 933d f65c b3bb 7de4 80be
00000110: 2983 673d 70e0 05be aeac 103d ba0c 103d
00000120: 1f74 be3b 4361 0838 3988 7cbd 5163 ee3c
00000130: a954 0a3e da7b b0bc 0245 80bc 76d6 b1bc
00000140: 0015 a33d 20c3 f33d ccd7 c03d 5d0d fbbc
00000150: 3a60 703c 3773 ce3d 327a 163d edf0 353e
00000160: 4bc8 9c3d dc76 25bd ad1a 8dbd 17cb b73d
00000170: 8db7 8abd bc0a 1abe 1bc9 27bd e338 b73b
00000180: f388 cc3d 71d3 b4bc d985 b33d ccad 873c
00000190: 68dc c23c 96bb 473d c6aa b0bc e0df b53d
000001a0: f193 32bc efc9 403d 9b40 49bd 690d 503d
000001b0: 1fd5 98bd 90f3 b4bc 6250 26bc a73a c63c
000001c0: 13df b53d 2176 12bd 8332 363d ec32 413d
000001d0: f2d7 a53c 797a d2bc 157c 963c 39c1 7b3c
000001e0: 19a6 4d3d feb2 2bbe 6dc0 133e 21cd 07be
000001f0: 7645 42bd a1a1 243d 574e 89bc 20c5 a43d
00000200: 0a76 253d 467b 263c 09da 3d3e acfa 8a3c
00000210: aa61 913d e9e1 2bbb 491e 05be 3f51 05be
00000220: c3ed 773d dd62 903d a0de 9c3b 4cdb a83d
00000230: 9742 2d3e d0dd 143d bc37 eb3d adfc b23d
00000240: 4a9c d03c 6040 1c3d 6a74 85bc c22f fcbb
00000250: e338 453d 4e79 b3bd f8c6 783d 9e0c 243d
00000260: b2f0 35be fce8 83be 3166 e33d 51c6 7bbd
00000270: f6e3 99bc 6757 a43d e183 2bbe 2833 113d
00000280: 4b09 413e 2fa3 9ebc 3371 97be 1b96 673d
00000290: 7600 5cbd 4097 9d3d d8b6 8fbd 602b 66be
000002a0: fea4 80bd dd4f 59bd 711f ccbc 2042 723d
000002b0: 62d8 9f3a 5999 e13c 0c8b 6b3c a3bc 49bd
000002c0: 58c1 0abd 0893 383b 00f0 333e 9745 113d
000002d0: 8110 1a3e 6379 acbb b3b5 753d 88f7 3e3d
000002e0: 448f c13d 9dc3 3e3d af5b a4bc c28e ee3d
000002f0: d6bd 163e db0b b6bd 08ea 3d3d 798b c43d
00000300: 6ac0 c1bc feee aeb7 8cbc da3d 153a c43b
00000310: 3927 983d 5db0 39be b810 a7bd 7c6b bf3c
00000320: fa65 253e 9f69 4f3d 8693 3bbc 3ed2 d5bd
00000330: b75d c23b 3207 d13d b68f c23d dc28 043c
00000340: f557 34be 37bf 1f3b 10cc 203c 3ee1 2ebe
00000350: 394b 68bd 76df 463d 7e36 993d 94c8 1e3e
00000360: 97e7 6a3c 8083 6f3d 68ef e139 eb47 59bd
00000370: 80f4 cb3d ab7c 14bc f10c 033e 4478 bcbc
00000380: b4b7 83bd 5a77 a43d 0955 ed3d 3948 63bc
00000390: 1884 993d 2ad8 ab3b 5130 0b3e 1029 0e3d
000003a0: b2ef 14be 5974 fcbc 3ccc b53d 8f33 be3d
000003b0: ae95 a13d 98d0 eb3d c69c 003e ab81 9c3d
000003c0: 9336 d53b c517 b93d 3edf d1bc 0867 443d
000003d0: f7fe d3bc edb0 da3c 3d70 ca3d da27 0bbd
000003e0: a0f0 9abd b625 a03d 0231 95bd 162e 133d
000003f0: a833 6bbe 8d21 8bbd f0a1 143d 3933 e13c

fc2.bias f4 [256]
0.16164671 0.16436562 0.06481358 0.0577835 0.022264726 0.034728106 0.12755014 0.02159718
0.08374995 0.041327577 0.08329638 0.14763908 0.12962952 0.17054549 0.017408993 0.024923105
0.06587734 0.099443905 0.09049392 0.11841888 0.13411734 0.111196704 0.06863338 0.1504861
0.08869791 0.07528404 0.08746756 0.022147374 0.046254974 0.028174018 0.097572505 0.0722211
0.052286405 0.04168956 0.092407934 0.1361293 0.15749238 0.040678333 0.072962575 0.09678965
0.08785828 -0.020484881 0.10116479 0.065474756 0.021428198 0.10771454 0.09010976 0.122640386
0.08777645 0.1115529 0.1266174 0.018702807 0.00898723 0.1128598 0.090137474 0.10920909
0.108489886 0.023749508 0.075888455 -0.01031881 0.06046709 0.082844324 0.021701386 0.07612014
0.025857825 0.06512419 0.030540403 0.089313194 0.096820876 0.12576663 0.13680358 0.10863976
0.03679837 0.043220222 0.010973472 0.10027144 0.13895719 0.106045604 0.07393239 0.08422705
0.006187019 0.1076363 0.017087717 0.017267399 0.09019688 0.10989033 0.0855719 0.058659058
0.019193297 0.05597219 0.050696753 0.028722167 0.04082495 0.11861758 0.10305544 0.047174226
-0.00717417 0.019150112 0.060248617 0.040316835 0.07978574 0.049241588 0.085632645 0.012950626
0.08796541 0.012436392 0.033521 0.01865838 0.0644623 -0.011057423 0.08221669 0.103274554
0.08015828 -0.0022659742 0.014554504 0.084075764 0.1277522 0.043864947 0.10345159 0.11424983
0.20389879 0.08013622 0.0917317 0.06758083 0.11985784 -0.001940881 0.080507144 0.050829437
0.023962086 0.039855167 0.0070093074 0.12116735 0.103391044 0.05567981 0.10723793 0.15330745
0.14177385 0.127826 0.08290384 0.059649475 0.121705435 -0.0069303294 -0.0030674767 0.0027747035
0.12589644 0.06969305 0.10205448 0.054785293 -0.015156551 0.10376753 0.083993055 0.022385404
0.058892917 0.034703262 0.11562621 0.10364564 0.095875815 0.10450332 0.12318869 0.06054602
0.13342293 0.13389806 0.024396878 0.047247812 0.02481761 0.06023412 0.13345873 0.07241063
0.13857237 0.12262545 0.077830985 0.09238589 0.11837161 0.030974498 0.02487064 0.07666241
0.036138598 0.012928698 0.14145282 0.058644403 0.02371606 0.10910174 0.16308261 0.100163914
0.12934166 0.12071694 0.04809481 0.02517106 0.16030285 0.040575836 0.023056198 0.11249324
0.09628817 0.040363323 0.1065962 0.12277375 0.14375246 0.04064852 0.07832706 0.0890491
0.07425724 0.0751062 0.116892435 0.1980814 0.07519266 -0.011500831 0.008154379 0.08030364
0.03596378 0.11974742 0.095578775 0.03278525 0.038250957 0.06296414 0.10190015 0.063939855
0.052987106 0.009996178 0.103517935 0.04364493 0.06116424 0.053505085 0.105070755 0.12997985
0.0662411 0.1404175 0.14408529 0.045640726 0.100542985 0.110441126 0.15853168 0.1175927
0.08390091 0.06018143 0.12897824 0.0640458 0.033362005 0.12619287 0.12479026 0.12974443
0.010954003 0.107631296 0.094540976 0.113329336 0.14050105 0.07688221 0.05047161 0.13728827
0.06587014 0.08469684 0.08788145 0.12345981 -0.0108582955 0.108514644 0.17437935 0.11025714
00000000: b786 253e 764f 283e fbbc 843d 64ae 6c3d
00000010: 8464 b63c 0f3f 0e3d 819c 023e 92ec b03c
00000020: 1885 ab3d 1b47 293d 4b97 aa3d b32e 173e
00000030: 9abd 043e 7aa3 2e3e 4e9d 8e3c 8a2b cc3c
00000040: b3ea 863d 3fa9 cb3d e054 b93d 9985 f23d
00000050: 0e56 093e 19bb e33d a88f 8c3d 0719 1a3e
00000060: 40a7 b53d 852e 9a3d 3122 b33d 696e b53c
00000070: db75 3d3d 33cd e63c 18d4 c73d a8e8 933d
00000080: 452a 563d acc2 2a3d 5f40 bd3d 7b65 0b3e
00000090: af45 213e 539e 263d 676d 953d a739 c63d
000000a0: 0bef b33d e9cf a7bc 7c2f cf3d a117 863d
000000b0: 308a af3c 7199 dc3d 778b b83d e22a fb3d
000000c0: 24c4 b33d d975 e43d fea7 013e a136 993c
000000d0: 2d3f 133c 0a23 e73d ff99 b83d 04a9 df3d
000000e0: f22f de3d 548e c23c 686b 9b3d 3a10 29bc
000000f0: 57ac 773d 49aa a93d 1bc7 b13c e0e4 9b3d
00000100: cad3 d33c d55f 853d de2f fa3c d6e9 b63d
00000110: 064a c63d f8c8 003e 3d16 0c3e 867e de3d
00000120: e3b9 163d b007 313d 14ca 333c 1d5b cd3d
00000130: cb4a 0e3e 702e d93d dd69 973d 3b7f ac3d
00000140: 7abc ca3b 6c70 dc3d 8afb 8b3c 5c74 8d3c
00000150: 24b9 b83d 2e0e e13d 5240 af3d 7b44 703d
00000160: 433b 9d3c 1843 653d 66a7 4f3d c04a eb3c
00000170: 1038 273d c6ed f23d bb0e d33d c339 413d
00000180: 4d15 ebbb b2e0 9c3c 41c7 763d 4423 253d
00000190: b566 a33d 8cb1 493d 2b60 af3d dd2e 543c
000001a0: 3527 b43d 02c2 4b3c 514d 093d 75d9 983c
000001b0: cf04 843d 322a 35bc 3961 a83d 9c81 d33d
000001c0: 062a a43d bd80 14bb 0476 6e3c ea2f ac3d
000001d0: 79d1 023e bbab 333d 6dde d33d d1fb e93d
000001e0: d8ca 503e 751e a43d d4dd bb3d d167 8a3d
000001f0: 0778 f53d 2965 feba eee0 a43d 8732 503d
00000200: 234c c43c 2c3f 233d 55ae e53b 9626 f83d
00000210: afbe d33d 8310 643d 8f9f db3d a1fc 1c3e
00000220: 2a2d 113e d2e4 023e 7dc9 a93d 0253 743d
00000230: b340 f93d d117 e3bb b807 49bb cdd7 353b
00000240: ffea 003e 3bbb 8e3d f001 d13d 8b66 603d
00000250: 2f53 78bc 1284 d43d 8d04 ac3d 9861 b73c
00000260: b339 713d 0225 0e3d 6fcd ec3d 2a44 d43d
00000270: 8a5a c43d d605 d63d 5a4a fc3d 1aff 773d
00000280: 05a0 083e 931c 093e f6db c73c ec86 413d
00000290: 4d4e cb3c 0db8 763d 68a9 083e 064c 943d
000002a0: eae5 0d3e 0d23 fb3d da65 9f3d d034 bd3d
000002b0: d16c f23d 3bbe fd3c 83bd cb3c 2e01 9d3d
000002c0: 1106 143d e4d2 533c 02d9 103e 1d35 703d
000002d0: 2f48 c23c bc70 df3d 21ff 263e bd22 cd3d
000002e0: 2472 043e 713a f73d 10ff 443d 8a33 ce3c
000002f0: 6e26 243e d932 263d 5ae0 bc3c db62 e63d
00000300: bb32 c53d 0354 253d 1c4f da3d ce70 fb3d
00000310: d833 133e 107f 263d f069 a03d 605f b63d
00000320: 2e14 983d 48d1 993d 4d65 ef3d dad5 4a3e
00000330: 9cfe 993d fb6d 3cbc f299 053c 3c76 a43d
00000340: c24e 133d 233e f53d cebe c33d d449 063d
00000350: 09ad 1c3d 58f3 803d 07b1 d03d e6f2 823d
00000360: 0209 593d 02c7 233c 3601 d43d 07c5 323d
00000370: 5b87 7a3d 2628 5b3d 562f d73d 7019 053e
00000380: 6aa9 873d 9bc9 0f3e 188b 133e c5f1 3a3d
00000390: 7be9 cd3d f52e e23d 2156 223e 71d4 f03d
000003a0: 3ed4 ab3d ce80 763d df12 043e 722a 833d
000003b0: 99a6 083d b438 013e 0992 ff3d b9db 043e
000003c0: 6b78 333c cc6d dc3d b39e c13d 3619 e83d
000003d0: 82df 0f3e 6c74 9d3d 52bb 4e3d 4c95 0c3e
000003e0: ede6 863d 8975 ad3d 31fb b33d 7fd8 fc3d
000003f0: fee6 31bc ed3c de3d 8090 323e 7fce e13d

fc3.weight f4 [2, 256]
-0.14049345 0.23573652 0.15449858 0.31856698 -0.11102961 -0.20856278 0.19114438 0.15203379
-0.13112934 -0.18518639 -0.15371594 0.18364523 -0.24223642 0.17490101 0.29172468 0.21591392
-0.17981552 -0.14412364 0.24224408 0.134906 0.25408942 -0.21223858 -0.16627 0.25650287
0.15840197 -0.12881416 -0.15040307 -0.19496742 0.2819993 0.074051544 -0.19392332 -0.17945504
0.23737384 0.20425579 0.047274966 -0.20232604 -0.12306145 0.090687 -0.1618244 0.03101144
0.25752753 0.1077783 0.050535668 -0.1752664 -0.15977342 0.17032702 -0.15685555 0.21970503
0.25486237 -0.15943344 0.04819487 0.14477535 0.082906336 0.042225983 -0.16529214 -0.17505783
-0.1623196 0.12361301 -0.1946638 -0.18097728 0.4055155 0.23483585 -0.16131838 0.16805391
0.16251701 0.24242787 0.1903715 0.19210179 0.15498416 -0.1286798 -0.18688712 0.20027198
0.07421356 0.15959853 0.17737013 0.22191557 0.21145724 0.23949008 0.15727355 0.15234724
0.19617333 0.072253615 0.26067492 0.23059903 0.31163353 0.09268362 -0.19664745 0.15660952
0.16575214 0.25822544 0.14431141 -0.20298919 0.19577314 0.14924799 -0.19093251 0.12110855
0.19942832 0.1299823 -0.18545732 0.2750205 0.2143926 0.243773 -0.2118879 0.16882662
-0.1891176 0.1816557 0.20853579 0.20322455 0.29134282 0.1637745 0.13547881 0.188069
0.21183975 0.08976737 -0.134724 0.26304948 -0.20936652 0.16732918 -0.20856985 -0.14989187
-0.14746812 0.016424987 0.04284097 -0.18221755 -0.18914889 0.09468939 0.14865476 0.10366979
-0.08294399 -0.123071626 0.18963341 0.19402608 0.2783801 0.26888236 0.1737957 -0.13393676
-0.04363146 -0.1720844 0.08912744 0.19942889 0.19132017 0.0841493 0.16696545 0.18523471
0.16192979 0.15841539 0.113628455 -0.19911204 0.272763 0.1242652 0.19055456 0.18117715
-0.2241424 -0.16733386 -0.13661766 -0.22141153 0.29978013 0.122854754 0.05611512 0.23464936
-0.18957612 -0.155165 0.22053066 0.2016971 0.29592878 -0.19106428 -0.16365606 0.0594975
-0.19642085 -0.21053956 -0.17452379 0.17808281 -0.12648813 0.224744 -0.16040277 0.2053142
-0.12439212 0.059194315 -0.119710945 0.10978749 0.15781677 0.22167778 0.2275531 0.19324484
0.3311458 0.35976478 -0.16280769 0.08068857 0.047074884 0.13641717 0.24877107 0.30242598
-0.15960489 -0.17580383 0.073291495 -0.15940762 -0.2171908 0.16173647 0.1893436 0.17091247
-0.12522432 -0.19252825 -0.1569899 -0.1325075 0.25197548 0.10342158 -0.18909712 -0.20984854
0.12852964 -0.15811956 0.2009222 0.16197185 0.2652182 -0.15427871 -0.17835006 -0.13829282
0.24208166 0.06611778 0.0710782 -0.1629398 0.037131097 -0.19093393 0.18341176 0.13064103
0.044490997 -0.18668272 0.032912895 -0.1345113 -0.13928433 -0.19095865 0.119238466 -0.17791232
-0.12989889 -0.18658999 -0.15994604 0.123883225 -0.15852214 -0.15069965 -0.021947367 -0.16761424
-0.15971884 -0.17861988 0.24882105 0.08793715 0.23103103 -0.16844244 -0.15292849 0.17862996
0.31516498 0.19167577 -0.1674575 -0.14747015 0.19032961 0.12650193 -0.15983742 0.21344736
00000000: 84dd 0fbe ea64 713e e034 1e3e 361b a33e
00000010: 7e63 e3bd 7b91 55be 5abb 433e bfae 1b3e
00000020: c546 06be 80a1 3dbe b667 1dbe 7f0d 3c3e
00000030: d30c 78be 4019 333e f05c 953e 8a18 5d3e
00000040: 8f21 38be 2695 13be d50e 783e cc24 0a3e
00000050: 0218 823e 1255 59be af42 2abe 5854 833e
00000060: 2034 223e dce7 03be 4303 1abe 8aa5 47be
00000070: 3662 903e 56a8 973d d693 46be 10c3 37be
00000080: 2112 733e 6e28 513e 65a3 413d 8f2e 4fbe
00000090: a407 fcbd 1bba b93d 4cb5 25be b40b fe3c
000000a0: a6da 833e dfba dc3d 7dfe 4e3d 0979 33be
000000b0: a59b 23be 356a 2e3e be9e 20be 5bfa 603e
000000c0: 527d 823e 8542 23be fc67 453d fd3f 143e
000000d0: ccca a93d 27f5 2c3d 5842 29be 5c42 33be
000000e0: 1c37 26be d128 fd3d f255 47be 1c52 39be
000000f0: ba9f cf3e cf78 703e a530 25be 5316 2c3e
00000100: dc6a 263e 033f 783e bff0 423e 55b6 443e
00000110: 2bb4 1e3e a3c4 03be 565f 3fbe 1914 4d3e
00000120: 47fd 973d cc6d 233e 84a0 353e d63d 633e
00000130: 3f88 583e e33c 753e 510c 213e ea00 1c3e
00000140: a9e1 483e b4f9 933d 2f77 853e 2722 6c3e
00000150: 6e8e 9f3e e9d0 bd3d f35d 49be 3f5e 203e
00000160: eeba 293e 2036 843e 5fc6 133e 66dc 4fbe
00000170: c178 483e 77d4 183e d083 43be c207 f83d
00000180: f036 4c3e 141a 053e 86e8 3dbe 7dcf 8c3e
00000190: bc89 5b3e a19f 793e 24f9 58be e3e0 2c3e
000001a0: 0ba8 41be f403 3a3e 688a 553e 191a 503e
000001b0: e32a 953e 81b4 273e f5ba 0a3e 2995 403e
000001c0: 85ec 583e f4d7 b73d 17f5 09be 6cae 863e
000001d0: 2d64 56be 5758 2b3e 5693 55be 417d 19be
000001e0: e201 17be b28d 863c 037a 2f3d 3d97 3abe
000001f0: 3fb0 41be 83ec c13d f438 183e d450 d43d
00000200: 8ade a9bd fa0c fcbd 432f 423e c6ae 463e
00000210: d687 8e3e f3aa 893e 80f7 313e b826 09be
00000220: e7b6 32bd e536 30be 7288 b63d 1637 4c3e
00000230: 6fe9 433e 7856 ac3d fef8 2a3e 2bae 3d3e
00000240: ecd0 253e a537 223e 09b6 e83d 07e4 4bbe
00000250: 98a7 8b3e c17e fe3d bc20 433e 8186 393e
00000260: 9685 65be 9159 2bbe 80e5 0bbe b4b9 62be
00000270: c87c 993e 469b fb3d f8d8 653d ec47 703e
00000280: 3e20 42be 93e3 1ebe cad2 613e af89 4e3e
00000290: fa83 973e 5ba6 43be 7495 27be a7b3 733d
000002a0: 8c22 49be af97 57be 5db6 32be 575b 363e
000002b0: 1b86 01be 4b23 663e a040 24be e33d 523e
000002c0: 4cc1 febd bd75 723d 032b f5bd 43d8 e03d
000002d0: b89a 213e 80ff 623e ae03 693e fae1 453e
000002e0: f18b a93e 1733 b83e 0fb7 26be 0d40 a53d
000002f0: 98d1 403d f1b0 0b3e d8bd 7e3e 94d7 9a3e
00000300: 776f 23be eb05 34be da19 963d c03b 23be
00000310: 4467 5ebe 3f9e 253e 4ae3 413e ae03 2f3e
00000320: ce3a 00be 2026 45be f6c1 20be 0cb0 07be
00000330: ee02 813e b1ce d33d ada2 41be 89e2 56be
00000340: 469d 033e 18ea 21be 8dbe 4d3e f3db 253e
00000350: aeca 873e 3dfb 1dbe 66a1 36be a29c 0dbe
00000360: 41e4 773e c268 873d 7391 913d b1d9 26be
00000370: c716 183d 2f84 43be 4bd0 3b3e c3c6 053e
00000380: 313c 363d c129 3fbe accf 063d 55bd 09be
00000390: 8da0 0ebe aa8a 43be 4c33 f43d a62e 36be
000003a0: 3704 05be 7211 3fbe e5c8 23be 7db6 fd3d
000003b0: a153 22be 0251 1abe f7ca b3bc 11a3 2bbe
000003c0: 568d 23be 21e8 36be f2ca 7e3e 6418 b43d
000003d0: 6693 6c3e 2d7c 2cbe 4999 1cbe c6ea 363e
000003e0: 4e5d a13e a746 443e fb79 2bbe 6a02 17be
000003f0: c4e5 423e b989 013e 6cac 23be f291 5a3e

fc3.bias f4 [2]
0.02690942 0.0011246479
00000000: 2571 dc3c ec68 933a

bn.weight f4 [256]
1.1497748 0.6025691 0.7951513 1.0287881 0.7432856 0.33682188 1.0740379 0.43793043
0.6042725 0.9883071 0.49359044 0.5743014 0.34486625 0.41960782 0.6513082 0.2890965
0.6903961 0.6752185 0.46055543 0.5866658 0.41067895 0.65120274 0.41658634 0.89721143
0.8277767 0.4904874 0.924819 0.8604187 0.7787365 0.3608231 0.7363696 0.18185507
0.7175147 0.23755264 1.0340277 1.0713176 1.0472485 0.8284672 0.7293097 0.43527144
0.46624243 0.3013094 1.0704393 0.21569446 1.0729253 0.91977465 0.59672594 0.38555008
0.52034473 0.827164 0.478052 0.629089 0.9742401 0.96464825 0.88979834 0.45699397
0.6388094 0.824635 0.77322847 0.34065348 0.81750864 0.6477908 0.32268283 0.26364955
0.89192337 0.40195686 0.3790762 0.70964295 0.6702327 0.26962745 0.95818 0.48203623
0.8866275 0.96152663 0.34644637 0.41923496 0.90605104 0.46838105 0.8168486 0.44250873
0.32211417 0.42029276 0.43434626 0.41077423 0.8943633 0.61314505 0.7860966 0.25843108
0.32405555 0.70847386 0.4963204 0.9113281 0.1909098 0.34518716 0.3691822 0.70090985
0.3892702 0.71742105 0.9219533 0.353941 1.0581944 0.9370634 0.4939513 0.43453187
0.53480476 0.3371792 0.62900203 0.9801478 0.9597655 1.0166897 0.4987151 0.8768209
0.32733884 0.42827868 1.052515 0.5955523 0.38003415 0.47301775 0.99662876 1.0361573
1.0099244 0.8483544 1.0011519 1.0235467 0.4424227 0.92149055 0.96326435 0.79481435
0.34810922 0.44039398 0.31309733 0.510119 1.0107249 0.8605929 0.72895074 0.88330984
0.9159513 1.0472237 0.3543456 0.8052203 0.83307135 0.6389687 0.29468906 0.44824615
0.41458598 0.37318513 0.48283777 0.64561826 1.0837153 0.57722354 0.20103228 0.324757
0.3379115 0.28649202 0.31736776 0.29383233 0.84773105 0.71489155 0.6573079 0.66530174
0.7125456 0.7046157 0.4033742 0.816243 0.36808643 0.6612038 0.68758297 0.35912657
0.73880935 0.31601578 0.749417 1.0796641 0.5385831 0.9400021 0.8301258 1.049436
0.73678344 1.1191697 1.2016126 0.9489764 0.37058905 0.36469132 0.6315953 0.8009996
0.3635274 0.8661048 0.31921 0.41787153 0.3201013 0.3252745 0.9880606 0.27522987
0.9139554 0.70544237 1.1175935 0.8410504 0.8505841 0.32324696 1.0508654 0.84102917
-0.27221596 0.550395 0.54790455 0.6499823 0.97928834 0.99677885 0.9186121 0.56532574
0.95455205 0.409723 0.64308226 0.70339245 1.085538 1.0671263 0.82039315 0.42392626
0.9373973 0.41857255 0.5107325 0.6574895 0.6845387 0.78340024 0.35302365 0.78851855
0.9366449 0.7537743 1.0928568 0.563504 0.82601553 1.0695652 0.7937919 1.0464853
0.55204797 1.0486736 0.70321333 0.6606178 0.71669215 0.20484155 0.5044747 0.804025
0.26719064 0.6793333 1.020799 0.6726007 0.4582861 0.5793434 0.3242284 1.0961016
0.33726585 1.0314407 0.58655953 0.48589477 0.334602 0.9473013 0.3029675 0.22534536
00000000: d22b 933f f841 1a3f 098f 4b3f 54af 833f
00000010: f747 3e3f eb73 ac3e 137a 893f 6b38 e03e
00000020: 9ab1 1a3f b201 7d3f e3b7 fc3e 6b05 133f
00000030: 4f92 b03e d6d6 d63e 22bc 263f 7504 943e
00000040: ccbd 303f 1fdb 2c3f eccd eb3e bb2f 163f
00000050: 8344 d23e 39b5 263f ce4a d53e a6af 653f
00000060: 2ce9 533f 2a21 fb3e f0c0 6c3f 6644 5c3f
00000070: 465b 473f cebd b83e b882 3c3f 3738 3a3e
00000080: 0baf 373f 0041 733e 055b 843f ef20 893f
00000090: 3d0c 863f 6d16 543f 0ab4 3a3f e6db de3e
000000a0: 54b7 ee3e 3a45 9a3e 2804 893f 02df 5c3e
000000b0: 9e55 893f 5a76 6b3f 08c3 183f d266 c53e
000000c0: 5035 053f 05c1 533f 3bc3 f43e fa0b 213f
000000d0: cd67 793f 30f3 763f d3c9 633f 1dfb e93e
000000e0: 0389 233f 481b 533f 4df2 453f 226a ae3e
000000f0: 3f48 513f 9ed5 253f af36 a53e 13fd 863e
00000100: 1755 643f 4acd cd3e 4716 c23e 29ab 353f
00000110: 5f94 2b3f 9c0c 8a3e 494b 753f 74cd f63e
00000120: 05fa 623f 9c26 763f 6b61 b13e f7a5 d63e
00000130: f6f2 673f a4cf ef3e fd1c 513f 8190 e23e
00000140: 26ec a43e 9d30 d73e a262 de3e 0051 d23e
00000150: fef4 643f 13f7 1c3f a03d 493f 1451 843e
00000160: 9cea a53e 8b5e 353f b51d fe3e cc4c 693f
00000170: dc7d 433e 5fbc b03e 7305 bd3e d46e 333f
00000180: 6c4e c73e e8a8 373f 2205 6c3f c137 b53e
00000190: ea72 873f 63e3 6f3f 2fe7 fc3e f67a de3e
000001a0: f7e8 083f c1a2 ac3e 4706 213f f7ea 7a3f
000001b0: 31b3 753f e322 823f 9657 ff3e 5677 603f
000001c0: f598 a73e 5847 db3e d0b8 863f 1e76 183f
000001d0: d693 c23e 622f f23e 1023 7f3f cda0 843f
000001e0: 3445 813f c12d 593f bf25 803f 9403 833f
000001f0: 3a85 e23e cee6 6b3f 7e98 763f f478 4b3f
00000200: 5f3b b23e 527b e13e 4b4e a03e 2997 023f
00000210: 6f5f 813f d14f 5c3f 849c 3a3f 9820 623f
00000220: c97b 6a3f 6d0b 863f c96c b53e eb22 4e3f
00000230: 2a44 553f 7493 233f 7ce1 963e 8580 e53e
00000240: 9d44 d43e 1f12 bf3e 8336 f73e 3d47 253f
00000250: 2fb7 8a3f ecc4 133f 68db 4d3e 8d46 a63e
00000260: bc02 ad3e 15af 923e 077e a23e 3171 963e
00000270: e704 593f 2203 373f 5545 283f 3751 2a3f
00000280: 6369 363f b261 343f 1087 ce3e 4df5 503f
00000290: d375 bc3e a744 293f 7005 303f 70df b73e
000002a0: 9c22 3d3f d2cc a13e cbd9 3f3f 6f32 8a3f
000002b0: 95e0 093f faa3 703f 2083 543f eb53 863f
000002c0: d79d 3c3f f440 8f3f 71ce 993f 1ef0 723f
000002d0: d9bd bd3e d2b8 ba3e 3bb0 213f 4f0e 4d3f
000002e0: 4320 ba3e 0bb9 5d3f 7e6f a33e 42f3 d53e
000002f0: 51e4 a33e 618a a63e 8af1 7c3f eeea 8c3e
00000300: fbf8 693f df97 343f 4e0d 8f3f 144f 573f
00000310: e1bf 593f a080 a53e c282 863f b04d 573f
00000320: e45f 8bbe b0e6 0c3f 7943 0c3f 3d65 263f
00000330: a4b2 7a3f e62c 7f3f 2a2a 6b3f 30b9 103f
00000340: 865d 743f 37c7 d13e 0aa1 243f 8711 343f
00000350: e9f2 8a3f 9897 883f 4905 523f dd0c d93e
00000360: 45f9 6f3f 244f d63e 5dbf 023f 3b51 283f
00000370: ee3d 2f3f eb8c 483f 84bf b43e 5adc 493f
00000380: f6c7 6f3f 5af7 403f bbe2 8b3f cc41 103f
00000390: c175 533f 83e7 883f f235 4b3f 3bf3 853f
000003a0: 0453 0d3f f03a 863f ca05 343f 401e 293f
000003b0: 2379 373f fcc1 513e 4125 013f 95d4 4d3f
000003c0: 36cd 883e cae8 2d3f 8ba9 823f 8f2f 2c3f
000003d0: 7aa4 ea3e d94f 143f 4401 a63e 0f4d 8c3f
000003e0: 1cae ac3e 4006 843f c428 163f 33c7 f83e
000003f0: f450 ab3e 5782 723f 8e1e 9b3e efc0 663e

bn.bias f4 [256]
-0.15373108 0.0075914813 -0.067646295 0.017684974 -0.042147644 -0.020053882 -0.028480513 0.13094418
-0.07624603 -0.041967317 -0.015213568 -0.031992756 0.08121907 0.023654014 -0.034680165 0.08018621
-0.008145204 -0.06390258 -0.09047812 -0.022648701 -0.04141065 -0.045115836 -0.08969036 -0.03941658
-0.009015917 -0.107388005 -0.043681327 0.06977244 -0.06803499 0.062420115 0.027551454 0.20138466
-0.026563538 -0.08579835 -0.04449364 2.0836624e-06 -0.05618132 -0.017818311 -0.0040075514 -0.107443795
0.034817956 -0.03798084 0.06189705 0.09829358 -0.048652966 -0.035654843 -0.0701429 0.089315236
-0.029416123 -0.02135531 -0.024531564 0.066354446 0.037083838 -0.05385975 -0.064814605 -0.01758338
-0.08070224 -0.044227544 0.0020535812 -0.08048411 0.02803627 -0.035234127 -0.09147314 0.032106865
0.0051400894 -0.03000647 -0.07631809 0.03234188 -0.048568267 -0.15651928 0.02644402 -0.05411471
0.018993573 -0.03637372 -0.02076562 -0.016187634 -0.04789589 -0.11419648 0.011577226 0.040213723
0.05191252 -0.041264985 0.082847185 -0.040192086 -0.052053865 0.086175516 -0.05099151 0.09968078
0.0006543389 -0.016641295 -0.021214139 0.002184355 -0.028125903 -0.17248888 -0.026639484 0.022532156
-0.041410323 -0.028672043 0.046466623 -0.09703867 -0.044912614 -0.037311736 -0.029564517 0.09188874
0.007964659 -0.057894126 -0.050242368 -0.095841475 -0.0013410981 -0.029520052 -0.04178269 0.07991669
0.04314707 0.023414135 0.021039302 -0.027004417 -0.2272306 -0.11213087 0.034290966 0.048982613
-0.028626774 -0.009273203 -0.044374518 0.0033493568 -0.0042875498 -0.033466026 0.060672417 -0.010207369
0.115908325 -0.04285269 -0.009736122 -0.013873001 -0.006754461 -0.020547874 -0.0056364415 -0.09371952
0.019691039 -0.029670604 -0.15033354 -0.015585272 -0.0324602 -0.023667749 0.13054347 -0.0608935
-0.09302461 -0.058114324 0.06780283 -0.061858207 -0.012227934 -0.06302632 -0.018682988 -0.13142566
-0.09641069 -0.15626949 0.0017547947 0.06245551 -0.0059210686 0.022974603 -0.12131349 0.010853718
-0.0113434065 -0.061148725 -0.13700399 -0.04333114 -0.061235484 -0.0012037087 -0.059567228 -0.07156434
-0.011433532 -0.02594309 0.0041781743 0.05329512 -0.025101112 -0.06533419 0.012308939 -0.010884016
-0.027495597 0.04628919 -0.06873268 -0.012096228 -0.09926694 -0.05927095 0.051940575 -0.016463391
-0.013492795 -0.050103035 -0.03942756 0.04006324 -0.0055898856 -0.025617402 -0.042838782 0.012737958
-0.03387518 -0.024699826 -0.073382966 -0.04186242 0.07213849 -0.18857153 -0.061607666 -0.020494105
0.1312241 -0.048949298 0.035388496 -0.0049483688 -0.007958086 0.075948 -0.027738903 -0.029772004
-0.017210416 0.18698552 0.012796257 -0.09869412 -0.08784127 0.06543989 -0.020114623 -0.049525566
-0.025666237 -0.03997392 -0.027615787 -0.008306504 -0.033840284 0.04905648 0.025714386 -0.0010601756
-0.094003074 0.02729283 0.002465432 -0.06873655 -0.0025151342 -0.03936345 0.017324056 -0.00048170268
-0.018032784 0.043822207 -0.075368464 -0.033183143 0.091972694 0.16831495 -0.013226368 -0.05667252
-0.07951324 -0.02334838 0.052338775 0.08227997 0.01168675 0.00066849217 0.03680253 -0.035014153
-0.06643661 0.0039030474 -0.07167946 -0.047671568 -0.15754034 -0.016110178 0.13255706 0.11564856
00000000: ae6b 1dbe f6c1 f83b 248a 8abd 14e0 903c
00000010: 02a3 2cbd 0a48 a4bc f74f e9bc 3b16 063e
00000020: e126 9cbd ece5 2bbd 5442 79bc d60a 03bd
00000030: 2f56 a63d 10c6 c13c ca0c 0ebd ab38 a43d
00000040: 7673 05bc 5bdf 82bd 984c b9bd c589 b9bc
00000050: 379e 29bd 62cb 38bd 94af b7bd 4873 21bd
00000060: 7fb7 13bc 3eee dbbd 31eb 32bd dae4 8e3d
00000070: ee55 8bbd 3cac 7f3d 96b3 e13c c837 4e3e
00000080: c79b d9bc 0cb7 afbd f73e 36bd 0cd5 0b36
00000090: 621e 66bd b5f7 91bc c751 83bb 7e0b dcbd
000000a0: 469d 0e3d cc91 1bbd c387 7d3d 254e c93d
000000b0: 5548 47bd d00a 12bd 15a7 8fbd e8ea b63d
000000c0: 15fa f0bc 55f1 aebc 6bf6 c8bc d7e4 873d
000000d0: 39e5 173d 0b9c 5cbd 85bd 84bd 050b 90bc
000000e0: 3747 a5bd f127 35bd 6095 063b dad4 a4bd
000000f0: 52ac e53c a951 10bd 4556 bbbd 7d82 033d
00000100: 326e a83b 21d0 f5bc a94c 9cbd eb78 043d
00000110: 85ef 46bd 9746 20be 21a1 d83c 63a7 5dbd
00000120: 6998 9b3c 9cfc 14bd a91c aabc ee9b 84bc
00000130: 7b2e 44bd d8df e9bd 68ae 3d3c 25b7 243d
00000140: 39a2 543d 7905 29bd c9ab a93d 75a0 24bd
00000150: 6f36 55bd ca7c b03d 79dc 50bd 7025 cc3d
00000160: f187 2b3a 5353 88bc 46c9 adbc 6527 0f3b
00000170: 4b68 e6bc eda0 30be 0c3b dabc 5b95 b83c
00000180: df9d 29bd a2e1 eabc c953 3e3d 36bc c6bd
00000190: 4af6 37bd 31d4 18bd 4931 f2bc 2a30 bc3d
000001a0: 337e 023c 6422 6dbd f1ca 4dbd 8948 c4bd
000001b0: c9c7 afba 09d4 f1bc 5324 2bbd 5dab a33d
000001c0: fbba 303d 00cf bf3c 9d5a ac3c 5e38 ddbc
000001d0: 23af 68be dfa4 e5bd af74 0c3d fea1 483d
000001e0: b282 eabc a2ee 17bc 0ec2 35bd e280 5b3b
000001f0: 937e 8cbb ac13 09bd a483 783d cf3c 27bc
00000200: 5861 ed3d 4d86 2fbd 4184 1fbc 954b 63bc
00000210: 8754 ddbb 0454 a8bc e6b1 b8bb 05f0 bfbd
00000220: 1a4f a13c c40f f3bc 09f1 19be 5e59 7fbc
00000230: fdf4 04bd dee2 c1bc 30ad 053e 766b 79bd
00000240: b083 bebd 4909 6ebd 36dc 8a3d 085f 7dbd
00000250: ac57 48bc f113 81bd 110d 99bc 7394 06be
00000260: f872 c5bd 1c05 20be 2401 e63a 59d1 7f3d
00000270: 8605 c2bb 3c35 bc3c 3573 f8bd cbd3 313c
00000280: b2d9 39bc 1677 7abd c64a 0cbe fe7b 31bd
00000290: 0fd2 7abd c3c5 9dba c4fc 73bd 5390 92bd
000002a0: b653 3bbc 9a86 d4bc 11e9 883b fc4b 5a3d
000002b0: d9a0 cdbc efcd 85bd 6fab 493c df52 32bc
000002c0: 723e e1bc bc99 3d3d b8c3 8cbd 422f 46bc
000002d0: 774c cbbd 18c6 72bd a4bf 543d 3cde 86bc
000002e0: e210 5dbc d738 4dbd cb7e 21bd 5a19 243d
000002f0: 5c2b b7bb 96db d1bc b877 2fbd deb2 503c
00000300: b3c0 0abd 4a57 cabc cf49 96bd ee77 2bbd
00000310: 58bd 933d e518 41be 5258 7cbd 41e3 a7bc
00000320: 9c5f 063e 0f7f 48bd 87f3 103d ed25 a2bb
00000330: a262 02bc a08a 9b3d b23c e3bc 6be4 f3bc
00000340: dcfc 8cbc 2279 3f3e 64a7 513c 2520 cabd
00000350: 20e6 b3bd 5905 863d 6cc7 a4bc 52db 4abd
00000360: 0042 d2bc b1bb 23bd 813a e2bc 0118 08bc
00000370: 1c9c 0abd 73ef 483d faa6 d23c 97f5 8aba
00000380: af84 c0bd 3795 df3c 1693 213b c0c5 8cbd
00000390: f3d4 24bb 923b 21bd 2eeb 8d3c 0a8d fcb9
000003a0: 7db9 93bc ea7e 333d c85a 9abd 0ceb 07bd
000003b0: 2e5c bc3d c15a 2c3e 69b3 58bc 7221 68bd
000003c0: d6d7 a2bd 1a45 bfbc 2f61 563d 6782 a83d
000003d0: c879 3f3c c03d 2f3a 40be 163d 006b 0fbd
000003e0: eb0f 88bd 45ca 7f3b aecc 92bd 4343 43bd
000003f0: 4152 21be 7ef9 83bc 0abd 073e 27d9 ec3d

bn.running_mean f4 [256]
0.17561656 0.56307656 0.06300614 0.6704557 0.9731929 1.0611432 0.014198807 0.00682108
0.23830208 6e-45 0.19364314 0.49975416 1.8302133 0.38819432 0.25392056 0.35080168
1.340686 1.6361536 0.20908628 0.04930746 0.45550564 0.00034744144 0.5383664 0.0740136
0.91235363 0.14258544 0.2434179 1.8471749 0.5540366 1.2577298 1.2281235 0.4647581
0.016701125 1.6017412 0.06414221 0.079736434 6e-45 1.2853804 0.11498487 0.02809524
0.46549714 1.178585 0.036165733 6e-45 0.40268484 0.033464197 0.15036546 0.020305213
0.2566914 1.417145 0.6489338 0.029044602 0.97098356 0.78707075 0.5317961 0.458968
0.69144607 1.2082896 0.18990529 0.018823428 0.036153313 0.20203291 0.9452662 3.023151
1.2014027 0.47585636 0.23510182 0.19610526 0.5077905 0.061675463 1.9771664 0.9941089
0.56606936 0.23517181 0.16319948 0.19581644 0.18881409 1.624196 0.91018397 0.25329083
0.023419209 6e-45 0.013592686 0.092109084 0.32111228 0.1636269 0.4036724 0.16479456
0.9120615 0.89467174 0.5505577 1.0369934 0.43948016 0.00023667005 0.013658421 0.014561534
0.86405927 0.9992845 1.1786416 5.1672636e-22 0.9993185 0.4423327 1.2909818 0.0042245234
0.51371706 2.7514548 0.24777564 1.0509644 0.69596165 1.9219235 6e-45 0.88378716
1.2447695 0.01275827 1.1263974 6e-45 1.0845062 0.6087843 0.04611371 1.1516615
0.3226858 0.38061222 1.3070039 0.03110192 0.57397306 0.0002447189 0.11160517 0.8138352
0.034196593 0.008809701 0.43993884 0.69816816 1.6279255 1.3996793 0.8468993 0.35238168
0.7459633 0.3671465 0.0592614 0.37745073 0.63458824 0.15991087 1.1213998 1.0374228
1.6580361 1.1428657 0.0505162 0.33006003 0.10589396 0.87031513 2.727873 0.07185115
0.0009268782 0.36799654 1.120654 0.007152465 0.3342894 1.2582107 0.12022871 0.02228674
6e-45 0.14250158 0.3099751 6e-45 6e-45 0.6663805 0.40799385 0.14500518
0.2174232 0.49799055 0.06878555 1.572812 1.0476099 0.04908453 0.11058589 0.17731829
0.58416027 1.1056693 0.36644796 1.1858847 0.00022287223 1.0432186 0.03125219 0.00011507368
0.014813309 0.41580775 6e-45 0.0407084 1.1567919 0.35672617 2.063223 6e-45
0.6263824 0.258851 0.1961491 0.8716245 0.38902727 0.085931025 0.16041268 2.2410047
0.084242396 0.14850982 0.5177737 0.20394294 0.37141284 0.5247848 1.0724353 0.09272479
0.33334556 0.062419802 0.42162704 1.5207852 0.49448624 1.4215584 1.0223749 0.18738858
0.16029148 0.23410442 0.57093537 0.03103014 0.59650356 0.030833717 0.40243563 0.08540405
0.7805177 6e-45 1.9903127 1.2063845 1.1462996 0.10379619 0.298274 1.0627288
0.023757776 0.007760332 0.14499426 2.6526313e-05 0.8970864 0.14763194 0.31006634 1.5473775
0.8117863 0.10838187 0.45243934 0.08398724 0.34651205 1.4098797 2.003751 0.88790625
2.0943408 0.00044852588 0.11421099 0.019148236 0.15227784 6e-45 0.056251556 0.36100605
00000000: d4d4 333e c925 103f 5d09 813d fca2 2b3f
00000010: 2b23 793f 8ad3 873f 1da2 683c 5e83 df3b
00000020: 7605 743e 0400 0000 634a 463e c7df ff3e
00000030: 6e44 ea3f 68c1 c63e e001 823e 479c b33e
00000040: 999b ab3f 7b6d d13f b71a 563e 9ff6 493d
00000050: 0938 e93e cd28 b639 61d2 093f 7194 973d
00000060: 0290 693f eb01 123e 8b42 793e 3a70 ec3f
00000070: 58d5 0d3f 4afd a03f 2733 9d3f c6f4 ed3e
00000080: ccd0 883c db05 cd3f fe5c 833d db4c a33d
00000090: 0400 0000 5887 a43f 307d eb3d fd27 e63c
000000a0: a455 ee3e e0db 963f 8522 143d 0400 0000
000000b0: b52c ce3e c111 093d 67f9 193e 1e57 a63c
000000c0: 0e6d 833e 0265 b53f 8720 263f f2ee ed3c
000000d0: 6192 783f 787d 493f ca23 083f dbfd ea3e
000000e0: 9c02 313f 3ca9 9a3f 8876 423e 9733 9a3c
000000f0: 7f15 143d b7e1 4e3e f7fc 713f 4e7b 4140
00000100: 90c7 993f 72a3 f33e 88be 703e d1cf 483e
00000110: 8ffe 013f 699f 7c3d ca13 fd3f ec7d 7e3f
00000120: ece9 103f e1d0 703e c41d 273e 1b84 483e
00000130: 7b58 413e a8e5 cf3f d101 693f 56af 813e
00000140: a4d9 bf3c 0400 0000 dbb3 5e3c b0a3 bc3d
00000150: d468 a43e cf8d 273e 26ae ce3e e8bf 283e
00000160: dd7c 693f 3509 653f 59f1 0c3f 33bc 843f
00000170: 8b03 e13e a22a 7839 92c7 5f3c 8093 6e3c
00000180: fd32 5d3f 1cd1 7f3f badd 963f c42b 1c1c
00000190: 56d3 7f3f 6f79 e23e e43e a53f df6d 8a3b
000001a0: f682 033f d617 3040 e6b8 7d3e 0086 863f
000001b0: 8b2a 323f 9701 f63f 0400 0000 e03f 623f
000001c0: 9b54 9f3f 1008 513c ca2d 903f 0400 0000
000001d0: 19d1 8a3f 4ad9 1b3f bbe1 3c3d a569 933f
000001e0: 1337 a53e 9bdf c23e e74b a73f 74c9 fe3c
000001f0: e6ef 123f 9d4d 8039 4091 e43d 8157 503f
00000200: ba11 0c3d 9056 103c aa3f e13e 26bb 323f
00000210: dd5f d03f b128 b33f 64ce 583f 5f6b b43e
00000220: 73f7 3e3f a0fa bb3e 15bc 723d 3941 c13e
00000230: 6074 223f adbf 233e 078a 8f3f 45ca 843f
00000240: 873a d43f 6c49 923f 13ea 4e3d a1fd a83e
00000250: efde d83d f9cc 5e3f 7995 2e40 b226 933d
00000260: bef9 723a 0b6a bc3e 9771 8f3f 3a5f ea3b
00000270: fb27 ab3e 0c0d a13f 783a f63d ae92 b63c
00000280: 0400 0000 efeb 113e 0eb5 9e3e 0400 0000
00000290: 0400 0000 ea97 2a3f 92e4 d03e 3d7c 143e
000002a0: 30a4 5e3e 9ef8 fe3e 70df 8c3d e751 c93f
000002b0: 1518 863f dc0c 493d db7a e23d ed92 353e
000002c0: 878b 153f 9286 8d3f 119f bb3e 12cb 973f
000002d0: cfb2 6939 3088 853f 4c02 003d b653 f138
000002e0: 85b3 723c c1e4 d43e 0400 0000 dabd 263d
000002f0: c211 943f d0a4 b63e d80b 0440 0400 0000
00000300: 995a 203f 1e88 843e 4fdb 483e c922 5f3f
00000310: 952e c73e 9bfc af3d 3943 243e 9f6c 0f40
00000320: 4787 ac3d f512 183e d18c 043f 6bd6 503e
00000330: d329 be3e 4c58 063f 8f45 893f 7fe6 bd3d
00000340: 45ac aa3e e8ab 7f3d 80df d73e 17a9 c23f
00000350: 4d2d fd3e a0f5 b53f 2edd 823f cbe2 3f3e
00000360: 7323 243e 12b9 6f3e d228 123f ec32 fe3c
00000370: 75b4 183f fe96 fc3c 0b0c ce3e 52e8 ae3d
00000380: 02d0 473f 0400 0000 91c2 fe3f cf6a 9a3f
00000390: f2b9 923f 1993 d43d 5fb7 983e 7f07 883f
000003a0: ab9f c23c 624a fe3b 6079 143e d384 de37
000003b0: 74a7 653f d42c 173e 04c1 9e3e 7710 c63f
000003c0: 3ad1 4f3f 50f7 dd3d 21a6 e73e 8101 ac3d
000003d0: 076a b13e f076 b43f 753d 0040 d34d 633f
000003e0: ae09 0640 2028 eb39 74e7 e93d c3dc 9c3c
000003f0: b9ee 1b3e 0400 0000 0868 663d c9d5 b83e
